!ct = !cheddar.ciphertext
!ctx = !cheddar.context
!encoder = !cheddar.encoder
!evk = !cheddar.eval_key
!pt = !cheddar.plaintext
!ui = !cheddar.user_interface
#layout = #tensor_ext.layout<"{ [i0] -> [ct, slot] : ct = 0 and (-i0 + slot) mod 16 = 0 and 0 <= i0 <= 9 and 0 <= slot <= 1023 }">
#original_type = #tensor_ext.original_type<originalType = tensor<10xf32>, layout = #layout>
module attributes {cheddar.P = array<i64: 1152921504608747521, 1152921504614055937, 1152921504615628801>, cheddar.Q = array<i64: 36028797017456641, 35184376545281, 35184367828993, 35184373989377, 35184368025601, 35184373006337, 35184368877569, 35184372744193>, cheddar.logDefaultScale = 45 : i64, cheddar.logN = 15 : i64, scheme.actual_slot_count = 16384 : i64, scheme.requested_slot_count = 1024 : i64} {
  func.func private @_assign_layout_365351921186589087() -> tensor<16x1024xf32> attributes {client.pack_func = {func_name = "alexnet_tiny"}} {
    %c63_i32 = arith.constant 63 : i32
    %c1018_i32 = arith.constant 1018 : i32
    %c64_i32 = arith.constant 64 : i32
    %c1087_i32 = arith.constant 1087 : i32
    %c6_i32 = arith.constant 6 : i32
    %c9_i32 = arith.constant 9 : i32
    %c16_i32 = arith.constant 16 : i32
    %cst = arith.constant dense<0.000000e+00> : tensor<16x1024xf32>
    %c0_i32 = arith.constant 0 : i32
    %c1_i32 = arith.constant 1 : i32
    %cst_0 = arith.constant dense<"…"> : tensor<10x64xf32>
    %0 = scf.for %arg0 = %c0_i32 to %c16_i32 step %c1_i32 iter_args(%arg1 = %cst) -> (tensor<16x1024xf32>)  : i32 {
      %1 = scf.for %arg2 = %c0_i32 to %c1018_i32 step %c1_i32 iter_args(%arg3 = %arg1) -> (tensor<16x1024xf32>)  : i32 {
        %2 = arith.remsi %arg2, %c16_i32 : i32
        %3 = arith.cmpi sle, %2, %c9_i32 : i32
        %4 = scf.if %3 -> (tensor<16x1024xf32>) {
          %5 = arith.addi %arg2, %c6_i32 : i32
          %6 = arith.remsi %5, %c16_i32 : i32
          %7 = arith.subi %6, %c6_i32 : i32
          %8 = arith.subi %c0_i32, %arg0 : i32
          %9 = arith.subi %8, %arg2 : i32
          %10 = arith.addi %9, %c1087_i32 : i32
          %11 = arith.remsi %10, %c64_i32 : i32
          %12 = arith.subi %c63_i32, %11 : i32
          %13 = arith.index_cast %7 : i32 to index
          %14 = arith.index_cast %12 : i32 to index
          %extracted = tensor.extract %cst_0[%13, %14] : tensor<10x64xf32>
          %15 = arith.index_cast %arg0 : i32 to index
          %16 = arith.index_cast %arg2 : i32 to index
          %inserted = tensor.insert %extracted into %arg3[%15, %16] : tensor<16x1024xf32>
          scf.yield %inserted : tensor<16x1024xf32>
        } else {
          scf.yield %arg3 : tensor<16x1024xf32>
        }
        scf.yield %4 : tensor<16x1024xf32>
      }
      scf.yield %1 : tensor<16x1024xf32>
    }
    return %0 : tensor<16x1024xf32>
  }
  func.func private @_assign_layout_7374513594031956373() -> tensor<64x1024xf32> attributes {client.pack_func = {func_name = "alexnet_tiny"}} {
    %c127_i32 = arith.constant 127 : i32
    %c1024_i32 = arith.constant 1024 : i32
    %c128_i32 = arith.constant 128 : i32
    %c1151_i32 = arith.constant 1151 : i32
    %c64_i32 = arith.constant 64 : i32
    %cst = arith.constant dense<0.000000e+00> : tensor<64x1024xf32>
    %c0_i32 = arith.constant 0 : i32
    %c1_i32 = arith.constant 1 : i32
    %cst_0 = arith.constant dense<"…"> : tensor<64x128xf32>
    %0 = scf.for %arg0 = %c0_i32 to %c64_i32 step %c1_i32 iter_args(%arg1 = %cst) -> (tensor<64x1024xf32>)  : i32 {
      %1 = scf.for %arg2 = %c0_i32 to %c1024_i32 step %c1_i32 iter_args(%arg3 = %arg1) -> (tensor<64x1024xf32>)  : i32 {
        %2 = arith.remsi %arg2, %c64_i32 : i32
        %3 = arith.subi %c0_i32, %arg0 : i32
        %4 = arith.subi %3, %arg2 : i32
        %5 = arith.addi %4, %c1151_i32 : i32
        %6 = arith.remsi %5, %c128_i32 : i32
        %7 = arith.subi %c127_i32, %6 : i32
        %8 = arith.index_cast %2 : i32 to index
        %9 = arith.index_cast %7 : i32 to index
        %extracted = tensor.extract %cst_0[%8, %9] : tensor<64x128xf32>
        %10 = arith.index_cast %arg0 : i32 to index
        %11 = arith.index_cast %arg2 : i32 to index
        %inserted = tensor.insert %extracted into %arg3[%10, %11] : tensor<64x1024xf32>
        scf.yield %inserted : tensor<64x1024xf32>
      }
      scf.yield %1 : tensor<64x1024xf32>
    }
    return %0 : tensor<64x1024xf32>
  }
  func.func private @_assign_layout_8504590335812623450() -> tensor<128x1024xf32> attributes {client.pack_func = {func_name = "alexnet_tiny"}} {
    %c255_i32 = arith.constant 255 : i32
    %c1024_i32 = arith.constant 1024 : i32
    %c256_i32 = arith.constant 256 : i32
    %c1279_i32 = arith.constant 1279 : i32
    %c128_i32 = arith.constant 128 : i32
    %cst = arith.constant dense<0.000000e+00> : tensor<128x1024xf32>
    %c0_i32 = arith.constant 0 : i32
    %c1_i32 = arith.constant 1 : i32
    %cst_0 = arith.constant dense<"…"> : tensor<128x256xf32>
    %0 = scf.for %arg0 = %c0_i32 to %c128_i32 step %c1_i32 iter_args(%arg1 = %cst) -> (tensor<128x1024xf32>)  : i32 {
      %1 = scf.for %arg2 = %c0_i32 to %c1024_i32 step %c1_i32 iter_args(%arg3 = %arg1) -> (tensor<128x1024xf32>)  : i32 {
        %2 = arith.remsi %arg2, %c128_i32 : i32
        %3 = arith.subi %c0_i32, %arg0 : i32
        %4 = arith.subi %3, %arg2 : i32
        %5 = arith.addi %4, %c1279_i32 : i32
        %6 = arith.remsi %5, %c256_i32 : i32
        %7 = arith.subi %c255_i32, %6 : i32
        %8 = arith.index_cast %2 : i32 to index
        %9 = arith.index_cast %7 : i32 to index
        %extracted = tensor.extract %cst_0[%8, %9] : tensor<128x256xf32>
        %10 = arith.index_cast %arg0 : i32 to index
        %11 = arith.index_cast %arg2 : i32 to index
        %inserted = tensor.insert %extracted into %arg3[%10, %11] : tensor<128x1024xf32>
        scf.yield %inserted : tensor<128x1024xf32>
      }
      scf.yield %1 : tensor<128x1024xf32>
    }
    return %0 : tensor<128x1024xf32>
  }
  func.func private @_assign_layout_8138548088405501848() -> tensor<256x1024xf32> attributes {client.pack_func = {func_name = "alexnet_tiny"}} {
    %c767_i32 = arith.constant 767 : i32
    %c1791_i32 = arith.constant 1791 : i32
    %c1024_i32 = arith.constant 1024 : i32
    %c256_i32 = arith.constant 256 : i32
    %cst = arith.constant dense<0.000000e+00> : tensor<256x1024xf32>
    %c0_i32 = arith.constant 0 : i32
    %c1_i32 = arith.constant 1 : i32
    %cst_0 = arith.constant dense<"…"> : tensor<256x768xf32>
    %0 = scf.for %arg0 = %c0_i32 to %c256_i32 step %c1_i32 iter_args(%arg1 = %cst) -> (tensor<256x1024xf32>)  : i32 {
      %1 = scf.for %arg2 = %c0_i32 to %c1024_i32 step %c1_i32 iter_args(%arg3 = %arg1) -> (tensor<256x1024xf32>)  : i32 {
        %2 = arith.addi %arg0, %arg2 : i32
        %3 = arith.addi %2, %c256_i32 : i32
        %4 = arith.remsi %3, %c1024_i32 : i32
        %5 = arith.cmpi sge, %4, %c256_i32 : i32
        %6 = scf.if %5 -> (tensor<256x1024xf32>) {
          %7 = arith.remsi %arg2, %c256_i32 : i32
          %8 = arith.subi %c0_i32, %arg0 : i32
          %9 = arith.subi %8, %arg2 : i32
          %10 = arith.addi %9, %c1791_i32 : i32
          %11 = arith.remsi %10, %c1024_i32 : i32
          %12 = arith.subi %c767_i32, %11 : i32
          %13 = arith.index_cast %7 : i32 to index
          %14 = arith.index_cast %12 : i32 to index
          %extracted = tensor.extract %cst_0[%13, %14] : tensor<256x768xf32>
          %15 = arith.index_cast %arg0 : i32 to index
          %16 = arith.index_cast %arg2 : i32 to index
          %inserted = tensor.insert %extracted into %arg3[%15, %16] : tensor<256x1024xf32>
          scf.yield %inserted : tensor<256x1024xf32>
        } else {
          scf.yield %arg3 : tensor<256x1024xf32>
        }
        scf.yield %6 : tensor<256x1024xf32>
      }
      scf.yield %1 : tensor<256x1024xf32>
    }
    return %0 : tensor<256x1024xf32>
  }
  func.func @alexnet_tiny(%ctx: !ctx, %encoder: !encoder, %ui: !ui, %arg0: tensor<1x!ct> {tensor_ext.original_type = #tensor_ext.original_type<originalType = tensor<1x3x16x16xf32>, layout = #tensor_ext.layout<"{ [i0, i1, i2, i3] -> [ct, slot] : i0 = 0 and ct = 0 and (-256i1 - 16i2 - i3 + slot) mod 1024 = 0 and 0 <= i1 <= 2 and 0 <= i2 <= 15 and 0 <= i3 <= 15 and 0 <= slot <= 1023 }">>}) -> (tensor<1x!ct> {tensor_ext.original_type = #original_type}) {
    %c256 = arith.constant 256 : index
    %c512 = arith.constant 512 : index
    %c240 = arith.constant 240 : index
    %c224 = arith.constant 224 : index
    %c208 = arith.constant 208 : index
    %c192 = arith.constant 192 : index
    %c176 = arith.constant 176 : index
    %c160 = arith.constant 160 : index
    %c144 = arith.constant 144 : index
    %c128 = arith.constant 128 : index
    %c120 = arith.constant 120 : index
    %c112 = arith.constant 112 : index
    %c108 = arith.constant 108 : index
    %c96 = arith.constant 96 : index
    %c84 = arith.constant 84 : index
    %c80 = arith.constant 80 : index
    %c72 = arith.constant 72 : index
    %c64 = arith.constant 64 : index
    %c60 = arith.constant 60 : index
    %c56 = arith.constant 56 : index
    %c48 = arith.constant 48 : index
    %c40 = arith.constant 40 : index
    %c36 = arith.constant 36 : index
    %c32 = arith.constant 32 : index
    %c24 = arith.constant 24 : index
    %c16 = arith.constant 16 : index
    %c15 = arith.constant 15 : index
    %c14 = arith.constant 14 : index
    %c13 = arith.constant 13 : index
    %c12 = arith.constant 12 : index
    %c11 = arith.constant 11 : index
    %c10 = arith.constant 10 : index
    %c9 = arith.constant 9 : index
    %c8 = arith.constant 8 : index
    %c7 = arith.constant 7 : index
    %c6 = arith.constant 6 : index
    %c5 = arith.constant 5 : index
    %c4 = arith.constant 4 : index
    %c3 = arith.constant 3 : index
    %c2 = arith.constant 2 : index
    %c1 = arith.constant 1 : index
    %c0 = arith.constant 0 : index
    %0 = call @_assign_layout_8138548088405501848() : () -> tensor<256x1024xf32>
    %1 = call @_assign_layout_8504590335812623450() : () -> tensor<128x1024xf32>
    %2 = call @_assign_layout_7374513594031956373() : () -> tensor<64x1024xf32>
    %3 = call @_assign_layout_365351921186589087() : () -> tensor<16x1024xf32>
    %extracted_slice = tensor.extract_slice %1[12, 0] [1, 1012] [1, 1] : tensor<128x1024xf32> to tensor<1x1012xf32>
    %extracted_slice_0 = tensor.extract_slice %1[12, 1012] [1, 12] [1, 1] : tensor<128x1024xf32> to tensor<1x12xf32>
    %4 = tensor.empty() : tensor<1x1024xf32>
    %inserted_slice = tensor.insert_slice %extracted_slice into %4[0, 12] [1, 1012] [1, 1] : tensor<1x1012xf32> into tensor<1x1024xf32>
    %inserted_slice_1 = tensor.insert_slice %extracted_slice_0 into %inserted_slice[0, 0] [1, 12] [1, 1] : tensor<1x12xf32> into tensor<1x1024xf32>
    %extracted_slice_2 = tensor.extract_slice %1[13, 0] [1, 1012] [1, 1] : tensor<128x1024xf32> to tensor<1x1012xf32>
    %extracted_slice_3 = tensor.extract_slice %1[13, 1012] [1, 12] [1, 1] : tensor<128x1024xf32> to tensor<1x12xf32>
    %inserted_slice_4 = tensor.insert_slice %extracted_slice_2 into %4[0, 12] [1, 1012] [1, 1] : tensor<1x1012xf32> into tensor<1x1024xf32>
    %inserted_slice_5 = tensor.insert_slice %extracted_slice_3 into %inserted_slice_4[0, 0] [1, 12] [1, 1] : tensor<1x12xf32> into tensor<1x1024xf32>
    %extracted_slice_6 = tensor.extract_slice %1[14, 0] [1, 1012] [1, 1] : tensor<128x1024xf32> to tensor<1x1012xf32>
    %extracted_slice_7 = tensor.extract_slice %1[14, 1012] [1, 12] [1, 1] : tensor<128x1024xf32> to tensor<1x12xf32>
    %inserted_slice_8 = tensor.insert_slice %extracted_slice_6 into %4[0, 12] [1, 1012] [1, 1] : tensor<1x1012xf32> into tensor<1x1024xf32>
    %inserted_slice_9 = tensor.insert_slice %extracted_slice_7 into %inserted_slice_8[0, 0] [1, 12] [1, 1] : tensor<1x12xf32> into tensor<1x1024xf32>
    %extracted_slice_10 = tensor.extract_slice %1[15, 0] [1, 1012] [1, 1] : tensor<128x1024xf32> to tensor<1x1012xf32>
    %extracted_slice_11 = tensor.extract_slice %1[15, 1012] [1, 12] [1, 1] : tensor<128x1024xf32> to tensor<1x12xf32>
    %inserted_slice_12 = tensor.insert_slice %extracted_slice_10 into %4[0, 12] [1, 1012] [1, 1] : tensor<1x1012xf32> into tensor<1x1024xf32>
    %inserted_slice_13 = tensor.insert_slice %extracted_slice_11 into %inserted_slice_12[0, 0] [1, 12] [1, 1] : tensor<1x12xf32> into tensor<1x1024xf32>
    %extracted_slice_14 = tensor.extract_slice %1[16, 0] [1, 1012] [1, 1] : tensor<128x1024xf32> to tensor<1x1012xf32>
    %extracted_slice_15 = tensor.extract_slice %1[16, 1012] [1, 12] [1, 1] : tensor<128x1024xf32> to tensor<1x12xf32>
    %inserted_slice_16 = tensor.insert_slice %extracted_slice_14 into %4[0, 12] [1, 1012] [1, 1] : tensor<1x1012xf32> into tensor<1x1024xf32>
    %inserted_slice_17 = tensor.insert_slice %extracted_slice_15 into %inserted_slice_16[0, 0] [1, 12] [1, 1] : tensor<1x12xf32> into tensor<1x1024xf32>
    %extracted_slice_18 = tensor.extract_slice %1[17, 0] [1, 1012] [1, 1] : tensor<128x1024xf32> to tensor<1x1012xf32>
    %extracted_slice_19 = tensor.extract_slice %1[17, 1012] [1, 12] [1, 1] : tensor<128x1024xf32> to tensor<1x12xf32>
    %inserted_slice_20 = tensor.insert_slice %extracted_slice_18 into %4[0, 12] [1, 1012] [1, 1] : tensor<1x1012xf32> into tensor<1x1024xf32>
    %inserted_slice_21 = tensor.insert_slice %extracted_slice_19 into %inserted_slice_20[0, 0] [1, 12] [1, 1] : tensor<1x12xf32> into tensor<1x1024xf32>
    %extracted_slice_22 = tensor.extract_slice %1[18, 0] [1, 1012] [1, 1] : tensor<128x1024xf32> to tensor<1x1012xf32>
    %extracted_slice_23 = tensor.extract_slice %1[18, 1012] [1, 12] [1, 1] : tensor<128x1024xf32> to tensor<1x12xf32>
    %inserted_slice_24 = tensor.insert_slice %extracted_slice_22 into %4[0, 12] [1, 1012] [1, 1] : tensor<1x1012xf32> into tensor<1x1024xf32>
    %inserted_slice_25 = tensor.insert_slice %extracted_slice_23 into %inserted_slice_24[0, 0] [1, 12] [1, 1] : tensor<1x12xf32> into tensor<1x1024xf32>
    %extracted_slice_26 = tensor.extract_slice %1[19, 0] [1, 1012] [1, 1] : tensor<128x1024xf32> to tensor<1x1012xf32>
    %extracted_slice_27 = tensor.extract_slice %1[19, 1012] [1, 12] [1, 1] : tensor<128x1024xf32> to tensor<1x12xf32>
    %inserted_slice_28 = tensor.insert_slice %extracted_slice_26 into %4[0, 12] [1, 1012] [1, 1] : tensor<1x1012xf32> into tensor<1x1024xf32>
    %inserted_slice_29 = tensor.insert_slice %extracted_slice_27 into %inserted_slice_28[0, 0] [1, 12] [1, 1] : tensor<1x12xf32> into tensor<1x1024xf32>
    %extracted_slice_30 = tensor.extract_slice %1[20, 0] [1, 1012] [1, 1] : tensor<128x1024xf32> to tensor<1x1012xf32>
    %extracted_slice_31 = tensor.extract_slice %1[20, 1012] [1, 12] [1, 1] : tensor<128x1024xf32> to tensor<1x12xf32>
    %inserted_slice_32 = tensor.insert_slice %extracted_slice_30 into %4[0, 12] [1, 1012] [1, 1] : tensor<1x1012xf32> into tensor<1x1024xf32>
    %inserted_slice_33 = tensor.insert_slice %extracted_slice_31 into %inserted_slice_32[0, 0] [1, 12] [1, 1] : tensor<1x12xf32> into tensor<1x1024xf32>
    %extracted_slice_34 = tensor.extract_slice %1[21, 0] [1, 1012] [1, 1] : tensor<128x1024xf32> to tensor<1x1012xf32>
    %extracted_slice_35 = tensor.extract_slice %1[21, 1012] [1, 12] [1, 1] : tensor<128x1024xf32> to tensor<1x12xf32>
    %inserted_slice_36 = tensor.insert_slice %extracted_slice_34 into %4[0, 12] [1, 1012] [1, 1] : tensor<1x1012xf32> into tensor<1x1024xf32>
    %inserted_slice_37 = tensor.insert_slice %extracted_slice_35 into %inserted_slice_36[0, 0] [1, 12] [1, 1] : tensor<1x12xf32> into tensor<1x1024xf32>
    %extracted_slice_38 = tensor.extract_slice %1[22, 0] [1, 1012] [1, 1] : tensor<128x1024xf32> to tensor<1x1012xf32>
    %extracted_slice_39 = tensor.extract_slice %1[22, 1012] [1, 12] [1, 1] : tensor<128x1024xf32> to tensor<1x12xf32>
    %inserted_slice_40 = tensor.insert_slice %extracted_slice_38 into %4[0, 12] [1, 1012] [1, 1] : tensor<1x1012xf32> into tensor<1x1024xf32>
    %inserted_slice_41 = tensor.insert_slice %extracted_slice_39 into %inserted_slice_40[0, 0] [1, 12] [1, 1] : tensor<1x12xf32> into tensor<1x1024xf32>
    %extracted_slice_42 = tensor.extract_slice %1[23, 0] [1, 1012] [1, 1] : tensor<128x1024xf32> to tensor<1x1012xf32>
    %extracted_slice_43 = tensor.extract_slice %1[23, 1012] [1, 12] [1, 1] : tensor<128x1024xf32> to tensor<1x12xf32>
    %inserted_slice_44 = tensor.insert_slice %extracted_slice_42 into %4[0, 12] [1, 1012] [1, 1] : tensor<1x1012xf32> into tensor<1x1024xf32>
    %inserted_slice_45 = tensor.insert_slice %extracted_slice_43 into %inserted_slice_44[0, 0] [1, 12] [1, 1] : tensor<1x12xf32> into tensor<1x1024xf32>
    %extracted_slice_46 = tensor.extract_slice %1[24, 0] [1, 1000] [1, 1] : tensor<128x1024xf32> to tensor<1x1000xf32>
    %extracted_slice_47 = tensor.extract_slice %1[24, 1000] [1, 24] [1, 1] : tensor<128x1024xf32> to tensor<1x24xf32>
    %inserted_slice_48 = tensor.insert_slice %extracted_slice_46 into %4[0, 24] [1, 1000] [1, 1] : tensor<1x1000xf32> into tensor<1x1024xf32>
    %inserted_slice_49 = tensor.insert_slice %extracted_slice_47 into %inserted_slice_48[0, 0] [1, 24] [1, 1] : tensor<1x24xf32> into tensor<1x1024xf32>
    %extracted_slice_50 = tensor.extract_slice %1[25, 0] [1, 1000] [1, 1] : tensor<128x1024xf32> to tensor<1x1000xf32>
    %extracted_slice_51 = tensor.extract_slice %1[25, 1000] [1, 24] [1, 1] : tensor<128x1024xf32> to tensor<1x24xf32>
    %inserted_slice_52 = tensor.insert_slice %extracted_slice_50 into %4[0, 24] [1, 1000] [1, 1] : tensor<1x1000xf32> into tensor<1x1024xf32>
    %inserted_slice_53 = tensor.insert_slice %extracted_slice_51 into %inserted_slice_52[0, 0] [1, 24] [1, 1] : tensor<1x24xf32> into tensor<1x1024xf32>
    %extracted_slice_54 = tensor.extract_slice %1[26, 0] [1, 1000] [1, 1] : tensor<128x1024xf32> to tensor<1x1000xf32>
    %extracted_slice_55 = tensor.extract_slice %1[26, 1000] [1, 24] [1, 1] : tensor<128x1024xf32> to tensor<1x24xf32>
    %inserted_slice_56 = tensor.insert_slice %extracted_slice_54 into %4[0, 24] [1, 1000] [1, 1] : tensor<1x1000xf32> into tensor<1x1024xf32>
    %inserted_slice_57 = tensor.insert_slice %extracted_slice_55 into %inserted_slice_56[0, 0] [1, 24] [1, 1] : tensor<1x24xf32> into tensor<1x1024xf32>
    %extracted_slice_58 = tensor.extract_slice %1[27, 0] [1, 1000] [1, 1] : tensor<128x1024xf32> to tensor<1x1000xf32>
    %extracted_slice_59 = tensor.extract_slice %1[27, 1000] [1, 24] [1, 1] : tensor<128x1024xf32> to tensor<1x24xf32>
    %inserted_slice_60 = tensor.insert_slice %extracted_slice_58 into %4[0, 24] [1, 1000] [1, 1] : tensor<1x1000xf32> into tensor<1x1024xf32>
    %inserted_slice_61 = tensor.insert_slice %extracted_slice_59 into %inserted_slice_60[0, 0] [1, 24] [1, 1] : tensor<1x24xf32> into tensor<1x1024xf32>
    %extracted_slice_62 = tensor.extract_slice %1[28, 0] [1, 1000] [1, 1] : tensor<128x1024xf32> to tensor<1x1000xf32>
    %extracted_slice_63 = tensor.extract_slice %1[28, 1000] [1, 24] [1, 1] : tensor<128x1024xf32> to tensor<1x24xf32>
    %inserted_slice_64 = tensor.insert_slice %extracted_slice_62 into %4[0, 24] [1, 1000] [1, 1] : tensor<1x1000xf32> into tensor<1x1024xf32>
    %inserted_slice_65 = tensor.insert_slice %extracted_slice_63 into %inserted_slice_64[0, 0] [1, 24] [1, 1] : tensor<1x24xf32> into tensor<1x1024xf32>
    %extracted_slice_66 = tensor.extract_slice %1[29, 0] [1, 1000] [1, 1] : tensor<128x1024xf32> to tensor<1x1000xf32>
    %extracted_slice_67 = tensor.extract_slice %1[29, 1000] [1, 24] [1, 1] : tensor<128x1024xf32> to tensor<1x24xf32>
    %inserted_slice_68 = tensor.insert_slice %extracted_slice_66 into %4[0, 24] [1, 1000] [1, 1] : tensor<1x1000xf32> into tensor<1x1024xf32>
    %inserted_slice_69 = tensor.insert_slice %extracted_slice_67 into %inserted_slice_68[0, 0] [1, 24] [1, 1] : tensor<1x24xf32> into tensor<1x1024xf32>
    %extracted_slice_70 = tensor.extract_slice %1[30, 0] [1, 1000] [1, 1] : tensor<128x1024xf32> to tensor<1x1000xf32>
    %extracted_slice_71 = tensor.extract_slice %1[30, 1000] [1, 24] [1, 1] : tensor<128x1024xf32> to tensor<1x24xf32>
    %inserted_slice_72 = tensor.insert_slice %extracted_slice_70 into %4[0, 24] [1, 1000] [1, 1] : tensor<1x1000xf32> into tensor<1x1024xf32>
    %inserted_slice_73 = tensor.insert_slice %extracted_slice_71 into %inserted_slice_72[0, 0] [1, 24] [1, 1] : tensor<1x24xf32> into tensor<1x1024xf32>
    %extracted_slice_74 = tensor.extract_slice %1[31, 0] [1, 1000] [1, 1] : tensor<128x1024xf32> to tensor<1x1000xf32>
    %extracted_slice_75 = tensor.extract_slice %1[31, 1000] [1, 24] [1, 1] : tensor<128x1024xf32> to tensor<1x24xf32>
    %inserted_slice_76 = tensor.insert_slice %extracted_slice_74 into %4[0, 24] [1, 1000] [1, 1] : tensor<1x1000xf32> into tensor<1x1024xf32>
    %inserted_slice_77 = tensor.insert_slice %extracted_slice_75 into %inserted_slice_76[0, 0] [1, 24] [1, 1] : tensor<1x24xf32> into tensor<1x1024xf32>
    %extracted_slice_78 = tensor.extract_slice %1[32, 0] [1, 1000] [1, 1] : tensor<128x1024xf32> to tensor<1x1000xf32>
    %extracted_slice_79 = tensor.extract_slice %1[32, 1000] [1, 24] [1, 1] : tensor<128x1024xf32> to tensor<1x24xf32>
    %inserted_slice_80 = tensor.insert_slice %extracted_slice_78 into %4[0, 24] [1, 1000] [1, 1] : tensor<1x1000xf32> into tensor<1x1024xf32>
    %inserted_slice_81 = tensor.insert_slice %extracted_slice_79 into %inserted_slice_80[0, 0] [1, 24] [1, 1] : tensor<1x24xf32> into tensor<1x1024xf32>
    %extracted_slice_82 = tensor.extract_slice %1[33, 0] [1, 1000] [1, 1] : tensor<128x1024xf32> to tensor<1x1000xf32>
    %extracted_slice_83 = tensor.extract_slice %1[33, 1000] [1, 24] [1, 1] : tensor<128x1024xf32> to tensor<1x24xf32>
    %inserted_slice_84 = tensor.insert_slice %extracted_slice_82 into %4[0, 24] [1, 1000] [1, 1] : tensor<1x1000xf32> into tensor<1x1024xf32>
    %inserted_slice_85 = tensor.insert_slice %extracted_slice_83 into %inserted_slice_84[0, 0] [1, 24] [1, 1] : tensor<1x24xf32> into tensor<1x1024xf32>
    %extracted_slice_86 = tensor.extract_slice %1[34, 0] [1, 1000] [1, 1] : tensor<128x1024xf32> to tensor<1x1000xf32>
    %extracted_slice_87 = tensor.extract_slice %1[34, 1000] [1, 24] [1, 1] : tensor<128x1024xf32> to tensor<1x24xf32>
    %inserted_slice_88 = tensor.insert_slice %extracted_slice_86 into %4[0, 24] [1, 1000] [1, 1] : tensor<1x1000xf32> into tensor<1x1024xf32>
    %inserted_slice_89 = tensor.insert_slice %extracted_slice_87 into %inserted_slice_88[0, 0] [1, 24] [1, 1] : tensor<1x24xf32> into tensor<1x1024xf32>
    %extracted_slice_90 = tensor.extract_slice %1[35, 0] [1, 1000] [1, 1] : tensor<128x1024xf32> to tensor<1x1000xf32>
    %extracted_slice_91 = tensor.extract_slice %1[35, 1000] [1, 24] [1, 1] : tensor<128x1024xf32> to tensor<1x24xf32>
    %inserted_slice_92 = tensor.insert_slice %extracted_slice_90 into %4[0, 24] [1, 1000] [1, 1] : tensor<1x1000xf32> into tensor<1x1024xf32>
    %inserted_slice_93 = tensor.insert_slice %extracted_slice_91 into %inserted_slice_92[0, 0] [1, 24] [1, 1] : tensor<1x24xf32> into tensor<1x1024xf32>
    %extracted_slice_94 = tensor.extract_slice %1[36, 0] [1, 988] [1, 1] : tensor<128x1024xf32> to tensor<1x988xf32>
    %extracted_slice_95 = tensor.extract_slice %1[36, 988] [1, 36] [1, 1] : tensor<128x1024xf32> to tensor<1x36xf32>
    %inserted_slice_96 = tensor.insert_slice %extracted_slice_94 into %4[0, 36] [1, 988] [1, 1] : tensor<1x988xf32> into tensor<1x1024xf32>
    %inserted_slice_97 = tensor.insert_slice %extracted_slice_95 into %inserted_slice_96[0, 0] [1, 36] [1, 1] : tensor<1x36xf32> into tensor<1x1024xf32>
    %extracted_slice_98 = tensor.extract_slice %1[37, 0] [1, 988] [1, 1] : tensor<128x1024xf32> to tensor<1x988xf32>
    %extracted_slice_99 = tensor.extract_slice %1[37, 988] [1, 36] [1, 1] : tensor<128x1024xf32> to tensor<1x36xf32>
    %inserted_slice_100 = tensor.insert_slice %extracted_slice_98 into %4[0, 36] [1, 988] [1, 1] : tensor<1x988xf32> into tensor<1x1024xf32>
    %inserted_slice_101 = tensor.insert_slice %extracted_slice_99 into %inserted_slice_100[0, 0] [1, 36] [1, 1] : tensor<1x36xf32> into tensor<1x1024xf32>
    %extracted_slice_102 = tensor.extract_slice %1[38, 0] [1, 988] [1, 1] : tensor<128x1024xf32> to tensor<1x988xf32>
    %extracted_slice_103 = tensor.extract_slice %1[38, 988] [1, 36] [1, 1] : tensor<128x1024xf32> to tensor<1x36xf32>
    %inserted_slice_104 = tensor.insert_slice %extracted_slice_102 into %4[0, 36] [1, 988] [1, 1] : tensor<1x988xf32> into tensor<1x1024xf32>
    %inserted_slice_105 = tensor.insert_slice %extracted_slice_103 into %inserted_slice_104[0, 0] [1, 36] [1, 1] : tensor<1x36xf32> into tensor<1x1024xf32>
    %extracted_slice_106 = tensor.extract_slice %1[39, 0] [1, 988] [1, 1] : tensor<128x1024xf32> to tensor<1x988xf32>
    %extracted_slice_107 = tensor.extract_slice %1[39, 988] [1, 36] [1, 1] : tensor<128x1024xf32> to tensor<1x36xf32>
    %inserted_slice_108 = tensor.insert_slice %extracted_slice_106 into %4[0, 36] [1, 988] [1, 1] : tensor<1x988xf32> into tensor<1x1024xf32>
    %inserted_slice_109 = tensor.insert_slice %extracted_slice_107 into %inserted_slice_108[0, 0] [1, 36] [1, 1] : tensor<1x36xf32> into tensor<1x1024xf32>
    %extracted_slice_110 = tensor.extract_slice %1[40, 0] [1, 988] [1, 1] : tensor<128x1024xf32> to tensor<1x988xf32>
    %extracted_slice_111 = tensor.extract_slice %1[40, 988] [1, 36] [1, 1] : tensor<128x1024xf32> to tensor<1x36xf32>
    %inserted_slice_112 = tensor.insert_slice %extracted_slice_110 into %4[0, 36] [1, 988] [1, 1] : tensor<1x988xf32> into tensor<1x1024xf32>
    %inserted_slice_113 = tensor.insert_slice %extracted_slice_111 into %inserted_slice_112[0, 0] [1, 36] [1, 1] : tensor<1x36xf32> into tensor<1x1024xf32>
    %extracted_slice_114 = tensor.extract_slice %1[41, 0] [1, 988] [1, 1] : tensor<128x1024xf32> to tensor<1x988xf32>
    %extracted_slice_115 = tensor.extract_slice %1[41, 988] [1, 36] [1, 1] : tensor<128x1024xf32> to tensor<1x36xf32>
    %inserted_slice_116 = tensor.insert_slice %extracted_slice_114 into %4[0, 36] [1, 988] [1, 1] : tensor<1x988xf32> into tensor<1x1024xf32>
    %inserted_slice_117 = tensor.insert_slice %extracted_slice_115 into %inserted_slice_116[0, 0] [1, 36] [1, 1] : tensor<1x36xf32> into tensor<1x1024xf32>
    %extracted_slice_118 = tensor.extract_slice %1[42, 0] [1, 988] [1, 1] : tensor<128x1024xf32> to tensor<1x988xf32>
    %extracted_slice_119 = tensor.extract_slice %1[42, 988] [1, 36] [1, 1] : tensor<128x1024xf32> to tensor<1x36xf32>
    %inserted_slice_120 = tensor.insert_slice %extracted_slice_118 into %4[0, 36] [1, 988] [1, 1] : tensor<1x988xf32> into tensor<1x1024xf32>
    %inserted_slice_121 = tensor.insert_slice %extracted_slice_119 into %inserted_slice_120[0, 0] [1, 36] [1, 1] : tensor<1x36xf32> into tensor<1x1024xf32>
    %extracted_slice_122 = tensor.extract_slice %1[43, 0] [1, 988] [1, 1] : tensor<128x1024xf32> to tensor<1x988xf32>
    %extracted_slice_123 = tensor.extract_slice %1[43, 988] [1, 36] [1, 1] : tensor<128x1024xf32> to tensor<1x36xf32>
    %inserted_slice_124 = tensor.insert_slice %extracted_slice_122 into %4[0, 36] [1, 988] [1, 1] : tensor<1x988xf32> into tensor<1x1024xf32>
    %inserted_slice_125 = tensor.insert_slice %extracted_slice_123 into %inserted_slice_124[0, 0] [1, 36] [1, 1] : tensor<1x36xf32> into tensor<1x1024xf32>
    %extracted_slice_126 = tensor.extract_slice %1[44, 0] [1, 988] [1, 1] : tensor<128x1024xf32> to tensor<1x988xf32>
    %extracted_slice_127 = tensor.extract_slice %1[44, 988] [1, 36] [1, 1] : tensor<128x1024xf32> to tensor<1x36xf32>
    %inserted_slice_128 = tensor.insert_slice %extracted_slice_126 into %4[0, 36] [1, 988] [1, 1] : tensor<1x988xf32> into tensor<1x1024xf32>
    %inserted_slice_129 = tensor.insert_slice %extracted_slice_127 into %inserted_slice_128[0, 0] [1, 36] [1, 1] : tensor<1x36xf32> into tensor<1x1024xf32>
    %extracted_slice_130 = tensor.extract_slice %1[45, 0] [1, 988] [1, 1] : tensor<128x1024xf32> to tensor<1x988xf32>
    %extracted_slice_131 = tensor.extract_slice %1[45, 988] [1, 36] [1, 1] : tensor<128x1024xf32> to tensor<1x36xf32>
    %inserted_slice_132 = tensor.insert_slice %extracted_slice_130 into %4[0, 36] [1, 988] [1, 1] : tensor<1x988xf32> into tensor<1x1024xf32>
    %inserted_slice_133 = tensor.insert_slice %extracted_slice_131 into %inserted_slice_132[0, 0] [1, 36] [1, 1] : tensor<1x36xf32> into tensor<1x1024xf32>
    %extracted_slice_134 = tensor.extract_slice %1[46, 0] [1, 988] [1, 1] : tensor<128x1024xf32> to tensor<1x988xf32>
    %extracted_slice_135 = tensor.extract_slice %1[46, 988] [1, 36] [1, 1] : tensor<128x1024xf32> to tensor<1x36xf32>
    %inserted_slice_136 = tensor.insert_slice %extracted_slice_134 into %4[0, 36] [1, 988] [1, 1] : tensor<1x988xf32> into tensor<1x1024xf32>
    %inserted_slice_137 = tensor.insert_slice %extracted_slice_135 into %inserted_slice_136[0, 0] [1, 36] [1, 1] : tensor<1x36xf32> into tensor<1x1024xf32>
    %extracted_slice_138 = tensor.extract_slice %1[47, 0] [1, 988] [1, 1] : tensor<128x1024xf32> to tensor<1x988xf32>
    %extracted_slice_139 = tensor.extract_slice %1[47, 988] [1, 36] [1, 1] : tensor<128x1024xf32> to tensor<1x36xf32>
    %inserted_slice_140 = tensor.insert_slice %extracted_slice_138 into %4[0, 36] [1, 988] [1, 1] : tensor<1x988xf32> into tensor<1x1024xf32>
    %inserted_slice_141 = tensor.insert_slice %extracted_slice_139 into %inserted_slice_140[0, 0] [1, 36] [1, 1] : tensor<1x36xf32> into tensor<1x1024xf32>
    %extracted_slice_142 = tensor.extract_slice %1[48, 0] [1, 976] [1, 1] : tensor<128x1024xf32> to tensor<1x976xf32>
    %extracted_slice_143 = tensor.extract_slice %1[48, 976] [1, 48] [1, 1] : tensor<128x1024xf32> to tensor<1x48xf32>
    %inserted_slice_144 = tensor.insert_slice %extracted_slice_142 into %4[0, 48] [1, 976] [1, 1] : tensor<1x976xf32> into tensor<1x1024xf32>
    %inserted_slice_145 = tensor.insert_slice %extracted_slice_143 into %inserted_slice_144[0, 0] [1, 48] [1, 1] : tensor<1x48xf32> into tensor<1x1024xf32>
    %extracted_slice_146 = tensor.extract_slice %1[49, 0] [1, 976] [1, 1] : tensor<128x1024xf32> to tensor<1x976xf32>
    %extracted_slice_147 = tensor.extract_slice %1[49, 976] [1, 48] [1, 1] : tensor<128x1024xf32> to tensor<1x48xf32>
    %inserted_slice_148 = tensor.insert_slice %extracted_slice_146 into %4[0, 48] [1, 976] [1, 1] : tensor<1x976xf32> into tensor<1x1024xf32>
    %inserted_slice_149 = tensor.insert_slice %extracted_slice_147 into %inserted_slice_148[0, 0] [1, 48] [1, 1] : tensor<1x48xf32> into tensor<1x1024xf32>
    %extracted_slice_150 = tensor.extract_slice %1[50, 0] [1, 976] [1, 1] : tensor<128x1024xf32> to tensor<1x976xf32>
    %extracted_slice_151 = tensor.extract_slice %1[50, 976] [1, 48] [1, 1] : tensor<128x1024xf32> to tensor<1x48xf32>
    %inserted_slice_152 = tensor.insert_slice %extracted_slice_150 into %4[0, 48] [1, 976] [1, 1] : tensor<1x976xf32> into tensor<1x1024xf32>
    %inserted_slice_153 = tensor.insert_slice %extracted_slice_151 into %inserted_slice_152[0, 0] [1, 48] [1, 1] : tensor<1x48xf32> into tensor<1x1024xf32>
    %extracted_slice_154 = tensor.extract_slice %1[51, 0] [1, 976] [1, 1] : tensor<128x1024xf32> to tensor<1x976xf32>
    %extracted_slice_155 = tensor.extract_slice %1[51, 976] [1, 48] [1, 1] : tensor<128x1024xf32> to tensor<1x48xf32>
    %inserted_slice_156 = tensor.insert_slice %extracted_slice_154 into %4[0, 48] [1, 976] [1, 1] : tensor<1x976xf32> into tensor<1x1024xf32>
    %inserted_slice_157 = tensor.insert_slice %extracted_slice_155 into %inserted_slice_156[0, 0] [1, 48] [1, 1] : tensor<1x48xf32> into tensor<1x1024xf32>
    %extracted_slice_158 = tensor.extract_slice %1[52, 0] [1, 976] [1, 1] : tensor<128x1024xf32> to tensor<1x976xf32>
    %extracted_slice_159 = tensor.extract_slice %1[52, 976] [1, 48] [1, 1] : tensor<128x1024xf32> to tensor<1x48xf32>
    %inserted_slice_160 = tensor.insert_slice %extracted_slice_158 into %4[0, 48] [1, 976] [1, 1] : tensor<1x976xf32> into tensor<1x1024xf32>
    %inserted_slice_161 = tensor.insert_slice %extracted_slice_159 into %inserted_slice_160[0, 0] [1, 48] [1, 1] : tensor<1x48xf32> into tensor<1x1024xf32>
    %extracted_slice_162 = tensor.extract_slice %1[53, 0] [1, 976] [1, 1] : tensor<128x1024xf32> to tensor<1x976xf32>
    %extracted_slice_163 = tensor.extract_slice %1[53, 976] [1, 48] [1, 1] : tensor<128x1024xf32> to tensor<1x48xf32>
    %inserted_slice_164 = tensor.insert_slice %extracted_slice_162 into %4[0, 48] [1, 976] [1, 1] : tensor<1x976xf32> into tensor<1x1024xf32>
    %inserted_slice_165 = tensor.insert_slice %extracted_slice_163 into %inserted_slice_164[0, 0] [1, 48] [1, 1] : tensor<1x48xf32> into tensor<1x1024xf32>
    %extracted_slice_166 = tensor.extract_slice %1[54, 0] [1, 976] [1, 1] : tensor<128x1024xf32> to tensor<1x976xf32>
    %extracted_slice_167 = tensor.extract_slice %1[54, 976] [1, 48] [1, 1] : tensor<128x1024xf32> to tensor<1x48xf32>
    %inserted_slice_168 = tensor.insert_slice %extracted_slice_166 into %4[0, 48] [1, 976] [1, 1] : tensor<1x976xf32> into tensor<1x1024xf32>
    %inserted_slice_169 = tensor.insert_slice %extracted_slice_167 into %inserted_slice_168[0, 0] [1, 48] [1, 1] : tensor<1x48xf32> into tensor<1x1024xf32>
    %extracted_slice_170 = tensor.extract_slice %1[55, 0] [1, 976] [1, 1] : tensor<128x1024xf32> to tensor<1x976xf32>
    %extracted_slice_171 = tensor.extract_slice %1[55, 976] [1, 48] [1, 1] : tensor<128x1024xf32> to tensor<1x48xf32>
    %inserted_slice_172 = tensor.insert_slice %extracted_slice_170 into %4[0, 48] [1, 976] [1, 1] : tensor<1x976xf32> into tensor<1x1024xf32>
    %inserted_slice_173 = tensor.insert_slice %extracted_slice_171 into %inserted_slice_172[0, 0] [1, 48] [1, 1] : tensor<1x48xf32> into tensor<1x1024xf32>
    %extracted_slice_174 = tensor.extract_slice %1[56, 0] [1, 976] [1, 1] : tensor<128x1024xf32> to tensor<1x976xf32>
    %extracted_slice_175 = tensor.extract_slice %1[56, 976] [1, 48] [1, 1] : tensor<128x1024xf32> to tensor<1x48xf32>
    %inserted_slice_176 = tensor.insert_slice %extracted_slice_174 into %4[0, 48] [1, 976] [1, 1] : tensor<1x976xf32> into tensor<1x1024xf32>
    %inserted_slice_177 = tensor.insert_slice %extracted_slice_175 into %inserted_slice_176[0, 0] [1, 48] [1, 1] : tensor<1x48xf32> into tensor<1x1024xf32>
    %extracted_slice_178 = tensor.extract_slice %1[57, 0] [1, 976] [1, 1] : tensor<128x1024xf32> to tensor<1x976xf32>
    %extracted_slice_179 = tensor.extract_slice %1[57, 976] [1, 48] [1, 1] : tensor<128x1024xf32> to tensor<1x48xf32>
    %inserted_slice_180 = tensor.insert_slice %extracted_slice_178 into %4[0, 48] [1, 976] [1, 1] : tensor<1x976xf32> into tensor<1x1024xf32>
    %inserted_slice_181 = tensor.insert_slice %extracted_slice_179 into %inserted_slice_180[0, 0] [1, 48] [1, 1] : tensor<1x48xf32> into tensor<1x1024xf32>
    %extracted_slice_182 = tensor.extract_slice %1[58, 0] [1, 976] [1, 1] : tensor<128x1024xf32> to tensor<1x976xf32>
    %extracted_slice_183 = tensor.extract_slice %1[58, 976] [1, 48] [1, 1] : tensor<128x1024xf32> to tensor<1x48xf32>
    %inserted_slice_184 = tensor.insert_slice %extracted_slice_182 into %4[0, 48] [1, 976] [1, 1] : tensor<1x976xf32> into tensor<1x1024xf32>
    %inserted_slice_185 = tensor.insert_slice %extracted_slice_183 into %inserted_slice_184[0, 0] [1, 48] [1, 1] : tensor<1x48xf32> into tensor<1x1024xf32>
    %extracted_slice_186 = tensor.extract_slice %1[59, 0] [1, 976] [1, 1] : tensor<128x1024xf32> to tensor<1x976xf32>
    %extracted_slice_187 = tensor.extract_slice %1[59, 976] [1, 48] [1, 1] : tensor<128x1024xf32> to tensor<1x48xf32>
    %inserted_slice_188 = tensor.insert_slice %extracted_slice_186 into %4[0, 48] [1, 976] [1, 1] : tensor<1x976xf32> into tensor<1x1024xf32>
    %inserted_slice_189 = tensor.insert_slice %extracted_slice_187 into %inserted_slice_188[0, 0] [1, 48] [1, 1] : tensor<1x48xf32> into tensor<1x1024xf32>
    %extracted_slice_190 = tensor.extract_slice %1[60, 0] [1, 964] [1, 1] : tensor<128x1024xf32> to tensor<1x964xf32>
    %extracted_slice_191 = tensor.extract_slice %1[60, 964] [1, 60] [1, 1] : tensor<128x1024xf32> to tensor<1x60xf32>
    %inserted_slice_192 = tensor.insert_slice %extracted_slice_190 into %4[0, 60] [1, 964] [1, 1] : tensor<1x964xf32> into tensor<1x1024xf32>
    %inserted_slice_193 = tensor.insert_slice %extracted_slice_191 into %inserted_slice_192[0, 0] [1, 60] [1, 1] : tensor<1x60xf32> into tensor<1x1024xf32>
    %extracted_slice_194 = tensor.extract_slice %1[61, 0] [1, 964] [1, 1] : tensor<128x1024xf32> to tensor<1x964xf32>
    %extracted_slice_195 = tensor.extract_slice %1[61, 964] [1, 60] [1, 1] : tensor<128x1024xf32> to tensor<1x60xf32>
    %inserted_slice_196 = tensor.insert_slice %extracted_slice_194 into %4[0, 60] [1, 964] [1, 1] : tensor<1x964xf32> into tensor<1x1024xf32>
    %inserted_slice_197 = tensor.insert_slice %extracted_slice_195 into %inserted_slice_196[0, 0] [1, 60] [1, 1] : tensor<1x60xf32> into tensor<1x1024xf32>
    %extracted_slice_198 = tensor.extract_slice %1[62, 0] [1, 964] [1, 1] : tensor<128x1024xf32> to tensor<1x964xf32>
    %extracted_slice_199 = tensor.extract_slice %1[62, 964] [1, 60] [1, 1] : tensor<128x1024xf32> to tensor<1x60xf32>
    %inserted_slice_200 = tensor.insert_slice %extracted_slice_198 into %4[0, 60] [1, 964] [1, 1] : tensor<1x964xf32> into tensor<1x1024xf32>
    %inserted_slice_201 = tensor.insert_slice %extracted_slice_199 into %inserted_slice_200[0, 0] [1, 60] [1, 1] : tensor<1x60xf32> into tensor<1x1024xf32>
    %extracted_slice_202 = tensor.extract_slice %1[63, 0] [1, 964] [1, 1] : tensor<128x1024xf32> to tensor<1x964xf32>
    %extracted_slice_203 = tensor.extract_slice %1[63, 964] [1, 60] [1, 1] : tensor<128x1024xf32> to tensor<1x60xf32>
    %inserted_slice_204 = tensor.insert_slice %extracted_slice_202 into %4[0, 60] [1, 964] [1, 1] : tensor<1x964xf32> into tensor<1x1024xf32>
    %inserted_slice_205 = tensor.insert_slice %extracted_slice_203 into %inserted_slice_204[0, 0] [1, 60] [1, 1] : tensor<1x60xf32> into tensor<1x1024xf32>
    %extracted_slice_206 = tensor.extract_slice %1[64, 0] [1, 964] [1, 1] : tensor<128x1024xf32> to tensor<1x964xf32>
    %extracted_slice_207 = tensor.extract_slice %1[64, 964] [1, 60] [1, 1] : tensor<128x1024xf32> to tensor<1x60xf32>
    %inserted_slice_208 = tensor.insert_slice %extracted_slice_206 into %4[0, 60] [1, 964] [1, 1] : tensor<1x964xf32> into tensor<1x1024xf32>
    %inserted_slice_209 = tensor.insert_slice %extracted_slice_207 into %inserted_slice_208[0, 0] [1, 60] [1, 1] : tensor<1x60xf32> into tensor<1x1024xf32>
    %extracted_slice_210 = tensor.extract_slice %1[65, 0] [1, 964] [1, 1] : tensor<128x1024xf32> to tensor<1x964xf32>
    %extracted_slice_211 = tensor.extract_slice %1[65, 964] [1, 60] [1, 1] : tensor<128x1024xf32> to tensor<1x60xf32>
    %inserted_slice_212 = tensor.insert_slice %extracted_slice_210 into %4[0, 60] [1, 964] [1, 1] : tensor<1x964xf32> into tensor<1x1024xf32>
    %inserted_slice_213 = tensor.insert_slice %extracted_slice_211 into %inserted_slice_212[0, 0] [1, 60] [1, 1] : tensor<1x60xf32> into tensor<1x1024xf32>
    %extracted_slice_214 = tensor.extract_slice %1[66, 0] [1, 964] [1, 1] : tensor<128x1024xf32> to tensor<1x964xf32>
    %extracted_slice_215 = tensor.extract_slice %1[66, 964] [1, 60] [1, 1] : tensor<128x1024xf32> to tensor<1x60xf32>
    %inserted_slice_216 = tensor.insert_slice %extracted_slice_214 into %4[0, 60] [1, 964] [1, 1] : tensor<1x964xf32> into tensor<1x1024xf32>
    %inserted_slice_217 = tensor.insert_slice %extracted_slice_215 into %inserted_slice_216[0, 0] [1, 60] [1, 1] : tensor<1x60xf32> into tensor<1x1024xf32>
    %extracted_slice_218 = tensor.extract_slice %1[67, 0] [1, 964] [1, 1] : tensor<128x1024xf32> to tensor<1x964xf32>
    %extracted_slice_219 = tensor.extract_slice %1[67, 964] [1, 60] [1, 1] : tensor<128x1024xf32> to tensor<1x60xf32>
    %inserted_slice_220 = tensor.insert_slice %extracted_slice_218 into %4[0, 60] [1, 964] [1, 1] : tensor<1x964xf32> into tensor<1x1024xf32>
    %inserted_slice_221 = tensor.insert_slice %extracted_slice_219 into %inserted_slice_220[0, 0] [1, 60] [1, 1] : tensor<1x60xf32> into tensor<1x1024xf32>
    %extracted_slice_222 = tensor.extract_slice %1[68, 0] [1, 964] [1, 1] : tensor<128x1024xf32> to tensor<1x964xf32>
    %extracted_slice_223 = tensor.extract_slice %1[68, 964] [1, 60] [1, 1] : tensor<128x1024xf32> to tensor<1x60xf32>
    %inserted_slice_224 = tensor.insert_slice %extracted_slice_222 into %4[0, 60] [1, 964] [1, 1] : tensor<1x964xf32> into tensor<1x1024xf32>
    %inserted_slice_225 = tensor.insert_slice %extracted_slice_223 into %inserted_slice_224[0, 0] [1, 60] [1, 1] : tensor<1x60xf32> into tensor<1x1024xf32>
    %extracted_slice_226 = tensor.extract_slice %1[69, 0] [1, 964] [1, 1] : tensor<128x1024xf32> to tensor<1x964xf32>
    %extracted_slice_227 = tensor.extract_slice %1[69, 964] [1, 60] [1, 1] : tensor<128x1024xf32> to tensor<1x60xf32>
    %inserted_slice_228 = tensor.insert_slice %extracted_slice_226 into %4[0, 60] [1, 964] [1, 1] : tensor<1x964xf32> into tensor<1x1024xf32>
    %inserted_slice_229 = tensor.insert_slice %extracted_slice_227 into %inserted_slice_228[0, 0] [1, 60] [1, 1] : tensor<1x60xf32> into tensor<1x1024xf32>
    %extracted_slice_230 = tensor.extract_slice %1[70, 0] [1, 964] [1, 1] : tensor<128x1024xf32> to tensor<1x964xf32>
    %extracted_slice_231 = tensor.extract_slice %1[70, 964] [1, 60] [1, 1] : tensor<128x1024xf32> to tensor<1x60xf32>
    %inserted_slice_232 = tensor.insert_slice %extracted_slice_230 into %4[0, 60] [1, 964] [1, 1] : tensor<1x964xf32> into tensor<1x1024xf32>
    %inserted_slice_233 = tensor.insert_slice %extracted_slice_231 into %inserted_slice_232[0, 0] [1, 60] [1, 1] : tensor<1x60xf32> into tensor<1x1024xf32>
    %extracted_slice_234 = tensor.extract_slice %1[71, 0] [1, 964] [1, 1] : tensor<128x1024xf32> to tensor<1x964xf32>
    %extracted_slice_235 = tensor.extract_slice %1[71, 964] [1, 60] [1, 1] : tensor<128x1024xf32> to tensor<1x60xf32>
    %inserted_slice_236 = tensor.insert_slice %extracted_slice_234 into %4[0, 60] [1, 964] [1, 1] : tensor<1x964xf32> into tensor<1x1024xf32>
    %inserted_slice_237 = tensor.insert_slice %extracted_slice_235 into %inserted_slice_236[0, 0] [1, 60] [1, 1] : tensor<1x60xf32> into tensor<1x1024xf32>
    %extracted_slice_238 = tensor.extract_slice %1[72, 0] [1, 952] [1, 1] : tensor<128x1024xf32> to tensor<1x952xf32>
    %extracted_slice_239 = tensor.extract_slice %1[72, 952] [1, 72] [1, 1] : tensor<128x1024xf32> to tensor<1x72xf32>
    %inserted_slice_240 = tensor.insert_slice %extracted_slice_238 into %4[0, 72] [1, 952] [1, 1] : tensor<1x952xf32> into tensor<1x1024xf32>
    %inserted_slice_241 = tensor.insert_slice %extracted_slice_239 into %inserted_slice_240[0, 0] [1, 72] [1, 1] : tensor<1x72xf32> into tensor<1x1024xf32>
    %extracted_slice_242 = tensor.extract_slice %1[73, 0] [1, 952] [1, 1] : tensor<128x1024xf32> to tensor<1x952xf32>
    %extracted_slice_243 = tensor.extract_slice %1[73, 952] [1, 72] [1, 1] : tensor<128x1024xf32> to tensor<1x72xf32>
    %inserted_slice_244 = tensor.insert_slice %extracted_slice_242 into %4[0, 72] [1, 952] [1, 1] : tensor<1x952xf32> into tensor<1x1024xf32>
    %inserted_slice_245 = tensor.insert_slice %extracted_slice_243 into %inserted_slice_244[0, 0] [1, 72] [1, 1] : tensor<1x72xf32> into tensor<1x1024xf32>
    %extracted_slice_246 = tensor.extract_slice %1[74, 0] [1, 952] [1, 1] : tensor<128x1024xf32> to tensor<1x952xf32>
    %extracted_slice_247 = tensor.extract_slice %1[74, 952] [1, 72] [1, 1] : tensor<128x1024xf32> to tensor<1x72xf32>
    %inserted_slice_248 = tensor.insert_slice %extracted_slice_246 into %4[0, 72] [1, 952] [1, 1] : tensor<1x952xf32> into tensor<1x1024xf32>
    %inserted_slice_249 = tensor.insert_slice %extracted_slice_247 into %inserted_slice_248[0, 0] [1, 72] [1, 1] : tensor<1x72xf32> into tensor<1x1024xf32>
    %extracted_slice_250 = tensor.extract_slice %1[75, 0] [1, 952] [1, 1] : tensor<128x1024xf32> to tensor<1x952xf32>
    %extracted_slice_251 = tensor.extract_slice %1[75, 952] [1, 72] [1, 1] : tensor<128x1024xf32> to tensor<1x72xf32>
    %inserted_slice_252 = tensor.insert_slice %extracted_slice_250 into %4[0, 72] [1, 952] [1, 1] : tensor<1x952xf32> into tensor<1x1024xf32>
    %inserted_slice_253 = tensor.insert_slice %extracted_slice_251 into %inserted_slice_252[0, 0] [1, 72] [1, 1] : tensor<1x72xf32> into tensor<1x1024xf32>
    %extracted_slice_254 = tensor.extract_slice %1[76, 0] [1, 952] [1, 1] : tensor<128x1024xf32> to tensor<1x952xf32>
    %extracted_slice_255 = tensor.extract_slice %1[76, 952] [1, 72] [1, 1] : tensor<128x1024xf32> to tensor<1x72xf32>
    %inserted_slice_256 = tensor.insert_slice %extracted_slice_254 into %4[0, 72] [1, 952] [1, 1] : tensor<1x952xf32> into tensor<1x1024xf32>
    %inserted_slice_257 = tensor.insert_slice %extracted_slice_255 into %inserted_slice_256[0, 0] [1, 72] [1, 1] : tensor<1x72xf32> into tensor<1x1024xf32>
    %extracted_slice_258 = tensor.extract_slice %1[77, 0] [1, 952] [1, 1] : tensor<128x1024xf32> to tensor<1x952xf32>
    %extracted_slice_259 = tensor.extract_slice %1[77, 952] [1, 72] [1, 1] : tensor<128x1024xf32> to tensor<1x72xf32>
    %inserted_slice_260 = tensor.insert_slice %extracted_slice_258 into %4[0, 72] [1, 952] [1, 1] : tensor<1x952xf32> into tensor<1x1024xf32>
    %inserted_slice_261 = tensor.insert_slice %extracted_slice_259 into %inserted_slice_260[0, 0] [1, 72] [1, 1] : tensor<1x72xf32> into tensor<1x1024xf32>
    %extracted_slice_262 = tensor.extract_slice %1[78, 0] [1, 952] [1, 1] : tensor<128x1024xf32> to tensor<1x952xf32>
    %extracted_slice_263 = tensor.extract_slice %1[78, 952] [1, 72] [1, 1] : tensor<128x1024xf32> to tensor<1x72xf32>
    %inserted_slice_264 = tensor.insert_slice %extracted_slice_262 into %4[0, 72] [1, 952] [1, 1] : tensor<1x952xf32> into tensor<1x1024xf32>
    %inserted_slice_265 = tensor.insert_slice %extracted_slice_263 into %inserted_slice_264[0, 0] [1, 72] [1, 1] : tensor<1x72xf32> into tensor<1x1024xf32>
    %extracted_slice_266 = tensor.extract_slice %1[79, 0] [1, 952] [1, 1] : tensor<128x1024xf32> to tensor<1x952xf32>
    %extracted_slice_267 = tensor.extract_slice %1[79, 952] [1, 72] [1, 1] : tensor<128x1024xf32> to tensor<1x72xf32>
    %inserted_slice_268 = tensor.insert_slice %extracted_slice_266 into %4[0, 72] [1, 952] [1, 1] : tensor<1x952xf32> into tensor<1x1024xf32>
    %inserted_slice_269 = tensor.insert_slice %extracted_slice_267 into %inserted_slice_268[0, 0] [1, 72] [1, 1] : tensor<1x72xf32> into tensor<1x1024xf32>
    %extracted_slice_270 = tensor.extract_slice %1[80, 0] [1, 952] [1, 1] : tensor<128x1024xf32> to tensor<1x952xf32>
    %extracted_slice_271 = tensor.extract_slice %1[80, 952] [1, 72] [1, 1] : tensor<128x1024xf32> to tensor<1x72xf32>
    %inserted_slice_272 = tensor.insert_slice %extracted_slice_270 into %4[0, 72] [1, 952] [1, 1] : tensor<1x952xf32> into tensor<1x1024xf32>
    %inserted_slice_273 = tensor.insert_slice %extracted_slice_271 into %inserted_slice_272[0, 0] [1, 72] [1, 1] : tensor<1x72xf32> into tensor<1x1024xf32>
    %extracted_slice_274 = tensor.extract_slice %1[81, 0] [1, 952] [1, 1] : tensor<128x1024xf32> to tensor<1x952xf32>
    %extracted_slice_275 = tensor.extract_slice %1[81, 952] [1, 72] [1, 1] : tensor<128x1024xf32> to tensor<1x72xf32>
    %inserted_slice_276 = tensor.insert_slice %extracted_slice_274 into %4[0, 72] [1, 952] [1, 1] : tensor<1x952xf32> into tensor<1x1024xf32>
    %inserted_slice_277 = tensor.insert_slice %extracted_slice_275 into %inserted_slice_276[0, 0] [1, 72] [1, 1] : tensor<1x72xf32> into tensor<1x1024xf32>
    %extracted_slice_278 = tensor.extract_slice %1[82, 0] [1, 952] [1, 1] : tensor<128x1024xf32> to tensor<1x952xf32>
    %extracted_slice_279 = tensor.extract_slice %1[82, 952] [1, 72] [1, 1] : tensor<128x1024xf32> to tensor<1x72xf32>
    %inserted_slice_280 = tensor.insert_slice %extracted_slice_278 into %4[0, 72] [1, 952] [1, 1] : tensor<1x952xf32> into tensor<1x1024xf32>
    %inserted_slice_281 = tensor.insert_slice %extracted_slice_279 into %inserted_slice_280[0, 0] [1, 72] [1, 1] : tensor<1x72xf32> into tensor<1x1024xf32>
    %extracted_slice_282 = tensor.extract_slice %1[83, 0] [1, 952] [1, 1] : tensor<128x1024xf32> to tensor<1x952xf32>
    %extracted_slice_283 = tensor.extract_slice %1[83, 952] [1, 72] [1, 1] : tensor<128x1024xf32> to tensor<1x72xf32>
    %inserted_slice_284 = tensor.insert_slice %extracted_slice_282 into %4[0, 72] [1, 952] [1, 1] : tensor<1x952xf32> into tensor<1x1024xf32>
    %inserted_slice_285 = tensor.insert_slice %extracted_slice_283 into %inserted_slice_284[0, 0] [1, 72] [1, 1] : tensor<1x72xf32> into tensor<1x1024xf32>
    %extracted_slice_286 = tensor.extract_slice %1[84, 0] [1, 940] [1, 1] : tensor<128x1024xf32> to tensor<1x940xf32>
    %extracted_slice_287 = tensor.extract_slice %1[84, 940] [1, 84] [1, 1] : tensor<128x1024xf32> to tensor<1x84xf32>
    %inserted_slice_288 = tensor.insert_slice %extracted_slice_286 into %4[0, 84] [1, 940] [1, 1] : tensor<1x940xf32> into tensor<1x1024xf32>
    %inserted_slice_289 = tensor.insert_slice %extracted_slice_287 into %inserted_slice_288[0, 0] [1, 84] [1, 1] : tensor<1x84xf32> into tensor<1x1024xf32>
    %extracted_slice_290 = tensor.extract_slice %1[85, 0] [1, 940] [1, 1] : tensor<128x1024xf32> to tensor<1x940xf32>
    %extracted_slice_291 = tensor.extract_slice %1[85, 940] [1, 84] [1, 1] : tensor<128x1024xf32> to tensor<1x84xf32>
    %inserted_slice_292 = tensor.insert_slice %extracted_slice_290 into %4[0, 84] [1, 940] [1, 1] : tensor<1x940xf32> into tensor<1x1024xf32>
    %inserted_slice_293 = tensor.insert_slice %extracted_slice_291 into %inserted_slice_292[0, 0] [1, 84] [1, 1] : tensor<1x84xf32> into tensor<1x1024xf32>
    %extracted_slice_294 = tensor.extract_slice %1[86, 0] [1, 940] [1, 1] : tensor<128x1024xf32> to tensor<1x940xf32>
    %extracted_slice_295 = tensor.extract_slice %1[86, 940] [1, 84] [1, 1] : tensor<128x1024xf32> to tensor<1x84xf32>
    %inserted_slice_296 = tensor.insert_slice %extracted_slice_294 into %4[0, 84] [1, 940] [1, 1] : tensor<1x940xf32> into tensor<1x1024xf32>
    %inserted_slice_297 = tensor.insert_slice %extracted_slice_295 into %inserted_slice_296[0, 0] [1, 84] [1, 1] : tensor<1x84xf32> into tensor<1x1024xf32>
    %extracted_slice_298 = tensor.extract_slice %1[87, 0] [1, 940] [1, 1] : tensor<128x1024xf32> to tensor<1x940xf32>
    %extracted_slice_299 = tensor.extract_slice %1[87, 940] [1, 84] [1, 1] : tensor<128x1024xf32> to tensor<1x84xf32>
    %inserted_slice_300 = tensor.insert_slice %extracted_slice_298 into %4[0, 84] [1, 940] [1, 1] : tensor<1x940xf32> into tensor<1x1024xf32>
    %inserted_slice_301 = tensor.insert_slice %extracted_slice_299 into %inserted_slice_300[0, 0] [1, 84] [1, 1] : tensor<1x84xf32> into tensor<1x1024xf32>
    %extracted_slice_302 = tensor.extract_slice %1[88, 0] [1, 940] [1, 1] : tensor<128x1024xf32> to tensor<1x940xf32>
    %extracted_slice_303 = tensor.extract_slice %1[88, 940] [1, 84] [1, 1] : tensor<128x1024xf32> to tensor<1x84xf32>
    %inserted_slice_304 = tensor.insert_slice %extracted_slice_302 into %4[0, 84] [1, 940] [1, 1] : tensor<1x940xf32> into tensor<1x1024xf32>
    %inserted_slice_305 = tensor.insert_slice %extracted_slice_303 into %inserted_slice_304[0, 0] [1, 84] [1, 1] : tensor<1x84xf32> into tensor<1x1024xf32>
    %extracted_slice_306 = tensor.extract_slice %1[89, 0] [1, 940] [1, 1] : tensor<128x1024xf32> to tensor<1x940xf32>
    %extracted_slice_307 = tensor.extract_slice %1[89, 940] [1, 84] [1, 1] : tensor<128x1024xf32> to tensor<1x84xf32>
    %inserted_slice_308 = tensor.insert_slice %extracted_slice_306 into %4[0, 84] [1, 940] [1, 1] : tensor<1x940xf32> into tensor<1x1024xf32>
    %inserted_slice_309 = tensor.insert_slice %extracted_slice_307 into %inserted_slice_308[0, 0] [1, 84] [1, 1] : tensor<1x84xf32> into tensor<1x1024xf32>
    %extracted_slice_310 = tensor.extract_slice %1[90, 0] [1, 940] [1, 1] : tensor<128x1024xf32> to tensor<1x940xf32>
    %extracted_slice_311 = tensor.extract_slice %1[90, 940] [1, 84] [1, 1] : tensor<128x1024xf32> to tensor<1x84xf32>
    %inserted_slice_312 = tensor.insert_slice %extracted_slice_310 into %4[0, 84] [1, 940] [1, 1] : tensor<1x940xf32> into tensor<1x1024xf32>
    %inserted_slice_313 = tensor.insert_slice %extracted_slice_311 into %inserted_slice_312[0, 0] [1, 84] [1, 1] : tensor<1x84xf32> into tensor<1x1024xf32>
    %extracted_slice_314 = tensor.extract_slice %1[91, 0] [1, 940] [1, 1] : tensor<128x1024xf32> to tensor<1x940xf32>
    %extracted_slice_315 = tensor.extract_slice %1[91, 940] [1, 84] [1, 1] : tensor<128x1024xf32> to tensor<1x84xf32>
    %inserted_slice_316 = tensor.insert_slice %extracted_slice_314 into %4[0, 84] [1, 940] [1, 1] : tensor<1x940xf32> into tensor<1x1024xf32>
    %inserted_slice_317 = tensor.insert_slice %extracted_slice_315 into %inserted_slice_316[0, 0] [1, 84] [1, 1] : tensor<1x84xf32> into tensor<1x1024xf32>
    %extracted_slice_318 = tensor.extract_slice %1[92, 0] [1, 940] [1, 1] : tensor<128x1024xf32> to tensor<1x940xf32>
    %extracted_slice_319 = tensor.extract_slice %1[92, 940] [1, 84] [1, 1] : tensor<128x1024xf32> to tensor<1x84xf32>
    %inserted_slice_320 = tensor.insert_slice %extracted_slice_318 into %4[0, 84] [1, 940] [1, 1] : tensor<1x940xf32> into tensor<1x1024xf32>
    %inserted_slice_321 = tensor.insert_slice %extracted_slice_319 into %inserted_slice_320[0, 0] [1, 84] [1, 1] : tensor<1x84xf32> into tensor<1x1024xf32>
    %extracted_slice_322 = tensor.extract_slice %1[93, 0] [1, 940] [1, 1] : tensor<128x1024xf32> to tensor<1x940xf32>
    %extracted_slice_323 = tensor.extract_slice %1[93, 940] [1, 84] [1, 1] : tensor<128x1024xf32> to tensor<1x84xf32>
    %inserted_slice_324 = tensor.insert_slice %extracted_slice_322 into %4[0, 84] [1, 940] [1, 1] : tensor<1x940xf32> into tensor<1x1024xf32>
    %inserted_slice_325 = tensor.insert_slice %extracted_slice_323 into %inserted_slice_324[0, 0] [1, 84] [1, 1] : tensor<1x84xf32> into tensor<1x1024xf32>
    %extracted_slice_326 = tensor.extract_slice %1[94, 0] [1, 940] [1, 1] : tensor<128x1024xf32> to tensor<1x940xf32>
    %extracted_slice_327 = tensor.extract_slice %1[94, 940] [1, 84] [1, 1] : tensor<128x1024xf32> to tensor<1x84xf32>
    %inserted_slice_328 = tensor.insert_slice %extracted_slice_326 into %4[0, 84] [1, 940] [1, 1] : tensor<1x940xf32> into tensor<1x1024xf32>
    %inserted_slice_329 = tensor.insert_slice %extracted_slice_327 into %inserted_slice_328[0, 0] [1, 84] [1, 1] : tensor<1x84xf32> into tensor<1x1024xf32>
    %extracted_slice_330 = tensor.extract_slice %1[95, 0] [1, 940] [1, 1] : tensor<128x1024xf32> to tensor<1x940xf32>
    %extracted_slice_331 = tensor.extract_slice %1[95, 940] [1, 84] [1, 1] : tensor<128x1024xf32> to tensor<1x84xf32>
    %inserted_slice_332 = tensor.insert_slice %extracted_slice_330 into %4[0, 84] [1, 940] [1, 1] : tensor<1x940xf32> into tensor<1x1024xf32>
    %inserted_slice_333 = tensor.insert_slice %extracted_slice_331 into %inserted_slice_332[0, 0] [1, 84] [1, 1] : tensor<1x84xf32> into tensor<1x1024xf32>
    %extracted_slice_334 = tensor.extract_slice %1[96, 0] [1, 928] [1, 1] : tensor<128x1024xf32> to tensor<1x928xf32>
    %extracted_slice_335 = tensor.extract_slice %1[96, 928] [1, 96] [1, 1] : tensor<128x1024xf32> to tensor<1x96xf32>
    %inserted_slice_336 = tensor.insert_slice %extracted_slice_334 into %4[0, 96] [1, 928] [1, 1] : tensor<1x928xf32> into tensor<1x1024xf32>
    %inserted_slice_337 = tensor.insert_slice %extracted_slice_335 into %inserted_slice_336[0, 0] [1, 96] [1, 1] : tensor<1x96xf32> into tensor<1x1024xf32>
    %extracted_slice_338 = tensor.extract_slice %1[97, 0] [1, 928] [1, 1] : tensor<128x1024xf32> to tensor<1x928xf32>
    %extracted_slice_339 = tensor.extract_slice %1[97, 928] [1, 96] [1, 1] : tensor<128x1024xf32> to tensor<1x96xf32>
    %inserted_slice_340 = tensor.insert_slice %extracted_slice_338 into %4[0, 96] [1, 928] [1, 1] : tensor<1x928xf32> into tensor<1x1024xf32>
    %inserted_slice_341 = tensor.insert_slice %extracted_slice_339 into %inserted_slice_340[0, 0] [1, 96] [1, 1] : tensor<1x96xf32> into tensor<1x1024xf32>
    %extracted_slice_342 = tensor.extract_slice %1[98, 0] [1, 928] [1, 1] : tensor<128x1024xf32> to tensor<1x928xf32>
    %extracted_slice_343 = tensor.extract_slice %1[98, 928] [1, 96] [1, 1] : tensor<128x1024xf32> to tensor<1x96xf32>
    %inserted_slice_344 = tensor.insert_slice %extracted_slice_342 into %4[0, 96] [1, 928] [1, 1] : tensor<1x928xf32> into tensor<1x1024xf32>
    %inserted_slice_345 = tensor.insert_slice %extracted_slice_343 into %inserted_slice_344[0, 0] [1, 96] [1, 1] : tensor<1x96xf32> into tensor<1x1024xf32>
    %extracted_slice_346 = tensor.extract_slice %1[99, 0] [1, 928] [1, 1] : tensor<128x1024xf32> to tensor<1x928xf32>
    %extracted_slice_347 = tensor.extract_slice %1[99, 928] [1, 96] [1, 1] : tensor<128x1024xf32> to tensor<1x96xf32>
    %inserted_slice_348 = tensor.insert_slice %extracted_slice_346 into %4[0, 96] [1, 928] [1, 1] : tensor<1x928xf32> into tensor<1x1024xf32>
    %inserted_slice_349 = tensor.insert_slice %extracted_slice_347 into %inserted_slice_348[0, 0] [1, 96] [1, 1] : tensor<1x96xf32> into tensor<1x1024xf32>
    %extracted_slice_350 = tensor.extract_slice %1[100, 0] [1, 928] [1, 1] : tensor<128x1024xf32> to tensor<1x928xf32>
    %extracted_slice_351 = tensor.extract_slice %1[100, 928] [1, 96] [1, 1] : tensor<128x1024xf32> to tensor<1x96xf32>
    %inserted_slice_352 = tensor.insert_slice %extracted_slice_350 into %4[0, 96] [1, 928] [1, 1] : tensor<1x928xf32> into tensor<1x1024xf32>
    %inserted_slice_353 = tensor.insert_slice %extracted_slice_351 into %inserted_slice_352[0, 0] [1, 96] [1, 1] : tensor<1x96xf32> into tensor<1x1024xf32>
    %extracted_slice_354 = tensor.extract_slice %1[101, 0] [1, 928] [1, 1] : tensor<128x1024xf32> to tensor<1x928xf32>
    %extracted_slice_355 = tensor.extract_slice %1[101, 928] [1, 96] [1, 1] : tensor<128x1024xf32> to tensor<1x96xf32>
    %inserted_slice_356 = tensor.insert_slice %extracted_slice_354 into %4[0, 96] [1, 928] [1, 1] : tensor<1x928xf32> into tensor<1x1024xf32>
    %inserted_slice_357 = tensor.insert_slice %extracted_slice_355 into %inserted_slice_356[0, 0] [1, 96] [1, 1] : tensor<1x96xf32> into tensor<1x1024xf32>
    %extracted_slice_358 = tensor.extract_slice %1[102, 0] [1, 928] [1, 1] : tensor<128x1024xf32> to tensor<1x928xf32>
    %extracted_slice_359 = tensor.extract_slice %1[102, 928] [1, 96] [1, 1] : tensor<128x1024xf32> to tensor<1x96xf32>
    %inserted_slice_360 = tensor.insert_slice %extracted_slice_358 into %4[0, 96] [1, 928] [1, 1] : tensor<1x928xf32> into tensor<1x1024xf32>
    %inserted_slice_361 = tensor.insert_slice %extracted_slice_359 into %inserted_slice_360[0, 0] [1, 96] [1, 1] : tensor<1x96xf32> into tensor<1x1024xf32>
    %extracted_slice_362 = tensor.extract_slice %1[103, 0] [1, 928] [1, 1] : tensor<128x1024xf32> to tensor<1x928xf32>
    %extracted_slice_363 = tensor.extract_slice %1[103, 928] [1, 96] [1, 1] : tensor<128x1024xf32> to tensor<1x96xf32>
    %inserted_slice_364 = tensor.insert_slice %extracted_slice_362 into %4[0, 96] [1, 928] [1, 1] : tensor<1x928xf32> into tensor<1x1024xf32>
    %inserted_slice_365 = tensor.insert_slice %extracted_slice_363 into %inserted_slice_364[0, 0] [1, 96] [1, 1] : tensor<1x96xf32> into tensor<1x1024xf32>
    %extracted_slice_366 = tensor.extract_slice %1[104, 0] [1, 928] [1, 1] : tensor<128x1024xf32> to tensor<1x928xf32>
    %extracted_slice_367 = tensor.extract_slice %1[104, 928] [1, 96] [1, 1] : tensor<128x1024xf32> to tensor<1x96xf32>
    %inserted_slice_368 = tensor.insert_slice %extracted_slice_366 into %4[0, 96] [1, 928] [1, 1] : tensor<1x928xf32> into tensor<1x1024xf32>
    %inserted_slice_369 = tensor.insert_slice %extracted_slice_367 into %inserted_slice_368[0, 0] [1, 96] [1, 1] : tensor<1x96xf32> into tensor<1x1024xf32>
    %extracted_slice_370 = tensor.extract_slice %1[105, 0] [1, 928] [1, 1] : tensor<128x1024xf32> to tensor<1x928xf32>
    %extracted_slice_371 = tensor.extract_slice %1[105, 928] [1, 96] [1, 1] : tensor<128x1024xf32> to tensor<1x96xf32>
    %inserted_slice_372 = tensor.insert_slice %extracted_slice_370 into %4[0, 96] [1, 928] [1, 1] : tensor<1x928xf32> into tensor<1x1024xf32>
    %inserted_slice_373 = tensor.insert_slice %extracted_slice_371 into %inserted_slice_372[0, 0] [1, 96] [1, 1] : tensor<1x96xf32> into tensor<1x1024xf32>
    %extracted_slice_374 = tensor.extract_slice %1[106, 0] [1, 928] [1, 1] : tensor<128x1024xf32> to tensor<1x928xf32>
    %extracted_slice_375 = tensor.extract_slice %1[106, 928] [1, 96] [1, 1] : tensor<128x1024xf32> to tensor<1x96xf32>
    %inserted_slice_376 = tensor.insert_slice %extracted_slice_374 into %4[0, 96] [1, 928] [1, 1] : tensor<1x928xf32> into tensor<1x1024xf32>
    %inserted_slice_377 = tensor.insert_slice %extracted_slice_375 into %inserted_slice_376[0, 0] [1, 96] [1, 1] : tensor<1x96xf32> into tensor<1x1024xf32>
    %extracted_slice_378 = tensor.extract_slice %1[107, 0] [1, 928] [1, 1] : tensor<128x1024xf32> to tensor<1x928xf32>
    %extracted_slice_379 = tensor.extract_slice %1[107, 928] [1, 96] [1, 1] : tensor<128x1024xf32> to tensor<1x96xf32>
    %inserted_slice_380 = tensor.insert_slice %extracted_slice_378 into %4[0, 96] [1, 928] [1, 1] : tensor<1x928xf32> into tensor<1x1024xf32>
    %inserted_slice_381 = tensor.insert_slice %extracted_slice_379 into %inserted_slice_380[0, 0] [1, 96] [1, 1] : tensor<1x96xf32> into tensor<1x1024xf32>
    %extracted_slice_382 = tensor.extract_slice %1[108, 0] [1, 916] [1, 1] : tensor<128x1024xf32> to tensor<1x916xf32>
    %extracted_slice_383 = tensor.extract_slice %1[108, 916] [1, 108] [1, 1] : tensor<128x1024xf32> to tensor<1x108xf32>
    %inserted_slice_384 = tensor.insert_slice %extracted_slice_382 into %4[0, 108] [1, 916] [1, 1] : tensor<1x916xf32> into tensor<1x1024xf32>
    %inserted_slice_385 = tensor.insert_slice %extracted_slice_383 into %inserted_slice_384[0, 0] [1, 108] [1, 1] : tensor<1x108xf32> into tensor<1x1024xf32>
    %extracted_slice_386 = tensor.extract_slice %1[109, 0] [1, 916] [1, 1] : tensor<128x1024xf32> to tensor<1x916xf32>
    %extracted_slice_387 = tensor.extract_slice %1[109, 916] [1, 108] [1, 1] : tensor<128x1024xf32> to tensor<1x108xf32>
    %inserted_slice_388 = tensor.insert_slice %extracted_slice_386 into %4[0, 108] [1, 916] [1, 1] : tensor<1x916xf32> into tensor<1x1024xf32>
    %inserted_slice_389 = tensor.insert_slice %extracted_slice_387 into %inserted_slice_388[0, 0] [1, 108] [1, 1] : tensor<1x108xf32> into tensor<1x1024xf32>
    %extracted_slice_390 = tensor.extract_slice %1[110, 0] [1, 916] [1, 1] : tensor<128x1024xf32> to tensor<1x916xf32>
    %extracted_slice_391 = tensor.extract_slice %1[110, 916] [1, 108] [1, 1] : tensor<128x1024xf32> to tensor<1x108xf32>
    %inserted_slice_392 = tensor.insert_slice %extracted_slice_390 into %4[0, 108] [1, 916] [1, 1] : tensor<1x916xf32> into tensor<1x1024xf32>
    %inserted_slice_393 = tensor.insert_slice %extracted_slice_391 into %inserted_slice_392[0, 0] [1, 108] [1, 1] : tensor<1x108xf32> into tensor<1x1024xf32>
    %extracted_slice_394 = tensor.extract_slice %1[111, 0] [1, 916] [1, 1] : tensor<128x1024xf32> to tensor<1x916xf32>
    %extracted_slice_395 = tensor.extract_slice %1[111, 916] [1, 108] [1, 1] : tensor<128x1024xf32> to tensor<1x108xf32>
    %inserted_slice_396 = tensor.insert_slice %extracted_slice_394 into %4[0, 108] [1, 916] [1, 1] : tensor<1x916xf32> into tensor<1x1024xf32>
    %inserted_slice_397 = tensor.insert_slice %extracted_slice_395 into %inserted_slice_396[0, 0] [1, 108] [1, 1] : tensor<1x108xf32> into tensor<1x1024xf32>
    %extracted_slice_398 = tensor.extract_slice %1[112, 0] [1, 916] [1, 1] : tensor<128x1024xf32> to tensor<1x916xf32>
    %extracted_slice_399 = tensor.extract_slice %1[112, 916] [1, 108] [1, 1] : tensor<128x1024xf32> to tensor<1x108xf32>
    %inserted_slice_400 = tensor.insert_slice %extracted_slice_398 into %4[0, 108] [1, 916] [1, 1] : tensor<1x916xf32> into tensor<1x1024xf32>
    %inserted_slice_401 = tensor.insert_slice %extracted_slice_399 into %inserted_slice_400[0, 0] [1, 108] [1, 1] : tensor<1x108xf32> into tensor<1x1024xf32>
    %extracted_slice_402 = tensor.extract_slice %1[113, 0] [1, 916] [1, 1] : tensor<128x1024xf32> to tensor<1x916xf32>
    %extracted_slice_403 = tensor.extract_slice %1[113, 916] [1, 108] [1, 1] : tensor<128x1024xf32> to tensor<1x108xf32>
    %inserted_slice_404 = tensor.insert_slice %extracted_slice_402 into %4[0, 108] [1, 916] [1, 1] : tensor<1x916xf32> into tensor<1x1024xf32>
    %inserted_slice_405 = tensor.insert_slice %extracted_slice_403 into %inserted_slice_404[0, 0] [1, 108] [1, 1] : tensor<1x108xf32> into tensor<1x1024xf32>
    %extracted_slice_406 = tensor.extract_slice %1[114, 0] [1, 916] [1, 1] : tensor<128x1024xf32> to tensor<1x916xf32>
    %extracted_slice_407 = tensor.extract_slice %1[114, 916] [1, 108] [1, 1] : tensor<128x1024xf32> to tensor<1x108xf32>
    %inserted_slice_408 = tensor.insert_slice %extracted_slice_406 into %4[0, 108] [1, 916] [1, 1] : tensor<1x916xf32> into tensor<1x1024xf32>
    %inserted_slice_409 = tensor.insert_slice %extracted_slice_407 into %inserted_slice_408[0, 0] [1, 108] [1, 1] : tensor<1x108xf32> into tensor<1x1024xf32>
    %extracted_slice_410 = tensor.extract_slice %1[115, 0] [1, 916] [1, 1] : tensor<128x1024xf32> to tensor<1x916xf32>
    %extracted_slice_411 = tensor.extract_slice %1[115, 916] [1, 108] [1, 1] : tensor<128x1024xf32> to tensor<1x108xf32>
    %inserted_slice_412 = tensor.insert_slice %extracted_slice_410 into %4[0, 108] [1, 916] [1, 1] : tensor<1x916xf32> into tensor<1x1024xf32>
    %inserted_slice_413 = tensor.insert_slice %extracted_slice_411 into %inserted_slice_412[0, 0] [1, 108] [1, 1] : tensor<1x108xf32> into tensor<1x1024xf32>
    %extracted_slice_414 = tensor.extract_slice %1[116, 0] [1, 916] [1, 1] : tensor<128x1024xf32> to tensor<1x916xf32>
    %extracted_slice_415 = tensor.extract_slice %1[116, 916] [1, 108] [1, 1] : tensor<128x1024xf32> to tensor<1x108xf32>
    %inserted_slice_416 = tensor.insert_slice %extracted_slice_414 into %4[0, 108] [1, 916] [1, 1] : tensor<1x916xf32> into tensor<1x1024xf32>
    %inserted_slice_417 = tensor.insert_slice %extracted_slice_415 into %inserted_slice_416[0, 0] [1, 108] [1, 1] : tensor<1x108xf32> into tensor<1x1024xf32>
    %extracted_slice_418 = tensor.extract_slice %1[117, 0] [1, 916] [1, 1] : tensor<128x1024xf32> to tensor<1x916xf32>
    %extracted_slice_419 = tensor.extract_slice %1[117, 916] [1, 108] [1, 1] : tensor<128x1024xf32> to tensor<1x108xf32>
    %inserted_slice_420 = tensor.insert_slice %extracted_slice_418 into %4[0, 108] [1, 916] [1, 1] : tensor<1x916xf32> into tensor<1x1024xf32>
    %inserted_slice_421 = tensor.insert_slice %extracted_slice_419 into %inserted_slice_420[0, 0] [1, 108] [1, 1] : tensor<1x108xf32> into tensor<1x1024xf32>
    %extracted_slice_422 = tensor.extract_slice %1[118, 0] [1, 916] [1, 1] : tensor<128x1024xf32> to tensor<1x916xf32>
    %extracted_slice_423 = tensor.extract_slice %1[118, 916] [1, 108] [1, 1] : tensor<128x1024xf32> to tensor<1x108xf32>
    %inserted_slice_424 = tensor.insert_slice %extracted_slice_422 into %4[0, 108] [1, 916] [1, 1] : tensor<1x916xf32> into tensor<1x1024xf32>
    %inserted_slice_425 = tensor.insert_slice %extracted_slice_423 into %inserted_slice_424[0, 0] [1, 108] [1, 1] : tensor<1x108xf32> into tensor<1x1024xf32>
    %extracted_slice_426 = tensor.extract_slice %1[119, 0] [1, 916] [1, 1] : tensor<128x1024xf32> to tensor<1x916xf32>
    %extracted_slice_427 = tensor.extract_slice %1[119, 916] [1, 108] [1, 1] : tensor<128x1024xf32> to tensor<1x108xf32>
    %inserted_slice_428 = tensor.insert_slice %extracted_slice_426 into %4[0, 108] [1, 916] [1, 1] : tensor<1x916xf32> into tensor<1x1024xf32>
    %inserted_slice_429 = tensor.insert_slice %extracted_slice_427 into %inserted_slice_428[0, 0] [1, 108] [1, 1] : tensor<1x108xf32> into tensor<1x1024xf32>
    %extracted_slice_430 = tensor.extract_slice %1[120, 0] [1, 904] [1, 1] : tensor<128x1024xf32> to tensor<1x904xf32>
    %extracted_slice_431 = tensor.extract_slice %1[120, 904] [1, 120] [1, 1] : tensor<128x1024xf32> to tensor<1x120xf32>
    %inserted_slice_432 = tensor.insert_slice %extracted_slice_430 into %4[0, 120] [1, 904] [1, 1] : tensor<1x904xf32> into tensor<1x1024xf32>
    %inserted_slice_433 = tensor.insert_slice %extracted_slice_431 into %inserted_slice_432[0, 0] [1, 120] [1, 1] : tensor<1x120xf32> into tensor<1x1024xf32>
    %extracted_slice_434 = tensor.extract_slice %1[121, 0] [1, 904] [1, 1] : tensor<128x1024xf32> to tensor<1x904xf32>
    %extracted_slice_435 = tensor.extract_slice %1[121, 904] [1, 120] [1, 1] : tensor<128x1024xf32> to tensor<1x120xf32>
    %inserted_slice_436 = tensor.insert_slice %extracted_slice_434 into %4[0, 120] [1, 904] [1, 1] : tensor<1x904xf32> into tensor<1x1024xf32>
    %inserted_slice_437 = tensor.insert_slice %extracted_slice_435 into %inserted_slice_436[0, 0] [1, 120] [1, 1] : tensor<1x120xf32> into tensor<1x1024xf32>
    %extracted_slice_438 = tensor.extract_slice %1[122, 0] [1, 904] [1, 1] : tensor<128x1024xf32> to tensor<1x904xf32>
    %extracted_slice_439 = tensor.extract_slice %1[122, 904] [1, 120] [1, 1] : tensor<128x1024xf32> to tensor<1x120xf32>
    %inserted_slice_440 = tensor.insert_slice %extracted_slice_438 into %4[0, 120] [1, 904] [1, 1] : tensor<1x904xf32> into tensor<1x1024xf32>
    %inserted_slice_441 = tensor.insert_slice %extracted_slice_439 into %inserted_slice_440[0, 0] [1, 120] [1, 1] : tensor<1x120xf32> into tensor<1x1024xf32>
    %extracted_slice_442 = tensor.extract_slice %1[123, 0] [1, 904] [1, 1] : tensor<128x1024xf32> to tensor<1x904xf32>
    %extracted_slice_443 = tensor.extract_slice %1[123, 904] [1, 120] [1, 1] : tensor<128x1024xf32> to tensor<1x120xf32>
    %inserted_slice_444 = tensor.insert_slice %extracted_slice_442 into %4[0, 120] [1, 904] [1, 1] : tensor<1x904xf32> into tensor<1x1024xf32>
    %inserted_slice_445 = tensor.insert_slice %extracted_slice_443 into %inserted_slice_444[0, 0] [1, 120] [1, 1] : tensor<1x120xf32> into tensor<1x1024xf32>
    %extracted_slice_446 = tensor.extract_slice %1[124, 0] [1, 904] [1, 1] : tensor<128x1024xf32> to tensor<1x904xf32>
    %extracted_slice_447 = tensor.extract_slice %1[124, 904] [1, 120] [1, 1] : tensor<128x1024xf32> to tensor<1x120xf32>
    %inserted_slice_448 = tensor.insert_slice %extracted_slice_446 into %4[0, 120] [1, 904] [1, 1] : tensor<1x904xf32> into tensor<1x1024xf32>
    %inserted_slice_449 = tensor.insert_slice %extracted_slice_447 into %inserted_slice_448[0, 0] [1, 120] [1, 1] : tensor<1x120xf32> into tensor<1x1024xf32>
    %extracted_slice_450 = tensor.extract_slice %1[125, 0] [1, 904] [1, 1] : tensor<128x1024xf32> to tensor<1x904xf32>
    %extracted_slice_451 = tensor.extract_slice %1[125, 904] [1, 120] [1, 1] : tensor<128x1024xf32> to tensor<1x120xf32>
    %inserted_slice_452 = tensor.insert_slice %extracted_slice_450 into %4[0, 120] [1, 904] [1, 1] : tensor<1x904xf32> into tensor<1x1024xf32>
    %inserted_slice_453 = tensor.insert_slice %extracted_slice_451 into %inserted_slice_452[0, 0] [1, 120] [1, 1] : tensor<1x120xf32> into tensor<1x1024xf32>
    %extracted_slice_454 = tensor.extract_slice %1[126, 0] [1, 904] [1, 1] : tensor<128x1024xf32> to tensor<1x904xf32>
    %extracted_slice_455 = tensor.extract_slice %1[126, 904] [1, 120] [1, 1] : tensor<128x1024xf32> to tensor<1x120xf32>
    %inserted_slice_456 = tensor.insert_slice %extracted_slice_454 into %4[0, 120] [1, 904] [1, 1] : tensor<1x904xf32> into tensor<1x1024xf32>
    %inserted_slice_457 = tensor.insert_slice %extracted_slice_455 into %inserted_slice_456[0, 0] [1, 120] [1, 1] : tensor<1x120xf32> into tensor<1x1024xf32>
    %extracted_slice_458 = tensor.extract_slice %1[127, 0] [1, 904] [1, 1] : tensor<128x1024xf32> to tensor<1x904xf32>
    %extracted_slice_459 = tensor.extract_slice %1[127, 904] [1, 120] [1, 1] : tensor<128x1024xf32> to tensor<1x120xf32>
    %inserted_slice_460 = tensor.insert_slice %extracted_slice_458 into %4[0, 120] [1, 904] [1, 1] : tensor<1x904xf32> into tensor<1x1024xf32>
    %inserted_slice_461 = tensor.insert_slice %extracted_slice_459 into %inserted_slice_460[0, 0] [1, 120] [1, 1] : tensor<1x120xf32> into tensor<1x1024xf32>
    %extracted_slice_462 = tensor.extract_slice %2[8, 0] [1, 1016] [1, 1] : tensor<64x1024xf32> to tensor<1x1016xf32>
    %extracted_slice_463 = tensor.extract_slice %2[8, 1016] [1, 8] [1, 1] : tensor<64x1024xf32> to tensor<1x8xf32>
    %inserted_slice_464 = tensor.insert_slice %extracted_slice_462 into %4[0, 8] [1, 1016] [1, 1] : tensor<1x1016xf32> into tensor<1x1024xf32>
    %inserted_slice_465 = tensor.insert_slice %extracted_slice_463 into %inserted_slice_464[0, 0] [1, 8] [1, 1] : tensor<1x8xf32> into tensor<1x1024xf32>
    %extracted_slice_466 = tensor.extract_slice %2[9, 0] [1, 1016] [1, 1] : tensor<64x1024xf32> to tensor<1x1016xf32>
    %extracted_slice_467 = tensor.extract_slice %2[9, 1016] [1, 8] [1, 1] : tensor<64x1024xf32> to tensor<1x8xf32>
    %inserted_slice_468 = tensor.insert_slice %extracted_slice_466 into %4[0, 8] [1, 1016] [1, 1] : tensor<1x1016xf32> into tensor<1x1024xf32>
    %inserted_slice_469 = tensor.insert_slice %extracted_slice_467 into %inserted_slice_468[0, 0] [1, 8] [1, 1] : tensor<1x8xf32> into tensor<1x1024xf32>
    %extracted_slice_470 = tensor.extract_slice %2[10, 0] [1, 1016] [1, 1] : tensor<64x1024xf32> to tensor<1x1016xf32>
    %extracted_slice_471 = tensor.extract_slice %2[10, 1016] [1, 8] [1, 1] : tensor<64x1024xf32> to tensor<1x8xf32>
    %inserted_slice_472 = tensor.insert_slice %extracted_slice_470 into %4[0, 8] [1, 1016] [1, 1] : tensor<1x1016xf32> into tensor<1x1024xf32>
    %inserted_slice_473 = tensor.insert_slice %extracted_slice_471 into %inserted_slice_472[0, 0] [1, 8] [1, 1] : tensor<1x8xf32> into tensor<1x1024xf32>
    %extracted_slice_474 = tensor.extract_slice %2[11, 0] [1, 1016] [1, 1] : tensor<64x1024xf32> to tensor<1x1016xf32>
    %extracted_slice_475 = tensor.extract_slice %2[11, 1016] [1, 8] [1, 1] : tensor<64x1024xf32> to tensor<1x8xf32>
    %inserted_slice_476 = tensor.insert_slice %extracted_slice_474 into %4[0, 8] [1, 1016] [1, 1] : tensor<1x1016xf32> into tensor<1x1024xf32>
    %inserted_slice_477 = tensor.insert_slice %extracted_slice_475 into %inserted_slice_476[0, 0] [1, 8] [1, 1] : tensor<1x8xf32> into tensor<1x1024xf32>
    %extracted_slice_478 = tensor.extract_slice %2[12, 0] [1, 1016] [1, 1] : tensor<64x1024xf32> to tensor<1x1016xf32>
    %extracted_slice_479 = tensor.extract_slice %2[12, 1016] [1, 8] [1, 1] : tensor<64x1024xf32> to tensor<1x8xf32>
    %inserted_slice_480 = tensor.insert_slice %extracted_slice_478 into %4[0, 8] [1, 1016] [1, 1] : tensor<1x1016xf32> into tensor<1x1024xf32>
    %inserted_slice_481 = tensor.insert_slice %extracted_slice_479 into %inserted_slice_480[0, 0] [1, 8] [1, 1] : tensor<1x8xf32> into tensor<1x1024xf32>
    %extracted_slice_482 = tensor.extract_slice %2[13, 0] [1, 1016] [1, 1] : tensor<64x1024xf32> to tensor<1x1016xf32>
    %extracted_slice_483 = tensor.extract_slice %2[13, 1016] [1, 8] [1, 1] : tensor<64x1024xf32> to tensor<1x8xf32>
    %inserted_slice_484 = tensor.insert_slice %extracted_slice_482 into %4[0, 8] [1, 1016] [1, 1] : tensor<1x1016xf32> into tensor<1x1024xf32>
    %inserted_slice_485 = tensor.insert_slice %extracted_slice_483 into %inserted_slice_484[0, 0] [1, 8] [1, 1] : tensor<1x8xf32> into tensor<1x1024xf32>
    %extracted_slice_486 = tensor.extract_slice %2[14, 0] [1, 1016] [1, 1] : tensor<64x1024xf32> to tensor<1x1016xf32>
    %extracted_slice_487 = tensor.extract_slice %2[14, 1016] [1, 8] [1, 1] : tensor<64x1024xf32> to tensor<1x8xf32>
    %inserted_slice_488 = tensor.insert_slice %extracted_slice_486 into %4[0, 8] [1, 1016] [1, 1] : tensor<1x1016xf32> into tensor<1x1024xf32>
    %inserted_slice_489 = tensor.insert_slice %extracted_slice_487 into %inserted_slice_488[0, 0] [1, 8] [1, 1] : tensor<1x8xf32> into tensor<1x1024xf32>
    %extracted_slice_490 = tensor.extract_slice %2[15, 0] [1, 1016] [1, 1] : tensor<64x1024xf32> to tensor<1x1016xf32>
    %extracted_slice_491 = tensor.extract_slice %2[15, 1016] [1, 8] [1, 1] : tensor<64x1024xf32> to tensor<1x8xf32>
    %inserted_slice_492 = tensor.insert_slice %extracted_slice_490 into %4[0, 8] [1, 1016] [1, 1] : tensor<1x1016xf32> into tensor<1x1024xf32>
    %inserted_slice_493 = tensor.insert_slice %extracted_slice_491 into %inserted_slice_492[0, 0] [1, 8] [1, 1] : tensor<1x8xf32> into tensor<1x1024xf32>
    %extracted_slice_494 = tensor.extract_slice %2[16, 0] [1, 1008] [1, 1] : tensor<64x1024xf32> to tensor<1x1008xf32>
    %extracted_slice_495 = tensor.extract_slice %2[16, 1008] [1, 16] [1, 1] : tensor<64x1024xf32> to tensor<1x16xf32>
    %inserted_slice_496 = tensor.insert_slice %extracted_slice_494 into %4[0, 16] [1, 1008] [1, 1] : tensor<1x1008xf32> into tensor<1x1024xf32>
    %inserted_slice_497 = tensor.insert_slice %extracted_slice_495 into %inserted_slice_496[0, 0] [1, 16] [1, 1] : tensor<1x16xf32> into tensor<1x1024xf32>
    %extracted_slice_498 = tensor.extract_slice %2[17, 0] [1, 1008] [1, 1] : tensor<64x1024xf32> to tensor<1x1008xf32>
    %extracted_slice_499 = tensor.extract_slice %2[17, 1008] [1, 16] [1, 1] : tensor<64x1024xf32> to tensor<1x16xf32>
    %inserted_slice_500 = tensor.insert_slice %extracted_slice_498 into %4[0, 16] [1, 1008] [1, 1] : tensor<1x1008xf32> into tensor<1x1024xf32>
    %inserted_slice_501 = tensor.insert_slice %extracted_slice_499 into %inserted_slice_500[0, 0] [1, 16] [1, 1] : tensor<1x16xf32> into tensor<1x1024xf32>
    %extracted_slice_502 = tensor.extract_slice %2[18, 0] [1, 1008] [1, 1] : tensor<64x1024xf32> to tensor<1x1008xf32>
    %extracted_slice_503 = tensor.extract_slice %2[18, 1008] [1, 16] [1, 1] : tensor<64x1024xf32> to tensor<1x16xf32>
    %inserted_slice_504 = tensor.insert_slice %extracted_slice_502 into %4[0, 16] [1, 1008] [1, 1] : tensor<1x1008xf32> into tensor<1x1024xf32>
    %inserted_slice_505 = tensor.insert_slice %extracted_slice_503 into %inserted_slice_504[0, 0] [1, 16] [1, 1] : tensor<1x16xf32> into tensor<1x1024xf32>
    %extracted_slice_506 = tensor.extract_slice %2[19, 0] [1, 1008] [1, 1] : tensor<64x1024xf32> to tensor<1x1008xf32>
    %extracted_slice_507 = tensor.extract_slice %2[19, 1008] [1, 16] [1, 1] : tensor<64x1024xf32> to tensor<1x16xf32>
    %inserted_slice_508 = tensor.insert_slice %extracted_slice_506 into %4[0, 16] [1, 1008] [1, 1] : tensor<1x1008xf32> into tensor<1x1024xf32>
    %inserted_slice_509 = tensor.insert_slice %extracted_slice_507 into %inserted_slice_508[0, 0] [1, 16] [1, 1] : tensor<1x16xf32> into tensor<1x1024xf32>
    %extracted_slice_510 = tensor.extract_slice %2[20, 0] [1, 1008] [1, 1] : tensor<64x1024xf32> to tensor<1x1008xf32>
    %extracted_slice_511 = tensor.extract_slice %2[20, 1008] [1, 16] [1, 1] : tensor<64x1024xf32> to tensor<1x16xf32>
    %inserted_slice_512 = tensor.insert_slice %extracted_slice_510 into %4[0, 16] [1, 1008] [1, 1] : tensor<1x1008xf32> into tensor<1x1024xf32>
    %inserted_slice_513 = tensor.insert_slice %extracted_slice_511 into %inserted_slice_512[0, 0] [1, 16] [1, 1] : tensor<1x16xf32> into tensor<1x1024xf32>
    %extracted_slice_514 = tensor.extract_slice %2[21, 0] [1, 1008] [1, 1] : tensor<64x1024xf32> to tensor<1x1008xf32>
    %extracted_slice_515 = tensor.extract_slice %2[21, 1008] [1, 16] [1, 1] : tensor<64x1024xf32> to tensor<1x16xf32>
    %inserted_slice_516 = tensor.insert_slice %extracted_slice_514 into %4[0, 16] [1, 1008] [1, 1] : tensor<1x1008xf32> into tensor<1x1024xf32>
    %inserted_slice_517 = tensor.insert_slice %extracted_slice_515 into %inserted_slice_516[0, 0] [1, 16] [1, 1] : tensor<1x16xf32> into tensor<1x1024xf32>
    %extracted_slice_518 = tensor.extract_slice %2[22, 0] [1, 1008] [1, 1] : tensor<64x1024xf32> to tensor<1x1008xf32>
    %extracted_slice_519 = tensor.extract_slice %2[22, 1008] [1, 16] [1, 1] : tensor<64x1024xf32> to tensor<1x16xf32>
    %inserted_slice_520 = tensor.insert_slice %extracted_slice_518 into %4[0, 16] [1, 1008] [1, 1] : tensor<1x1008xf32> into tensor<1x1024xf32>
    %inserted_slice_521 = tensor.insert_slice %extracted_slice_519 into %inserted_slice_520[0, 0] [1, 16] [1, 1] : tensor<1x16xf32> into tensor<1x1024xf32>
    %extracted_slice_522 = tensor.extract_slice %2[23, 0] [1, 1008] [1, 1] : tensor<64x1024xf32> to tensor<1x1008xf32>
    %extracted_slice_523 = tensor.extract_slice %2[23, 1008] [1, 16] [1, 1] : tensor<64x1024xf32> to tensor<1x16xf32>
    %inserted_slice_524 = tensor.insert_slice %extracted_slice_522 into %4[0, 16] [1, 1008] [1, 1] : tensor<1x1008xf32> into tensor<1x1024xf32>
    %inserted_slice_525 = tensor.insert_slice %extracted_slice_523 into %inserted_slice_524[0, 0] [1, 16] [1, 1] : tensor<1x16xf32> into tensor<1x1024xf32>
    %extracted_slice_526 = tensor.extract_slice %2[24, 0] [1, 1000] [1, 1] : tensor<64x1024xf32> to tensor<1x1000xf32>
    %extracted_slice_527 = tensor.extract_slice %2[24, 1000] [1, 24] [1, 1] : tensor<64x1024xf32> to tensor<1x24xf32>
    %inserted_slice_528 = tensor.insert_slice %extracted_slice_526 into %4[0, 24] [1, 1000] [1, 1] : tensor<1x1000xf32> into tensor<1x1024xf32>
    %inserted_slice_529 = tensor.insert_slice %extracted_slice_527 into %inserted_slice_528[0, 0] [1, 24] [1, 1] : tensor<1x24xf32> into tensor<1x1024xf32>
    %extracted_slice_530 = tensor.extract_slice %2[25, 0] [1, 1000] [1, 1] : tensor<64x1024xf32> to tensor<1x1000xf32>
    %extracted_slice_531 = tensor.extract_slice %2[25, 1000] [1, 24] [1, 1] : tensor<64x1024xf32> to tensor<1x24xf32>
    %inserted_slice_532 = tensor.insert_slice %extracted_slice_530 into %4[0, 24] [1, 1000] [1, 1] : tensor<1x1000xf32> into tensor<1x1024xf32>
    %inserted_slice_533 = tensor.insert_slice %extracted_slice_531 into %inserted_slice_532[0, 0] [1, 24] [1, 1] : tensor<1x24xf32> into tensor<1x1024xf32>
    %extracted_slice_534 = tensor.extract_slice %2[26, 0] [1, 1000] [1, 1] : tensor<64x1024xf32> to tensor<1x1000xf32>
    %extracted_slice_535 = tensor.extract_slice %2[26, 1000] [1, 24] [1, 1] : tensor<64x1024xf32> to tensor<1x24xf32>
    %inserted_slice_536 = tensor.insert_slice %extracted_slice_534 into %4[0, 24] [1, 1000] [1, 1] : tensor<1x1000xf32> into tensor<1x1024xf32>
    %inserted_slice_537 = tensor.insert_slice %extracted_slice_535 into %inserted_slice_536[0, 0] [1, 24] [1, 1] : tensor<1x24xf32> into tensor<1x1024xf32>
    %extracted_slice_538 = tensor.extract_slice %2[27, 0] [1, 1000] [1, 1] : tensor<64x1024xf32> to tensor<1x1000xf32>
    %extracted_slice_539 = tensor.extract_slice %2[27, 1000] [1, 24] [1, 1] : tensor<64x1024xf32> to tensor<1x24xf32>
    %inserted_slice_540 = tensor.insert_slice %extracted_slice_538 into %4[0, 24] [1, 1000] [1, 1] : tensor<1x1000xf32> into tensor<1x1024xf32>
    %inserted_slice_541 = tensor.insert_slice %extracted_slice_539 into %inserted_slice_540[0, 0] [1, 24] [1, 1] : tensor<1x24xf32> into tensor<1x1024xf32>
    %extracted_slice_542 = tensor.extract_slice %2[28, 0] [1, 1000] [1, 1] : tensor<64x1024xf32> to tensor<1x1000xf32>
    %extracted_slice_543 = tensor.extract_slice %2[28, 1000] [1, 24] [1, 1] : tensor<64x1024xf32> to tensor<1x24xf32>
    %inserted_slice_544 = tensor.insert_slice %extracted_slice_542 into %4[0, 24] [1, 1000] [1, 1] : tensor<1x1000xf32> into tensor<1x1024xf32>
    %inserted_slice_545 = tensor.insert_slice %extracted_slice_543 into %inserted_slice_544[0, 0] [1, 24] [1, 1] : tensor<1x24xf32> into tensor<1x1024xf32>
    %extracted_slice_546 = tensor.extract_slice %2[29, 0] [1, 1000] [1, 1] : tensor<64x1024xf32> to tensor<1x1000xf32>
    %extracted_slice_547 = tensor.extract_slice %2[29, 1000] [1, 24] [1, 1] : tensor<64x1024xf32> to tensor<1x24xf32>
    %inserted_slice_548 = tensor.insert_slice %extracted_slice_546 into %4[0, 24] [1, 1000] [1, 1] : tensor<1x1000xf32> into tensor<1x1024xf32>
    %inserted_slice_549 = tensor.insert_slice %extracted_slice_547 into %inserted_slice_548[0, 0] [1, 24] [1, 1] : tensor<1x24xf32> into tensor<1x1024xf32>
    %extracted_slice_550 = tensor.extract_slice %2[30, 0] [1, 1000] [1, 1] : tensor<64x1024xf32> to tensor<1x1000xf32>
    %extracted_slice_551 = tensor.extract_slice %2[30, 1000] [1, 24] [1, 1] : tensor<64x1024xf32> to tensor<1x24xf32>
    %inserted_slice_552 = tensor.insert_slice %extracted_slice_550 into %4[0, 24] [1, 1000] [1, 1] : tensor<1x1000xf32> into tensor<1x1024xf32>
    %inserted_slice_553 = tensor.insert_slice %extracted_slice_551 into %inserted_slice_552[0, 0] [1, 24] [1, 1] : tensor<1x24xf32> into tensor<1x1024xf32>
    %extracted_slice_554 = tensor.extract_slice %2[31, 0] [1, 1000] [1, 1] : tensor<64x1024xf32> to tensor<1x1000xf32>
    %extracted_slice_555 = tensor.extract_slice %2[31, 1000] [1, 24] [1, 1] : tensor<64x1024xf32> to tensor<1x24xf32>
    %inserted_slice_556 = tensor.insert_slice %extracted_slice_554 into %4[0, 24] [1, 1000] [1, 1] : tensor<1x1000xf32> into tensor<1x1024xf32>
    %inserted_slice_557 = tensor.insert_slice %extracted_slice_555 into %inserted_slice_556[0, 0] [1, 24] [1, 1] : tensor<1x24xf32> into tensor<1x1024xf32>
    %extracted_slice_558 = tensor.extract_slice %2[32, 0] [1, 992] [1, 1] : tensor<64x1024xf32> to tensor<1x992xf32>
    %extracted_slice_559 = tensor.extract_slice %2[32, 992] [1, 32] [1, 1] : tensor<64x1024xf32> to tensor<1x32xf32>
    %inserted_slice_560 = tensor.insert_slice %extracted_slice_558 into %4[0, 32] [1, 992] [1, 1] : tensor<1x992xf32> into tensor<1x1024xf32>
    %inserted_slice_561 = tensor.insert_slice %extracted_slice_559 into %inserted_slice_560[0, 0] [1, 32] [1, 1] : tensor<1x32xf32> into tensor<1x1024xf32>
    %extracted_slice_562 = tensor.extract_slice %2[33, 0] [1, 992] [1, 1] : tensor<64x1024xf32> to tensor<1x992xf32>
    %extracted_slice_563 = tensor.extract_slice %2[33, 992] [1, 32] [1, 1] : tensor<64x1024xf32> to tensor<1x32xf32>
    %inserted_slice_564 = tensor.insert_slice %extracted_slice_562 into %4[0, 32] [1, 992] [1, 1] : tensor<1x992xf32> into tensor<1x1024xf32>
    %inserted_slice_565 = tensor.insert_slice %extracted_slice_563 into %inserted_slice_564[0, 0] [1, 32] [1, 1] : tensor<1x32xf32> into tensor<1x1024xf32>
    %extracted_slice_566 = tensor.extract_slice %2[34, 0] [1, 992] [1, 1] : tensor<64x1024xf32> to tensor<1x992xf32>
    %extracted_slice_567 = tensor.extract_slice %2[34, 992] [1, 32] [1, 1] : tensor<64x1024xf32> to tensor<1x32xf32>
    %inserted_slice_568 = tensor.insert_slice %extracted_slice_566 into %4[0, 32] [1, 992] [1, 1] : tensor<1x992xf32> into tensor<1x1024xf32>
    %inserted_slice_569 = tensor.insert_slice %extracted_slice_567 into %inserted_slice_568[0, 0] [1, 32] [1, 1] : tensor<1x32xf32> into tensor<1x1024xf32>
    %extracted_slice_570 = tensor.extract_slice %2[35, 0] [1, 992] [1, 1] : tensor<64x1024xf32> to tensor<1x992xf32>
    %extracted_slice_571 = tensor.extract_slice %2[35, 992] [1, 32] [1, 1] : tensor<64x1024xf32> to tensor<1x32xf32>
    %inserted_slice_572 = tensor.insert_slice %extracted_slice_570 into %4[0, 32] [1, 992] [1, 1] : tensor<1x992xf32> into tensor<1x1024xf32>
    %inserted_slice_573 = tensor.insert_slice %extracted_slice_571 into %inserted_slice_572[0, 0] [1, 32] [1, 1] : tensor<1x32xf32> into tensor<1x1024xf32>
    %extracted_slice_574 = tensor.extract_slice %2[36, 0] [1, 992] [1, 1] : tensor<64x1024xf32> to tensor<1x992xf32>
    %extracted_slice_575 = tensor.extract_slice %2[36, 992] [1, 32] [1, 1] : tensor<64x1024xf32> to tensor<1x32xf32>
    %inserted_slice_576 = tensor.insert_slice %extracted_slice_574 into %4[0, 32] [1, 992] [1, 1] : tensor<1x992xf32> into tensor<1x1024xf32>
    %inserted_slice_577 = tensor.insert_slice %extracted_slice_575 into %inserted_slice_576[0, 0] [1, 32] [1, 1] : tensor<1x32xf32> into tensor<1x1024xf32>
    %extracted_slice_578 = tensor.extract_slice %2[37, 0] [1, 992] [1, 1] : tensor<64x1024xf32> to tensor<1x992xf32>
    %extracted_slice_579 = tensor.extract_slice %2[37, 992] [1, 32] [1, 1] : tensor<64x1024xf32> to tensor<1x32xf32>
    %inserted_slice_580 = tensor.insert_slice %extracted_slice_578 into %4[0, 32] [1, 992] [1, 1] : tensor<1x992xf32> into tensor<1x1024xf32>
    %inserted_slice_581 = tensor.insert_slice %extracted_slice_579 into %inserted_slice_580[0, 0] [1, 32] [1, 1] : tensor<1x32xf32> into tensor<1x1024xf32>
    %extracted_slice_582 = tensor.extract_slice %2[38, 0] [1, 992] [1, 1] : tensor<64x1024xf32> to tensor<1x992xf32>
    %extracted_slice_583 = tensor.extract_slice %2[38, 992] [1, 32] [1, 1] : tensor<64x1024xf32> to tensor<1x32xf32>
    %inserted_slice_584 = tensor.insert_slice %extracted_slice_582 into %4[0, 32] [1, 992] [1, 1] : tensor<1x992xf32> into tensor<1x1024xf32>
    %inserted_slice_585 = tensor.insert_slice %extracted_slice_583 into %inserted_slice_584[0, 0] [1, 32] [1, 1] : tensor<1x32xf32> into tensor<1x1024xf32>
    %extracted_slice_586 = tensor.extract_slice %2[39, 0] [1, 992] [1, 1] : tensor<64x1024xf32> to tensor<1x992xf32>
    %extracted_slice_587 = tensor.extract_slice %2[39, 992] [1, 32] [1, 1] : tensor<64x1024xf32> to tensor<1x32xf32>
    %inserted_slice_588 = tensor.insert_slice %extracted_slice_586 into %4[0, 32] [1, 992] [1, 1] : tensor<1x992xf32> into tensor<1x1024xf32>
    %inserted_slice_589 = tensor.insert_slice %extracted_slice_587 into %inserted_slice_588[0, 0] [1, 32] [1, 1] : tensor<1x32xf32> into tensor<1x1024xf32>
    %extracted_slice_590 = tensor.extract_slice %2[40, 0] [1, 984] [1, 1] : tensor<64x1024xf32> to tensor<1x984xf32>
    %extracted_slice_591 = tensor.extract_slice %2[40, 984] [1, 40] [1, 1] : tensor<64x1024xf32> to tensor<1x40xf32>
    %inserted_slice_592 = tensor.insert_slice %extracted_slice_590 into %4[0, 40] [1, 984] [1, 1] : tensor<1x984xf32> into tensor<1x1024xf32>
    %inserted_slice_593 = tensor.insert_slice %extracted_slice_591 into %inserted_slice_592[0, 0] [1, 40] [1, 1] : tensor<1x40xf32> into tensor<1x1024xf32>
    %extracted_slice_594 = tensor.extract_slice %2[41, 0] [1, 984] [1, 1] : tensor<64x1024xf32> to tensor<1x984xf32>
    %extracted_slice_595 = tensor.extract_slice %2[41, 984] [1, 40] [1, 1] : tensor<64x1024xf32> to tensor<1x40xf32>
    %inserted_slice_596 = tensor.insert_slice %extracted_slice_594 into %4[0, 40] [1, 984] [1, 1] : tensor<1x984xf32> into tensor<1x1024xf32>
    %inserted_slice_597 = tensor.insert_slice %extracted_slice_595 into %inserted_slice_596[0, 0] [1, 40] [1, 1] : tensor<1x40xf32> into tensor<1x1024xf32>
    %extracted_slice_598 = tensor.extract_slice %2[42, 0] [1, 984] [1, 1] : tensor<64x1024xf32> to tensor<1x984xf32>
    %extracted_slice_599 = tensor.extract_slice %2[42, 984] [1, 40] [1, 1] : tensor<64x1024xf32> to tensor<1x40xf32>
    %inserted_slice_600 = tensor.insert_slice %extracted_slice_598 into %4[0, 40] [1, 984] [1, 1] : tensor<1x984xf32> into tensor<1x1024xf32>
    %inserted_slice_601 = tensor.insert_slice %extracted_slice_599 into %inserted_slice_600[0, 0] [1, 40] [1, 1] : tensor<1x40xf32> into tensor<1x1024xf32>
    %extracted_slice_602 = tensor.extract_slice %2[43, 0] [1, 984] [1, 1] : tensor<64x1024xf32> to tensor<1x984xf32>
    %extracted_slice_603 = tensor.extract_slice %2[43, 984] [1, 40] [1, 1] : tensor<64x1024xf32> to tensor<1x40xf32>
    %inserted_slice_604 = tensor.insert_slice %extracted_slice_602 into %4[0, 40] [1, 984] [1, 1] : tensor<1x984xf32> into tensor<1x1024xf32>
    %inserted_slice_605 = tensor.insert_slice %extracted_slice_603 into %inserted_slice_604[0, 0] [1, 40] [1, 1] : tensor<1x40xf32> into tensor<1x1024xf32>
    %extracted_slice_606 = tensor.extract_slice %2[44, 0] [1, 984] [1, 1] : tensor<64x1024xf32> to tensor<1x984xf32>
    %extracted_slice_607 = tensor.extract_slice %2[44, 984] [1, 40] [1, 1] : tensor<64x1024xf32> to tensor<1x40xf32>
    %inserted_slice_608 = tensor.insert_slice %extracted_slice_606 into %4[0, 40] [1, 984] [1, 1] : tensor<1x984xf32> into tensor<1x1024xf32>
    %inserted_slice_609 = tensor.insert_slice %extracted_slice_607 into %inserted_slice_608[0, 0] [1, 40] [1, 1] : tensor<1x40xf32> into tensor<1x1024xf32>
    %extracted_slice_610 = tensor.extract_slice %2[45, 0] [1, 984] [1, 1] : tensor<64x1024xf32> to tensor<1x984xf32>
    %extracted_slice_611 = tensor.extract_slice %2[45, 984] [1, 40] [1, 1] : tensor<64x1024xf32> to tensor<1x40xf32>
    %inserted_slice_612 = tensor.insert_slice %extracted_slice_610 into %4[0, 40] [1, 984] [1, 1] : tensor<1x984xf32> into tensor<1x1024xf32>
    %inserted_slice_613 = tensor.insert_slice %extracted_slice_611 into %inserted_slice_612[0, 0] [1, 40] [1, 1] : tensor<1x40xf32> into tensor<1x1024xf32>
    %extracted_slice_614 = tensor.extract_slice %2[46, 0] [1, 984] [1, 1] : tensor<64x1024xf32> to tensor<1x984xf32>
    %extracted_slice_615 = tensor.extract_slice %2[46, 984] [1, 40] [1, 1] : tensor<64x1024xf32> to tensor<1x40xf32>
    %inserted_slice_616 = tensor.insert_slice %extracted_slice_614 into %4[0, 40] [1, 984] [1, 1] : tensor<1x984xf32> into tensor<1x1024xf32>
    %inserted_slice_617 = tensor.insert_slice %extracted_slice_615 into %inserted_slice_616[0, 0] [1, 40] [1, 1] : tensor<1x40xf32> into tensor<1x1024xf32>
    %extracted_slice_618 = tensor.extract_slice %2[47, 0] [1, 984] [1, 1] : tensor<64x1024xf32> to tensor<1x984xf32>
    %extracted_slice_619 = tensor.extract_slice %2[47, 984] [1, 40] [1, 1] : tensor<64x1024xf32> to tensor<1x40xf32>
    %inserted_slice_620 = tensor.insert_slice %extracted_slice_618 into %4[0, 40] [1, 984] [1, 1] : tensor<1x984xf32> into tensor<1x1024xf32>
    %inserted_slice_621 = tensor.insert_slice %extracted_slice_619 into %inserted_slice_620[0, 0] [1, 40] [1, 1] : tensor<1x40xf32> into tensor<1x1024xf32>
    %extracted_slice_622 = tensor.extract_slice %2[48, 0] [1, 976] [1, 1] : tensor<64x1024xf32> to tensor<1x976xf32>
    %extracted_slice_623 = tensor.extract_slice %2[48, 976] [1, 48] [1, 1] : tensor<64x1024xf32> to tensor<1x48xf32>
    %inserted_slice_624 = tensor.insert_slice %extracted_slice_622 into %4[0, 48] [1, 976] [1, 1] : tensor<1x976xf32> into tensor<1x1024xf32>
    %inserted_slice_625 = tensor.insert_slice %extracted_slice_623 into %inserted_slice_624[0, 0] [1, 48] [1, 1] : tensor<1x48xf32> into tensor<1x1024xf32>
    %extracted_slice_626 = tensor.extract_slice %2[49, 0] [1, 976] [1, 1] : tensor<64x1024xf32> to tensor<1x976xf32>
    %extracted_slice_627 = tensor.extract_slice %2[49, 976] [1, 48] [1, 1] : tensor<64x1024xf32> to tensor<1x48xf32>
    %inserted_slice_628 = tensor.insert_slice %extracted_slice_626 into %4[0, 48] [1, 976] [1, 1] : tensor<1x976xf32> into tensor<1x1024xf32>
    %inserted_slice_629 = tensor.insert_slice %extracted_slice_627 into %inserted_slice_628[0, 0] [1, 48] [1, 1] : tensor<1x48xf32> into tensor<1x1024xf32>
    %extracted_slice_630 = tensor.extract_slice %2[50, 0] [1, 976] [1, 1] : tensor<64x1024xf32> to tensor<1x976xf32>
    %extracted_slice_631 = tensor.extract_slice %2[50, 976] [1, 48] [1, 1] : tensor<64x1024xf32> to tensor<1x48xf32>
    %inserted_slice_632 = tensor.insert_slice %extracted_slice_630 into %4[0, 48] [1, 976] [1, 1] : tensor<1x976xf32> into tensor<1x1024xf32>
    %inserted_slice_633 = tensor.insert_slice %extracted_slice_631 into %inserted_slice_632[0, 0] [1, 48] [1, 1] : tensor<1x48xf32> into tensor<1x1024xf32>
    %extracted_slice_634 = tensor.extract_slice %2[51, 0] [1, 976] [1, 1] : tensor<64x1024xf32> to tensor<1x976xf32>
    %extracted_slice_635 = tensor.extract_slice %2[51, 976] [1, 48] [1, 1] : tensor<64x1024xf32> to tensor<1x48xf32>
    %inserted_slice_636 = tensor.insert_slice %extracted_slice_634 into %4[0, 48] [1, 976] [1, 1] : tensor<1x976xf32> into tensor<1x1024xf32>
    %inserted_slice_637 = tensor.insert_slice %extracted_slice_635 into %inserted_slice_636[0, 0] [1, 48] [1, 1] : tensor<1x48xf32> into tensor<1x1024xf32>
    %extracted_slice_638 = tensor.extract_slice %2[52, 0] [1, 976] [1, 1] : tensor<64x1024xf32> to tensor<1x976xf32>
    %extracted_slice_639 = tensor.extract_slice %2[52, 976] [1, 48] [1, 1] : tensor<64x1024xf32> to tensor<1x48xf32>
    %inserted_slice_640 = tensor.insert_slice %extracted_slice_638 into %4[0, 48] [1, 976] [1, 1] : tensor<1x976xf32> into tensor<1x1024xf32>
    %inserted_slice_641 = tensor.insert_slice %extracted_slice_639 into %inserted_slice_640[0, 0] [1, 48] [1, 1] : tensor<1x48xf32> into tensor<1x1024xf32>
    %extracted_slice_642 = tensor.extract_slice %2[53, 0] [1, 976] [1, 1] : tensor<64x1024xf32> to tensor<1x976xf32>
    %extracted_slice_643 = tensor.extract_slice %2[53, 976] [1, 48] [1, 1] : tensor<64x1024xf32> to tensor<1x48xf32>
    %inserted_slice_644 = tensor.insert_slice %extracted_slice_642 into %4[0, 48] [1, 976] [1, 1] : tensor<1x976xf32> into tensor<1x1024xf32>
    %inserted_slice_645 = tensor.insert_slice %extracted_slice_643 into %inserted_slice_644[0, 0] [1, 48] [1, 1] : tensor<1x48xf32> into tensor<1x1024xf32>
    %extracted_slice_646 = tensor.extract_slice %2[54, 0] [1, 976] [1, 1] : tensor<64x1024xf32> to tensor<1x976xf32>
    %extracted_slice_647 = tensor.extract_slice %2[54, 976] [1, 48] [1, 1] : tensor<64x1024xf32> to tensor<1x48xf32>
    %inserted_slice_648 = tensor.insert_slice %extracted_slice_646 into %4[0, 48] [1, 976] [1, 1] : tensor<1x976xf32> into tensor<1x1024xf32>
    %inserted_slice_649 = tensor.insert_slice %extracted_slice_647 into %inserted_slice_648[0, 0] [1, 48] [1, 1] : tensor<1x48xf32> into tensor<1x1024xf32>
    %extracted_slice_650 = tensor.extract_slice %2[55, 0] [1, 976] [1, 1] : tensor<64x1024xf32> to tensor<1x976xf32>
    %extracted_slice_651 = tensor.extract_slice %2[55, 976] [1, 48] [1, 1] : tensor<64x1024xf32> to tensor<1x48xf32>
    %inserted_slice_652 = tensor.insert_slice %extracted_slice_650 into %4[0, 48] [1, 976] [1, 1] : tensor<1x976xf32> into tensor<1x1024xf32>
    %inserted_slice_653 = tensor.insert_slice %extracted_slice_651 into %inserted_slice_652[0, 0] [1, 48] [1, 1] : tensor<1x48xf32> into tensor<1x1024xf32>
    %extracted_slice_654 = tensor.extract_slice %2[56, 0] [1, 968] [1, 1] : tensor<64x1024xf32> to tensor<1x968xf32>
    %extracted_slice_655 = tensor.extract_slice %2[56, 968] [1, 56] [1, 1] : tensor<64x1024xf32> to tensor<1x56xf32>
    %inserted_slice_656 = tensor.insert_slice %extracted_slice_654 into %4[0, 56] [1, 968] [1, 1] : tensor<1x968xf32> into tensor<1x1024xf32>
    %inserted_slice_657 = tensor.insert_slice %extracted_slice_655 into %inserted_slice_656[0, 0] [1, 56] [1, 1] : tensor<1x56xf32> into tensor<1x1024xf32>
    %extracted_slice_658 = tensor.extract_slice %2[57, 0] [1, 968] [1, 1] : tensor<64x1024xf32> to tensor<1x968xf32>
    %extracted_slice_659 = tensor.extract_slice %2[57, 968] [1, 56] [1, 1] : tensor<64x1024xf32> to tensor<1x56xf32>
    %inserted_slice_660 = tensor.insert_slice %extracted_slice_658 into %4[0, 56] [1, 968] [1, 1] : tensor<1x968xf32> into tensor<1x1024xf32>
    %inserted_slice_661 = tensor.insert_slice %extracted_slice_659 into %inserted_slice_660[0, 0] [1, 56] [1, 1] : tensor<1x56xf32> into tensor<1x1024xf32>
    %extracted_slice_662 = tensor.extract_slice %2[58, 0] [1, 968] [1, 1] : tensor<64x1024xf32> to tensor<1x968xf32>
    %extracted_slice_663 = tensor.extract_slice %2[58, 968] [1, 56] [1, 1] : tensor<64x1024xf32> to tensor<1x56xf32>
    %inserted_slice_664 = tensor.insert_slice %extracted_slice_662 into %4[0, 56] [1, 968] [1, 1] : tensor<1x968xf32> into tensor<1x1024xf32>
    %inserted_slice_665 = tensor.insert_slice %extracted_slice_663 into %inserted_slice_664[0, 0] [1, 56] [1, 1] : tensor<1x56xf32> into tensor<1x1024xf32>
    %extracted_slice_666 = tensor.extract_slice %2[59, 0] [1, 968] [1, 1] : tensor<64x1024xf32> to tensor<1x968xf32>
    %extracted_slice_667 = tensor.extract_slice %2[59, 968] [1, 56] [1, 1] : tensor<64x1024xf32> to tensor<1x56xf32>
    %inserted_slice_668 = tensor.insert_slice %extracted_slice_666 into %4[0, 56] [1, 968] [1, 1] : tensor<1x968xf32> into tensor<1x1024xf32>
    %inserted_slice_669 = tensor.insert_slice %extracted_slice_667 into %inserted_slice_668[0, 0] [1, 56] [1, 1] : tensor<1x56xf32> into tensor<1x1024xf32>
    %extracted_slice_670 = tensor.extract_slice %2[60, 0] [1, 968] [1, 1] : tensor<64x1024xf32> to tensor<1x968xf32>
    %extracted_slice_671 = tensor.extract_slice %2[60, 968] [1, 56] [1, 1] : tensor<64x1024xf32> to tensor<1x56xf32>
    %inserted_slice_672 = tensor.insert_slice %extracted_slice_670 into %4[0, 56] [1, 968] [1, 1] : tensor<1x968xf32> into tensor<1x1024xf32>
    %inserted_slice_673 = tensor.insert_slice %extracted_slice_671 into %inserted_slice_672[0, 0] [1, 56] [1, 1] : tensor<1x56xf32> into tensor<1x1024xf32>
    %extracted_slice_674 = tensor.extract_slice %2[61, 0] [1, 968] [1, 1] : tensor<64x1024xf32> to tensor<1x968xf32>
    %extracted_slice_675 = tensor.extract_slice %2[61, 968] [1, 56] [1, 1] : tensor<64x1024xf32> to tensor<1x56xf32>
    %inserted_slice_676 = tensor.insert_slice %extracted_slice_674 into %4[0, 56] [1, 968] [1, 1] : tensor<1x968xf32> into tensor<1x1024xf32>
    %inserted_slice_677 = tensor.insert_slice %extracted_slice_675 into %inserted_slice_676[0, 0] [1, 56] [1, 1] : tensor<1x56xf32> into tensor<1x1024xf32>
    %extracted_slice_678 = tensor.extract_slice %2[62, 0] [1, 968] [1, 1] : tensor<64x1024xf32> to tensor<1x968xf32>
    %extracted_slice_679 = tensor.extract_slice %2[62, 968] [1, 56] [1, 1] : tensor<64x1024xf32> to tensor<1x56xf32>
    %inserted_slice_680 = tensor.insert_slice %extracted_slice_678 into %4[0, 56] [1, 968] [1, 1] : tensor<1x968xf32> into tensor<1x1024xf32>
    %inserted_slice_681 = tensor.insert_slice %extracted_slice_679 into %inserted_slice_680[0, 0] [1, 56] [1, 1] : tensor<1x56xf32> into tensor<1x1024xf32>
    %extracted_slice_682 = tensor.extract_slice %2[63, 0] [1, 968] [1, 1] : tensor<64x1024xf32> to tensor<1x968xf32>
    %extracted_slice_683 = tensor.extract_slice %2[63, 968] [1, 56] [1, 1] : tensor<64x1024xf32> to tensor<1x56xf32>
    %inserted_slice_684 = tensor.insert_slice %extracted_slice_682 into %4[0, 56] [1, 968] [1, 1] : tensor<1x968xf32> into tensor<1x1024xf32>
    %inserted_slice_685 = tensor.insert_slice %extracted_slice_683 into %inserted_slice_684[0, 0] [1, 56] [1, 1] : tensor<1x56xf32> into tensor<1x1024xf32>
    %extracted_slice_686 = tensor.extract_slice %3[4, 0] [1, 1020] [1, 1] : tensor<16x1024xf32> to tensor<1x1020xf32>
    %extracted_slice_687 = tensor.extract_slice %3[4, 1020] [1, 4] [1, 1] : tensor<16x1024xf32> to tensor<1x4xf32>
    %inserted_slice_688 = tensor.insert_slice %extracted_slice_686 into %4[0, 4] [1, 1020] [1, 1] : tensor<1x1020xf32> into tensor<1x1024xf32>
    %inserted_slice_689 = tensor.insert_slice %extracted_slice_687 into %inserted_slice_688[0, 0] [1, 4] [1, 1] : tensor<1x4xf32> into tensor<1x1024xf32>
    %extracted_slice_690 = tensor.extract_slice %3[5, 0] [1, 1020] [1, 1] : tensor<16x1024xf32> to tensor<1x1020xf32>
    %extracted_slice_691 = tensor.extract_slice %3[5, 1020] [1, 4] [1, 1] : tensor<16x1024xf32> to tensor<1x4xf32>
    %inserted_slice_692 = tensor.insert_slice %extracted_slice_690 into %4[0, 4] [1, 1020] [1, 1] : tensor<1x1020xf32> into tensor<1x1024xf32>
    %inserted_slice_693 = tensor.insert_slice %extracted_slice_691 into %inserted_slice_692[0, 0] [1, 4] [1, 1] : tensor<1x4xf32> into tensor<1x1024xf32>
    %extracted_slice_694 = tensor.extract_slice %3[6, 0] [1, 1020] [1, 1] : tensor<16x1024xf32> to tensor<1x1020xf32>
    %extracted_slice_695 = tensor.extract_slice %3[6, 1020] [1, 4] [1, 1] : tensor<16x1024xf32> to tensor<1x4xf32>
    %inserted_slice_696 = tensor.insert_slice %extracted_slice_694 into %4[0, 4] [1, 1020] [1, 1] : tensor<1x1020xf32> into tensor<1x1024xf32>
    %inserted_slice_697 = tensor.insert_slice %extracted_slice_695 into %inserted_slice_696[0, 0] [1, 4] [1, 1] : tensor<1x4xf32> into tensor<1x1024xf32>
    %extracted_slice_698 = tensor.extract_slice %3[7, 0] [1, 1020] [1, 1] : tensor<16x1024xf32> to tensor<1x1020xf32>
    %extracted_slice_699 = tensor.extract_slice %3[7, 1020] [1, 4] [1, 1] : tensor<16x1024xf32> to tensor<1x4xf32>
    %inserted_slice_700 = tensor.insert_slice %extracted_slice_698 into %4[0, 4] [1, 1020] [1, 1] : tensor<1x1020xf32> into tensor<1x1024xf32>
    %inserted_slice_701 = tensor.insert_slice %extracted_slice_699 into %inserted_slice_700[0, 0] [1, 4] [1, 1] : tensor<1x4xf32> into tensor<1x1024xf32>
    %extracted_slice_702 = tensor.extract_slice %3[8, 0] [1, 1016] [1, 1] : tensor<16x1024xf32> to tensor<1x1016xf32>
    %extracted_slice_703 = tensor.extract_slice %3[8, 1016] [1, 8] [1, 1] : tensor<16x1024xf32> to tensor<1x8xf32>
    %inserted_slice_704 = tensor.insert_slice %extracted_slice_702 into %4[0, 8] [1, 1016] [1, 1] : tensor<1x1016xf32> into tensor<1x1024xf32>
    %inserted_slice_705 = tensor.insert_slice %extracted_slice_703 into %inserted_slice_704[0, 0] [1, 8] [1, 1] : tensor<1x8xf32> into tensor<1x1024xf32>
    %extracted_slice_706 = tensor.extract_slice %3[9, 0] [1, 1016] [1, 1] : tensor<16x1024xf32> to tensor<1x1016xf32>
    %extracted_slice_707 = tensor.extract_slice %3[9, 1016] [1, 8] [1, 1] : tensor<16x1024xf32> to tensor<1x8xf32>
    %inserted_slice_708 = tensor.insert_slice %extracted_slice_706 into %4[0, 8] [1, 1016] [1, 1] : tensor<1x1016xf32> into tensor<1x1024xf32>
    %inserted_slice_709 = tensor.insert_slice %extracted_slice_707 into %inserted_slice_708[0, 0] [1, 8] [1, 1] : tensor<1x8xf32> into tensor<1x1024xf32>
    %extracted_slice_710 = tensor.extract_slice %3[10, 0] [1, 1016] [1, 1] : tensor<16x1024xf32> to tensor<1x1016xf32>
    %extracted_slice_711 = tensor.extract_slice %3[10, 1016] [1, 8] [1, 1] : tensor<16x1024xf32> to tensor<1x8xf32>
    %inserted_slice_712 = tensor.insert_slice %extracted_slice_710 into %4[0, 8] [1, 1016] [1, 1] : tensor<1x1016xf32> into tensor<1x1024xf32>
    %inserted_slice_713 = tensor.insert_slice %extracted_slice_711 into %inserted_slice_712[0, 0] [1, 8] [1, 1] : tensor<1x8xf32> into tensor<1x1024xf32>
    %extracted_slice_714 = tensor.extract_slice %3[11, 0] [1, 1016] [1, 1] : tensor<16x1024xf32> to tensor<1x1016xf32>
    %extracted_slice_715 = tensor.extract_slice %3[11, 1016] [1, 8] [1, 1] : tensor<16x1024xf32> to tensor<1x8xf32>
    %inserted_slice_716 = tensor.insert_slice %extracted_slice_714 into %4[0, 8] [1, 1016] [1, 1] : tensor<1x1016xf32> into tensor<1x1024xf32>
    %inserted_slice_717 = tensor.insert_slice %extracted_slice_715 into %inserted_slice_716[0, 0] [1, 8] [1, 1] : tensor<1x8xf32> into tensor<1x1024xf32>
    %extracted_slice_718 = tensor.extract_slice %3[12, 0] [1, 1012] [1, 1] : tensor<16x1024xf32> to tensor<1x1012xf32>
    %extracted_slice_719 = tensor.extract_slice %3[12, 1012] [1, 12] [1, 1] : tensor<16x1024xf32> to tensor<1x12xf32>
    %inserted_slice_720 = tensor.insert_slice %extracted_slice_718 into %4[0, 12] [1, 1012] [1, 1] : tensor<1x1012xf32> into tensor<1x1024xf32>
    %inserted_slice_721 = tensor.insert_slice %extracted_slice_719 into %inserted_slice_720[0, 0] [1, 12] [1, 1] : tensor<1x12xf32> into tensor<1x1024xf32>
    %extracted_slice_722 = tensor.extract_slice %3[13, 0] [1, 1012] [1, 1] : tensor<16x1024xf32> to tensor<1x1012xf32>
    %extracted_slice_723 = tensor.extract_slice %3[13, 1012] [1, 12] [1, 1] : tensor<16x1024xf32> to tensor<1x12xf32>
    %inserted_slice_724 = tensor.insert_slice %extracted_slice_722 into %4[0, 12] [1, 1012] [1, 1] : tensor<1x1012xf32> into tensor<1x1024xf32>
    %inserted_slice_725 = tensor.insert_slice %extracted_slice_723 into %inserted_slice_724[0, 0] [1, 12] [1, 1] : tensor<1x12xf32> into tensor<1x1024xf32>
    %extracted_slice_726 = tensor.extract_slice %3[14, 0] [1, 1012] [1, 1] : tensor<16x1024xf32> to tensor<1x1012xf32>
    %extracted_slice_727 = tensor.extract_slice %3[14, 1012] [1, 12] [1, 1] : tensor<16x1024xf32> to tensor<1x12xf32>
    %inserted_slice_728 = tensor.insert_slice %extracted_slice_726 into %4[0, 12] [1, 1012] [1, 1] : tensor<1x1012xf32> into tensor<1x1024xf32>
    %inserted_slice_729 = tensor.insert_slice %extracted_slice_727 into %inserted_slice_728[0, 0] [1, 12] [1, 1] : tensor<1x12xf32> into tensor<1x1024xf32>
    %extracted_slice_730 = tensor.extract_slice %3[15, 0] [1, 1012] [1, 1] : tensor<16x1024xf32> to tensor<1x1012xf32>
    %extracted_slice_731 = tensor.extract_slice %3[15, 1012] [1, 12] [1, 1] : tensor<16x1024xf32> to tensor<1x12xf32>
    %inserted_slice_732 = tensor.insert_slice %extracted_slice_730 into %4[0, 12] [1, 1012] [1, 1] : tensor<1x1012xf32> into tensor<1x1024xf32>
    %inserted_slice_733 = tensor.insert_slice %extracted_slice_731 into %inserted_slice_732[0, 0] [1, 12] [1, 1] : tensor<1x12xf32> into tensor<1x1024xf32>
    %extracted_slice_734 = tensor.extract_slice %0[16, 0] [1, 1008] [1, 1] : tensor<256x1024xf32> to tensor<1x1008xf32>
    %extracted_slice_735 = tensor.extract_slice %0[16, 1008] [1, 16] [1, 1] : tensor<256x1024xf32> to tensor<1x16xf32>
    %inserted_slice_736 = tensor.insert_slice %extracted_slice_734 into %4[0, 16] [1, 1008] [1, 1] : tensor<1x1008xf32> into tensor<1x1024xf32>
    %inserted_slice_737 = tensor.insert_slice %extracted_slice_735 into %inserted_slice_736[0, 0] [1, 16] [1, 1] : tensor<1x16xf32> into tensor<1x1024xf32>
    %extracted_slice_738 = tensor.extract_slice %0[17, 0] [1, 1008] [1, 1] : tensor<256x1024xf32> to tensor<1x1008xf32>
    %extracted_slice_739 = tensor.extract_slice %0[17, 1008] [1, 16] [1, 1] : tensor<256x1024xf32> to tensor<1x16xf32>
    %inserted_slice_740 = tensor.insert_slice %extracted_slice_738 into %4[0, 16] [1, 1008] [1, 1] : tensor<1x1008xf32> into tensor<1x1024xf32>
    %inserted_slice_741 = tensor.insert_slice %extracted_slice_739 into %inserted_slice_740[0, 0] [1, 16] [1, 1] : tensor<1x16xf32> into tensor<1x1024xf32>
    %extracted_slice_742 = tensor.extract_slice %0[18, 0] [1, 1008] [1, 1] : tensor<256x1024xf32> to tensor<1x1008xf32>
    %extracted_slice_743 = tensor.extract_slice %0[18, 1008] [1, 16] [1, 1] : tensor<256x1024xf32> to tensor<1x16xf32>
    %inserted_slice_744 = tensor.insert_slice %extracted_slice_742 into %4[0, 16] [1, 1008] [1, 1] : tensor<1x1008xf32> into tensor<1x1024xf32>
    %inserted_slice_745 = tensor.insert_slice %extracted_slice_743 into %inserted_slice_744[0, 0] [1, 16] [1, 1] : tensor<1x16xf32> into tensor<1x1024xf32>
    %extracted_slice_746 = tensor.extract_slice %0[19, 0] [1, 1008] [1, 1] : tensor<256x1024xf32> to tensor<1x1008xf32>
    %extracted_slice_747 = tensor.extract_slice %0[19, 1008] [1, 16] [1, 1] : tensor<256x1024xf32> to tensor<1x16xf32>
    %inserted_slice_748 = tensor.insert_slice %extracted_slice_746 into %4[0, 16] [1, 1008] [1, 1] : tensor<1x1008xf32> into tensor<1x1024xf32>
    %inserted_slice_749 = tensor.insert_slice %extracted_slice_747 into %inserted_slice_748[0, 0] [1, 16] [1, 1] : tensor<1x16xf32> into tensor<1x1024xf32>
    %extracted_slice_750 = tensor.extract_slice %0[20, 0] [1, 1008] [1, 1] : tensor<256x1024xf32> to tensor<1x1008xf32>
    %extracted_slice_751 = tensor.extract_slice %0[20, 1008] [1, 16] [1, 1] : tensor<256x1024xf32> to tensor<1x16xf32>
    %inserted_slice_752 = tensor.insert_slice %extracted_slice_750 into %4[0, 16] [1, 1008] [1, 1] : tensor<1x1008xf32> into tensor<1x1024xf32>
    %inserted_slice_753 = tensor.insert_slice %extracted_slice_751 into %inserted_slice_752[0, 0] [1, 16] [1, 1] : tensor<1x16xf32> into tensor<1x1024xf32>
    %extracted_slice_754 = tensor.extract_slice %0[21, 0] [1, 1008] [1, 1] : tensor<256x1024xf32> to tensor<1x1008xf32>
    %extracted_slice_755 = tensor.extract_slice %0[21, 1008] [1, 16] [1, 1] : tensor<256x1024xf32> to tensor<1x16xf32>
    %inserted_slice_756 = tensor.insert_slice %extracted_slice_754 into %4[0, 16] [1, 1008] [1, 1] : tensor<1x1008xf32> into tensor<1x1024xf32>
    %inserted_slice_757 = tensor.insert_slice %extracted_slice_755 into %inserted_slice_756[0, 0] [1, 16] [1, 1] : tensor<1x16xf32> into tensor<1x1024xf32>
    %extracted_slice_758 = tensor.extract_slice %0[22, 0] [1, 1008] [1, 1] : tensor<256x1024xf32> to tensor<1x1008xf32>
    %extracted_slice_759 = tensor.extract_slice %0[22, 1008] [1, 16] [1, 1] : tensor<256x1024xf32> to tensor<1x16xf32>
    %inserted_slice_760 = tensor.insert_slice %extracted_slice_758 into %4[0, 16] [1, 1008] [1, 1] : tensor<1x1008xf32> into tensor<1x1024xf32>
    %inserted_slice_761 = tensor.insert_slice %extracted_slice_759 into %inserted_slice_760[0, 0] [1, 16] [1, 1] : tensor<1x16xf32> into tensor<1x1024xf32>
    %extracted_slice_762 = tensor.extract_slice %0[23, 0] [1, 1008] [1, 1] : tensor<256x1024xf32> to tensor<1x1008xf32>
    %extracted_slice_763 = tensor.extract_slice %0[23, 1008] [1, 16] [1, 1] : tensor<256x1024xf32> to tensor<1x16xf32>
    %inserted_slice_764 = tensor.insert_slice %extracted_slice_762 into %4[0, 16] [1, 1008] [1, 1] : tensor<1x1008xf32> into tensor<1x1024xf32>
    %inserted_slice_765 = tensor.insert_slice %extracted_slice_763 into %inserted_slice_764[0, 0] [1, 16] [1, 1] : tensor<1x16xf32> into tensor<1x1024xf32>
    %extracted_slice_766 = tensor.extract_slice %0[24, 0] [1, 1008] [1, 1] : tensor<256x1024xf32> to tensor<1x1008xf32>
    %extracted_slice_767 = tensor.extract_slice %0[24, 1008] [1, 16] [1, 1] : tensor<256x1024xf32> to tensor<1x16xf32>
    %inserted_slice_768 = tensor.insert_slice %extracted_slice_766 into %4[0, 16] [1, 1008] [1, 1] : tensor<1x1008xf32> into tensor<1x1024xf32>
    %inserted_slice_769 = tensor.insert_slice %extracted_slice_767 into %inserted_slice_768[0, 0] [1, 16] [1, 1] : tensor<1x16xf32> into tensor<1x1024xf32>
    %extracted_slice_770 = tensor.extract_slice %0[25, 0] [1, 1008] [1, 1] : tensor<256x1024xf32> to tensor<1x1008xf32>
    %extracted_slice_771 = tensor.extract_slice %0[25, 1008] [1, 16] [1, 1] : tensor<256x1024xf32> to tensor<1x16xf32>
    %inserted_slice_772 = tensor.insert_slice %extracted_slice_770 into %4[0, 16] [1, 1008] [1, 1] : tensor<1x1008xf32> into tensor<1x1024xf32>
    %inserted_slice_773 = tensor.insert_slice %extracted_slice_771 into %inserted_slice_772[0, 0] [1, 16] [1, 1] : tensor<1x16xf32> into tensor<1x1024xf32>
    %extracted_slice_774 = tensor.extract_slice %0[26, 0] [1, 1008] [1, 1] : tensor<256x1024xf32> to tensor<1x1008xf32>
    %extracted_slice_775 = tensor.extract_slice %0[26, 1008] [1, 16] [1, 1] : tensor<256x1024xf32> to tensor<1x16xf32>
    %inserted_slice_776 = tensor.insert_slice %extracted_slice_774 into %4[0, 16] [1, 1008] [1, 1] : tensor<1x1008xf32> into tensor<1x1024xf32>
    %inserted_slice_777 = tensor.insert_slice %extracted_slice_775 into %inserted_slice_776[0, 0] [1, 16] [1, 1] : tensor<1x16xf32> into tensor<1x1024xf32>
    %extracted_slice_778 = tensor.extract_slice %0[27, 0] [1, 1008] [1, 1] : tensor<256x1024xf32> to tensor<1x1008xf32>
    %extracted_slice_779 = tensor.extract_slice %0[27, 1008] [1, 16] [1, 1] : tensor<256x1024xf32> to tensor<1x16xf32>
    %inserted_slice_780 = tensor.insert_slice %extracted_slice_778 into %4[0, 16] [1, 1008] [1, 1] : tensor<1x1008xf32> into tensor<1x1024xf32>
    %inserted_slice_781 = tensor.insert_slice %extracted_slice_779 into %inserted_slice_780[0, 0] [1, 16] [1, 1] : tensor<1x16xf32> into tensor<1x1024xf32>
    %extracted_slice_782 = tensor.extract_slice %0[28, 0] [1, 1008] [1, 1] : tensor<256x1024xf32> to tensor<1x1008xf32>
    %extracted_slice_783 = tensor.extract_slice %0[28, 1008] [1, 16] [1, 1] : tensor<256x1024xf32> to tensor<1x16xf32>
    %inserted_slice_784 = tensor.insert_slice %extracted_slice_782 into %4[0, 16] [1, 1008] [1, 1] : tensor<1x1008xf32> into tensor<1x1024xf32>
    %inserted_slice_785 = tensor.insert_slice %extracted_slice_783 into %inserted_slice_784[0, 0] [1, 16] [1, 1] : tensor<1x16xf32> into tensor<1x1024xf32>
    %extracted_slice_786 = tensor.extract_slice %0[29, 0] [1, 1008] [1, 1] : tensor<256x1024xf32> to tensor<1x1008xf32>
    %extracted_slice_787 = tensor.extract_slice %0[29, 1008] [1, 16] [1, 1] : tensor<256x1024xf32> to tensor<1x16xf32>
    %inserted_slice_788 = tensor.insert_slice %extracted_slice_786 into %4[0, 16] [1, 1008] [1, 1] : tensor<1x1008xf32> into tensor<1x1024xf32>
    %inserted_slice_789 = tensor.insert_slice %extracted_slice_787 into %inserted_slice_788[0, 0] [1, 16] [1, 1] : tensor<1x16xf32> into tensor<1x1024xf32>
    %extracted_slice_790 = tensor.extract_slice %0[30, 0] [1, 1008] [1, 1] : tensor<256x1024xf32> to tensor<1x1008xf32>
    %extracted_slice_791 = tensor.extract_slice %0[30, 1008] [1, 16] [1, 1] : tensor<256x1024xf32> to tensor<1x16xf32>
    %inserted_slice_792 = tensor.insert_slice %extracted_slice_790 into %4[0, 16] [1, 1008] [1, 1] : tensor<1x1008xf32> into tensor<1x1024xf32>
    %inserted_slice_793 = tensor.insert_slice %extracted_slice_791 into %inserted_slice_792[0, 0] [1, 16] [1, 1] : tensor<1x16xf32> into tensor<1x1024xf32>
    %extracted_slice_794 = tensor.extract_slice %0[31, 0] [1, 1008] [1, 1] : tensor<256x1024xf32> to tensor<1x1008xf32>
    %extracted_slice_795 = tensor.extract_slice %0[31, 1008] [1, 16] [1, 1] : tensor<256x1024xf32> to tensor<1x16xf32>
    %inserted_slice_796 = tensor.insert_slice %extracted_slice_794 into %4[0, 16] [1, 1008] [1, 1] : tensor<1x1008xf32> into tensor<1x1024xf32>
    %inserted_slice_797 = tensor.insert_slice %extracted_slice_795 into %inserted_slice_796[0, 0] [1, 16] [1, 1] : tensor<1x16xf32> into tensor<1x1024xf32>
    %extracted_slice_798 = tensor.extract_slice %0[32, 0] [1, 992] [1, 1] : tensor<256x1024xf32> to tensor<1x992xf32>
    %extracted_slice_799 = tensor.extract_slice %0[32, 992] [1, 32] [1, 1] : tensor<256x1024xf32> to tensor<1x32xf32>
    %inserted_slice_800 = tensor.insert_slice %extracted_slice_798 into %4[0, 32] [1, 992] [1, 1] : tensor<1x992xf32> into tensor<1x1024xf32>
    %inserted_slice_801 = tensor.insert_slice %extracted_slice_799 into %inserted_slice_800[0, 0] [1, 32] [1, 1] : tensor<1x32xf32> into tensor<1x1024xf32>
    %extracted_slice_802 = tensor.extract_slice %0[33, 0] [1, 992] [1, 1] : tensor<256x1024xf32> to tensor<1x992xf32>
    %extracted_slice_803 = tensor.extract_slice %0[33, 992] [1, 32] [1, 1] : tensor<256x1024xf32> to tensor<1x32xf32>
    %inserted_slice_804 = tensor.insert_slice %extracted_slice_802 into %4[0, 32] [1, 992] [1, 1] : tensor<1x992xf32> into tensor<1x1024xf32>
    %inserted_slice_805 = tensor.insert_slice %extracted_slice_803 into %inserted_slice_804[0, 0] [1, 32] [1, 1] : tensor<1x32xf32> into tensor<1x1024xf32>
    %extracted_slice_806 = tensor.extract_slice %0[34, 0] [1, 992] [1, 1] : tensor<256x1024xf32> to tensor<1x992xf32>
    %extracted_slice_807 = tensor.extract_slice %0[34, 992] [1, 32] [1, 1] : tensor<256x1024xf32> to tensor<1x32xf32>
    %inserted_slice_808 = tensor.insert_slice %extracted_slice_806 into %4[0, 32] [1, 992] [1, 1] : tensor<1x992xf32> into tensor<1x1024xf32>
    %inserted_slice_809 = tensor.insert_slice %extracted_slice_807 into %inserted_slice_808[0, 0] [1, 32] [1, 1] : tensor<1x32xf32> into tensor<1x1024xf32>
    %extracted_slice_810 = tensor.extract_slice %0[35, 0] [1, 992] [1, 1] : tensor<256x1024xf32> to tensor<1x992xf32>
    %extracted_slice_811 = tensor.extract_slice %0[35, 992] [1, 32] [1, 1] : tensor<256x1024xf32> to tensor<1x32xf32>
    %inserted_slice_812 = tensor.insert_slice %extracted_slice_810 into %4[0, 32] [1, 992] [1, 1] : tensor<1x992xf32> into tensor<1x1024xf32>
    %inserted_slice_813 = tensor.insert_slice %extracted_slice_811 into %inserted_slice_812[0, 0] [1, 32] [1, 1] : tensor<1x32xf32> into tensor<1x1024xf32>
    %extracted_slice_814 = tensor.extract_slice %0[36, 0] [1, 992] [1, 1] : tensor<256x1024xf32> to tensor<1x992xf32>
    %extracted_slice_815 = tensor.extract_slice %0[36, 992] [1, 32] [1, 1] : tensor<256x1024xf32> to tensor<1x32xf32>
    %inserted_slice_816 = tensor.insert_slice %extracted_slice_814 into %4[0, 32] [1, 992] [1, 1] : tensor<1x992xf32> into tensor<1x1024xf32>
    %inserted_slice_817 = tensor.insert_slice %extracted_slice_815 into %inserted_slice_816[0, 0] [1, 32] [1, 1] : tensor<1x32xf32> into tensor<1x1024xf32>
    %extracted_slice_818 = tensor.extract_slice %0[37, 0] [1, 992] [1, 1] : tensor<256x1024xf32> to tensor<1x992xf32>
    %extracted_slice_819 = tensor.extract_slice %0[37, 992] [1, 32] [1, 1] : tensor<256x1024xf32> to tensor<1x32xf32>
    %inserted_slice_820 = tensor.insert_slice %extracted_slice_818 into %4[0, 32] [1, 992] [1, 1] : tensor<1x992xf32> into tensor<1x1024xf32>
    %inserted_slice_821 = tensor.insert_slice %extracted_slice_819 into %inserted_slice_820[0, 0] [1, 32] [1, 1] : tensor<1x32xf32> into tensor<1x1024xf32>
    %extracted_slice_822 = tensor.extract_slice %0[38, 0] [1, 992] [1, 1] : tensor<256x1024xf32> to tensor<1x992xf32>
    %extracted_slice_823 = tensor.extract_slice %0[38, 992] [1, 32] [1, 1] : tensor<256x1024xf32> to tensor<1x32xf32>
    %inserted_slice_824 = tensor.insert_slice %extracted_slice_822 into %4[0, 32] [1, 992] [1, 1] : tensor<1x992xf32> into tensor<1x1024xf32>
    %inserted_slice_825 = tensor.insert_slice %extracted_slice_823 into %inserted_slice_824[0, 0] [1, 32] [1, 1] : tensor<1x32xf32> into tensor<1x1024xf32>
    %extracted_slice_826 = tensor.extract_slice %0[39, 0] [1, 992] [1, 1] : tensor<256x1024xf32> to tensor<1x992xf32>
    %extracted_slice_827 = tensor.extract_slice %0[39, 992] [1, 32] [1, 1] : tensor<256x1024xf32> to tensor<1x32xf32>
    %inserted_slice_828 = tensor.insert_slice %extracted_slice_826 into %4[0, 32] [1, 992] [1, 1] : tensor<1x992xf32> into tensor<1x1024xf32>
    %inserted_slice_829 = tensor.insert_slice %extracted_slice_827 into %inserted_slice_828[0, 0] [1, 32] [1, 1] : tensor<1x32xf32> into tensor<1x1024xf32>
    %extracted_slice_830 = tensor.extract_slice %0[40, 0] [1, 992] [1, 1] : tensor<256x1024xf32> to tensor<1x992xf32>
    %extracted_slice_831 = tensor.extract_slice %0[40, 992] [1, 32] [1, 1] : tensor<256x1024xf32> to tensor<1x32xf32>
    %inserted_slice_832 = tensor.insert_slice %extracted_slice_830 into %4[0, 32] [1, 992] [1, 1] : tensor<1x992xf32> into tensor<1x1024xf32>
    %inserted_slice_833 = tensor.insert_slice %extracted_slice_831 into %inserted_slice_832[0, 0] [1, 32] [1, 1] : tensor<1x32xf32> into tensor<1x1024xf32>
    %extracted_slice_834 = tensor.extract_slice %0[41, 0] [1, 992] [1, 1] : tensor<256x1024xf32> to tensor<1x992xf32>
    %extracted_slice_835 = tensor.extract_slice %0[41, 992] [1, 32] [1, 1] : tensor<256x1024xf32> to tensor<1x32xf32>
    %inserted_slice_836 = tensor.insert_slice %extracted_slice_834 into %4[0, 32] [1, 992] [1, 1] : tensor<1x992xf32> into tensor<1x1024xf32>
    %inserted_slice_837 = tensor.insert_slice %extracted_slice_835 into %inserted_slice_836[0, 0] [1, 32] [1, 1] : tensor<1x32xf32> into tensor<1x1024xf32>
    %extracted_slice_838 = tensor.extract_slice %0[42, 0] [1, 992] [1, 1] : tensor<256x1024xf32> to tensor<1x992xf32>
    %extracted_slice_839 = tensor.extract_slice %0[42, 992] [1, 32] [1, 1] : tensor<256x1024xf32> to tensor<1x32xf32>
    %inserted_slice_840 = tensor.insert_slice %extracted_slice_838 into %4[0, 32] [1, 992] [1, 1] : tensor<1x992xf32> into tensor<1x1024xf32>
    %inserted_slice_841 = tensor.insert_slice %extracted_slice_839 into %inserted_slice_840[0, 0] [1, 32] [1, 1] : tensor<1x32xf32> into tensor<1x1024xf32>
    %extracted_slice_842 = tensor.extract_slice %0[43, 0] [1, 992] [1, 1] : tensor<256x1024xf32> to tensor<1x992xf32>
    %extracted_slice_843 = tensor.extract_slice %0[43, 992] [1, 32] [1, 1] : tensor<256x1024xf32> to tensor<1x32xf32>
    %inserted_slice_844 = tensor.insert_slice %extracted_slice_842 into %4[0, 32] [1, 992] [1, 1] : tensor<1x992xf32> into tensor<1x1024xf32>
    %inserted_slice_845 = tensor.insert_slice %extracted_slice_843 into %inserted_slice_844[0, 0] [1, 32] [1, 1] : tensor<1x32xf32> into tensor<1x1024xf32>
    %extracted_slice_846 = tensor.extract_slice %0[44, 0] [1, 992] [1, 1] : tensor<256x1024xf32> to tensor<1x992xf32>
    %extracted_slice_847 = tensor.extract_slice %0[44, 992] [1, 32] [1, 1] : tensor<256x1024xf32> to tensor<1x32xf32>
    %inserted_slice_848 = tensor.insert_slice %extracted_slice_846 into %4[0, 32] [1, 992] [1, 1] : tensor<1x992xf32> into tensor<1x1024xf32>
    %inserted_slice_849 = tensor.insert_slice %extracted_slice_847 into %inserted_slice_848[0, 0] [1, 32] [1, 1] : tensor<1x32xf32> into tensor<1x1024xf32>
    %extracted_slice_850 = tensor.extract_slice %0[45, 0] [1, 992] [1, 1] : tensor<256x1024xf32> to tensor<1x992xf32>
    %extracted_slice_851 = tensor.extract_slice %0[45, 992] [1, 32] [1, 1] : tensor<256x1024xf32> to tensor<1x32xf32>
    %inserted_slice_852 = tensor.insert_slice %extracted_slice_850 into %4[0, 32] [1, 992] [1, 1] : tensor<1x992xf32> into tensor<1x1024xf32>
    %inserted_slice_853 = tensor.insert_slice %extracted_slice_851 into %inserted_slice_852[0, 0] [1, 32] [1, 1] : tensor<1x32xf32> into tensor<1x1024xf32>
    %extracted_slice_854 = tensor.extract_slice %0[46, 0] [1, 992] [1, 1] : tensor<256x1024xf32> to tensor<1x992xf32>
    %extracted_slice_855 = tensor.extract_slice %0[46, 992] [1, 32] [1, 1] : tensor<256x1024xf32> to tensor<1x32xf32>
    %inserted_slice_856 = tensor.insert_slice %extracted_slice_854 into %4[0, 32] [1, 992] [1, 1] : tensor<1x992xf32> into tensor<1x1024xf32>
    %inserted_slice_857 = tensor.insert_slice %extracted_slice_855 into %inserted_slice_856[0, 0] [1, 32] [1, 1] : tensor<1x32xf32> into tensor<1x1024xf32>
    %extracted_slice_858 = tensor.extract_slice %0[47, 0] [1, 992] [1, 1] : tensor<256x1024xf32> to tensor<1x992xf32>
    %extracted_slice_859 = tensor.extract_slice %0[47, 992] [1, 32] [1, 1] : tensor<256x1024xf32> to tensor<1x32xf32>
    %inserted_slice_860 = tensor.insert_slice %extracted_slice_858 into %4[0, 32] [1, 992] [1, 1] : tensor<1x992xf32> into tensor<1x1024xf32>
    %inserted_slice_861 = tensor.insert_slice %extracted_slice_859 into %inserted_slice_860[0, 0] [1, 32] [1, 1] : tensor<1x32xf32> into tensor<1x1024xf32>
    %extracted_slice_862 = tensor.extract_slice %0[48, 0] [1, 976] [1, 1] : tensor<256x1024xf32> to tensor<1x976xf32>
    %extracted_slice_863 = tensor.extract_slice %0[48, 976] [1, 48] [1, 1] : tensor<256x1024xf32> to tensor<1x48xf32>
    %inserted_slice_864 = tensor.insert_slice %extracted_slice_862 into %4[0, 48] [1, 976] [1, 1] : tensor<1x976xf32> into tensor<1x1024xf32>
    %inserted_slice_865 = tensor.insert_slice %extracted_slice_863 into %inserted_slice_864[0, 0] [1, 48] [1, 1] : tensor<1x48xf32> into tensor<1x1024xf32>
    %extracted_slice_866 = tensor.extract_slice %0[49, 0] [1, 976] [1, 1] : tensor<256x1024xf32> to tensor<1x976xf32>
    %extracted_slice_867 = tensor.extract_slice %0[49, 976] [1, 48] [1, 1] : tensor<256x1024xf32> to tensor<1x48xf32>
    %inserted_slice_868 = tensor.insert_slice %extracted_slice_866 into %4[0, 48] [1, 976] [1, 1] : tensor<1x976xf32> into tensor<1x1024xf32>
    %inserted_slice_869 = tensor.insert_slice %extracted_slice_867 into %inserted_slice_868[0, 0] [1, 48] [1, 1] : tensor<1x48xf32> into tensor<1x1024xf32>
    %extracted_slice_870 = tensor.extract_slice %0[50, 0] [1, 976] [1, 1] : tensor<256x1024xf32> to tensor<1x976xf32>
    %extracted_slice_871 = tensor.extract_slice %0[50, 976] [1, 48] [1, 1] : tensor<256x1024xf32> to tensor<1x48xf32>
    %inserted_slice_872 = tensor.insert_slice %extracted_slice_870 into %4[0, 48] [1, 976] [1, 1] : tensor<1x976xf32> into tensor<1x1024xf32>
    %inserted_slice_873 = tensor.insert_slice %extracted_slice_871 into %inserted_slice_872[0, 0] [1, 48] [1, 1] : tensor<1x48xf32> into tensor<1x1024xf32>
    %extracted_slice_874 = tensor.extract_slice %0[51, 0] [1, 976] [1, 1] : tensor<256x1024xf32> to tensor<1x976xf32>
    %extracted_slice_875 = tensor.extract_slice %0[51, 976] [1, 48] [1, 1] : tensor<256x1024xf32> to tensor<1x48xf32>
    %inserted_slice_876 = tensor.insert_slice %extracted_slice_874 into %4[0, 48] [1, 976] [1, 1] : tensor<1x976xf32> into tensor<1x1024xf32>
    %inserted_slice_877 = tensor.insert_slice %extracted_slice_875 into %inserted_slice_876[0, 0] [1, 48] [1, 1] : tensor<1x48xf32> into tensor<1x1024xf32>
    %extracted_slice_878 = tensor.extract_slice %0[52, 0] [1, 976] [1, 1] : tensor<256x1024xf32> to tensor<1x976xf32>
    %extracted_slice_879 = tensor.extract_slice %0[52, 976] [1, 48] [1, 1] : tensor<256x1024xf32> to tensor<1x48xf32>
    %inserted_slice_880 = tensor.insert_slice %extracted_slice_878 into %4[0, 48] [1, 976] [1, 1] : tensor<1x976xf32> into tensor<1x1024xf32>
    %inserted_slice_881 = tensor.insert_slice %extracted_slice_879 into %inserted_slice_880[0, 0] [1, 48] [1, 1] : tensor<1x48xf32> into tensor<1x1024xf32>
    %extracted_slice_882 = tensor.extract_slice %0[53, 0] [1, 976] [1, 1] : tensor<256x1024xf32> to tensor<1x976xf32>
    %extracted_slice_883 = tensor.extract_slice %0[53, 976] [1, 48] [1, 1] : tensor<256x1024xf32> to tensor<1x48xf32>
    %inserted_slice_884 = tensor.insert_slice %extracted_slice_882 into %4[0, 48] [1, 976] [1, 1] : tensor<1x976xf32> into tensor<1x1024xf32>
    %inserted_slice_885 = tensor.insert_slice %extracted_slice_883 into %inserted_slice_884[0, 0] [1, 48] [1, 1] : tensor<1x48xf32> into tensor<1x1024xf32>
    %extracted_slice_886 = tensor.extract_slice %0[54, 0] [1, 976] [1, 1] : tensor<256x1024xf32> to tensor<1x976xf32>
    %extracted_slice_887 = tensor.extract_slice %0[54, 976] [1, 48] [1, 1] : tensor<256x1024xf32> to tensor<1x48xf32>
    %inserted_slice_888 = tensor.insert_slice %extracted_slice_886 into %4[0, 48] [1, 976] [1, 1] : tensor<1x976xf32> into tensor<1x1024xf32>
    %inserted_slice_889 = tensor.insert_slice %extracted_slice_887 into %inserted_slice_888[0, 0] [1, 48] [1, 1] : tensor<1x48xf32> into tensor<1x1024xf32>
    %extracted_slice_890 = tensor.extract_slice %0[55, 0] [1, 976] [1, 1] : tensor<256x1024xf32> to tensor<1x976xf32>
    %extracted_slice_891 = tensor.extract_slice %0[55, 976] [1, 48] [1, 1] : tensor<256x1024xf32> to tensor<1x48xf32>
    %inserted_slice_892 = tensor.insert_slice %extracted_slice_890 into %4[0, 48] [1, 976] [1, 1] : tensor<1x976xf32> into tensor<1x1024xf32>
    %inserted_slice_893 = tensor.insert_slice %extracted_slice_891 into %inserted_slice_892[0, 0] [1, 48] [1, 1] : tensor<1x48xf32> into tensor<1x1024xf32>
    %extracted_slice_894 = tensor.extract_slice %0[56, 0] [1, 976] [1, 1] : tensor<256x1024xf32> to tensor<1x976xf32>
    %extracted_slice_895 = tensor.extract_slice %0[56, 976] [1, 48] [1, 1] : tensor<256x1024xf32> to tensor<1x48xf32>
    %inserted_slice_896 = tensor.insert_slice %extracted_slice_894 into %4[0, 48] [1, 976] [1, 1] : tensor<1x976xf32> into tensor<1x1024xf32>
    %inserted_slice_897 = tensor.insert_slice %extracted_slice_895 into %inserted_slice_896[0, 0] [1, 48] [1, 1] : tensor<1x48xf32> into tensor<1x1024xf32>
    %extracted_slice_898 = tensor.extract_slice %0[57, 0] [1, 976] [1, 1] : tensor<256x1024xf32> to tensor<1x976xf32>
    %extracted_slice_899 = tensor.extract_slice %0[57, 976] [1, 48] [1, 1] : tensor<256x1024xf32> to tensor<1x48xf32>
    %inserted_slice_900 = tensor.insert_slice %extracted_slice_898 into %4[0, 48] [1, 976] [1, 1] : tensor<1x976xf32> into tensor<1x1024xf32>
    %inserted_slice_901 = tensor.insert_slice %extracted_slice_899 into %inserted_slice_900[0, 0] [1, 48] [1, 1] : tensor<1x48xf32> into tensor<1x1024xf32>
    %extracted_slice_902 = tensor.extract_slice %0[58, 0] [1, 976] [1, 1] : tensor<256x1024xf32> to tensor<1x976xf32>
    %extracted_slice_903 = tensor.extract_slice %0[58, 976] [1, 48] [1, 1] : tensor<256x1024xf32> to tensor<1x48xf32>
    %inserted_slice_904 = tensor.insert_slice %extracted_slice_902 into %4[0, 48] [1, 976] [1, 1] : tensor<1x976xf32> into tensor<1x1024xf32>
    %inserted_slice_905 = tensor.insert_slice %extracted_slice_903 into %inserted_slice_904[0, 0] [1, 48] [1, 1] : tensor<1x48xf32> into tensor<1x1024xf32>
    %extracted_slice_906 = tensor.extract_slice %0[59, 0] [1, 976] [1, 1] : tensor<256x1024xf32> to tensor<1x976xf32>
    %extracted_slice_907 = tensor.extract_slice %0[59, 976] [1, 48] [1, 1] : tensor<256x1024xf32> to tensor<1x48xf32>
    %inserted_slice_908 = tensor.insert_slice %extracted_slice_906 into %4[0, 48] [1, 976] [1, 1] : tensor<1x976xf32> into tensor<1x1024xf32>
    %inserted_slice_909 = tensor.insert_slice %extracted_slice_907 into %inserted_slice_908[0, 0] [1, 48] [1, 1] : tensor<1x48xf32> into tensor<1x1024xf32>
    %extracted_slice_910 = tensor.extract_slice %0[60, 0] [1, 976] [1, 1] : tensor<256x1024xf32> to tensor<1x976xf32>
    %extracted_slice_911 = tensor.extract_slice %0[60, 976] [1, 48] [1, 1] : tensor<256x1024xf32> to tensor<1x48xf32>
    %inserted_slice_912 = tensor.insert_slice %extracted_slice_910 into %4[0, 48] [1, 976] [1, 1] : tensor<1x976xf32> into tensor<1x1024xf32>
    %inserted_slice_913 = tensor.insert_slice %extracted_slice_911 into %inserted_slice_912[0, 0] [1, 48] [1, 1] : tensor<1x48xf32> into tensor<1x1024xf32>
    %extracted_slice_914 = tensor.extract_slice %0[61, 0] [1, 976] [1, 1] : tensor<256x1024xf32> to tensor<1x976xf32>
    %extracted_slice_915 = tensor.extract_slice %0[61, 976] [1, 48] [1, 1] : tensor<256x1024xf32> to tensor<1x48xf32>
    %inserted_slice_916 = tensor.insert_slice %extracted_slice_914 into %4[0, 48] [1, 976] [1, 1] : tensor<1x976xf32> into tensor<1x1024xf32>
    %inserted_slice_917 = tensor.insert_slice %extracted_slice_915 into %inserted_slice_916[0, 0] [1, 48] [1, 1] : tensor<1x48xf32> into tensor<1x1024xf32>
    %extracted_slice_918 = tensor.extract_slice %0[62, 0] [1, 976] [1, 1] : tensor<256x1024xf32> to tensor<1x976xf32>
    %extracted_slice_919 = tensor.extract_slice %0[62, 976] [1, 48] [1, 1] : tensor<256x1024xf32> to tensor<1x48xf32>
    %inserted_slice_920 = tensor.insert_slice %extracted_slice_918 into %4[0, 48] [1, 976] [1, 1] : tensor<1x976xf32> into tensor<1x1024xf32>
    %inserted_slice_921 = tensor.insert_slice %extracted_slice_919 into %inserted_slice_920[0, 0] [1, 48] [1, 1] : tensor<1x48xf32> into tensor<1x1024xf32>
    %extracted_slice_922 = tensor.extract_slice %0[63, 0] [1, 976] [1, 1] : tensor<256x1024xf32> to tensor<1x976xf32>
    %extracted_slice_923 = tensor.extract_slice %0[63, 976] [1, 48] [1, 1] : tensor<256x1024xf32> to tensor<1x48xf32>
    %inserted_slice_924 = tensor.insert_slice %extracted_slice_922 into %4[0, 48] [1, 976] [1, 1] : tensor<1x976xf32> into tensor<1x1024xf32>
    %inserted_slice_925 = tensor.insert_slice %extracted_slice_923 into %inserted_slice_924[0, 0] [1, 48] [1, 1] : tensor<1x48xf32> into tensor<1x1024xf32>
    %extracted_slice_926 = tensor.extract_slice %0[64, 0] [1, 960] [1, 1] : tensor<256x1024xf32> to tensor<1x960xf32>
    %extracted_slice_927 = tensor.extract_slice %0[64, 960] [1, 64] [1, 1] : tensor<256x1024xf32> to tensor<1x64xf32>
    %inserted_slice_928 = tensor.insert_slice %extracted_slice_926 into %4[0, 64] [1, 960] [1, 1] : tensor<1x960xf32> into tensor<1x1024xf32>
    %inserted_slice_929 = tensor.insert_slice %extracted_slice_927 into %inserted_slice_928[0, 0] [1, 64] [1, 1] : tensor<1x64xf32> into tensor<1x1024xf32>
    %extracted_slice_930 = tensor.extract_slice %0[65, 0] [1, 960] [1, 1] : tensor<256x1024xf32> to tensor<1x960xf32>
    %extracted_slice_931 = tensor.extract_slice %0[65, 960] [1, 64] [1, 1] : tensor<256x1024xf32> to tensor<1x64xf32>
    %inserted_slice_932 = tensor.insert_slice %extracted_slice_930 into %4[0, 64] [1, 960] [1, 1] : tensor<1x960xf32> into tensor<1x1024xf32>
    %inserted_slice_933 = tensor.insert_slice %extracted_slice_931 into %inserted_slice_932[0, 0] [1, 64] [1, 1] : tensor<1x64xf32> into tensor<1x1024xf32>
    %extracted_slice_934 = tensor.extract_slice %0[66, 0] [1, 960] [1, 1] : tensor<256x1024xf32> to tensor<1x960xf32>
    %extracted_slice_935 = tensor.extract_slice %0[66, 960] [1, 64] [1, 1] : tensor<256x1024xf32> to tensor<1x64xf32>
    %inserted_slice_936 = tensor.insert_slice %extracted_slice_934 into %4[0, 64] [1, 960] [1, 1] : tensor<1x960xf32> into tensor<1x1024xf32>
    %inserted_slice_937 = tensor.insert_slice %extracted_slice_935 into %inserted_slice_936[0, 0] [1, 64] [1, 1] : tensor<1x64xf32> into tensor<1x1024xf32>
    %extracted_slice_938 = tensor.extract_slice %0[67, 0] [1, 960] [1, 1] : tensor<256x1024xf32> to tensor<1x960xf32>
    %extracted_slice_939 = tensor.extract_slice %0[67, 960] [1, 64] [1, 1] : tensor<256x1024xf32> to tensor<1x64xf32>
    %inserted_slice_940 = tensor.insert_slice %extracted_slice_938 into %4[0, 64] [1, 960] [1, 1] : tensor<1x960xf32> into tensor<1x1024xf32>
    %inserted_slice_941 = tensor.insert_slice %extracted_slice_939 into %inserted_slice_940[0, 0] [1, 64] [1, 1] : tensor<1x64xf32> into tensor<1x1024xf32>
    %extracted_slice_942 = tensor.extract_slice %0[68, 0] [1, 960] [1, 1] : tensor<256x1024xf32> to tensor<1x960xf32>
    %extracted_slice_943 = tensor.extract_slice %0[68, 960] [1, 64] [1, 1] : tensor<256x1024xf32> to tensor<1x64xf32>
    %inserted_slice_944 = tensor.insert_slice %extracted_slice_942 into %4[0, 64] [1, 960] [1, 1] : tensor<1x960xf32> into tensor<1x1024xf32>
    %inserted_slice_945 = tensor.insert_slice %extracted_slice_943 into %inserted_slice_944[0, 0] [1, 64] [1, 1] : tensor<1x64xf32> into tensor<1x1024xf32>
    %extracted_slice_946 = tensor.extract_slice %0[69, 0] [1, 960] [1, 1] : tensor<256x1024xf32> to tensor<1x960xf32>
    %extracted_slice_947 = tensor.extract_slice %0[69, 960] [1, 64] [1, 1] : tensor<256x1024xf32> to tensor<1x64xf32>
    %inserted_slice_948 = tensor.insert_slice %extracted_slice_946 into %4[0, 64] [1, 960] [1, 1] : tensor<1x960xf32> into tensor<1x1024xf32>
    %inserted_slice_949 = tensor.insert_slice %extracted_slice_947 into %inserted_slice_948[0, 0] [1, 64] [1, 1] : tensor<1x64xf32> into tensor<1x1024xf32>
    %extracted_slice_950 = tensor.extract_slice %0[70, 0] [1, 960] [1, 1] : tensor<256x1024xf32> to tensor<1x960xf32>
    %extracted_slice_951 = tensor.extract_slice %0[70, 960] [1, 64] [1, 1] : tensor<256x1024xf32> to tensor<1x64xf32>
    %inserted_slice_952 = tensor.insert_slice %extracted_slice_950 into %4[0, 64] [1, 960] [1, 1] : tensor<1x960xf32> into tensor<1x1024xf32>
    %inserted_slice_953 = tensor.insert_slice %extracted_slice_951 into %inserted_slice_952[0, 0] [1, 64] [1, 1] : tensor<1x64xf32> into tensor<1x1024xf32>
    %extracted_slice_954 = tensor.extract_slice %0[71, 0] [1, 960] [1, 1] : tensor<256x1024xf32> to tensor<1x960xf32>
    %extracted_slice_955 = tensor.extract_slice %0[71, 960] [1, 64] [1, 1] : tensor<256x1024xf32> to tensor<1x64xf32>
    %inserted_slice_956 = tensor.insert_slice %extracted_slice_954 into %4[0, 64] [1, 960] [1, 1] : tensor<1x960xf32> into tensor<1x1024xf32>
    %inserted_slice_957 = tensor.insert_slice %extracted_slice_955 into %inserted_slice_956[0, 0] [1, 64] [1, 1] : tensor<1x64xf32> into tensor<1x1024xf32>
    %extracted_slice_958 = tensor.extract_slice %0[72, 0] [1, 960] [1, 1] : tensor<256x1024xf32> to tensor<1x960xf32>
    %extracted_slice_959 = tensor.extract_slice %0[72, 960] [1, 64] [1, 1] : tensor<256x1024xf32> to tensor<1x64xf32>
    %inserted_slice_960 = tensor.insert_slice %extracted_slice_958 into %4[0, 64] [1, 960] [1, 1] : tensor<1x960xf32> into tensor<1x1024xf32>
    %inserted_slice_961 = tensor.insert_slice %extracted_slice_959 into %inserted_slice_960[0, 0] [1, 64] [1, 1] : tensor<1x64xf32> into tensor<1x1024xf32>
    %extracted_slice_962 = tensor.extract_slice %0[73, 0] [1, 960] [1, 1] : tensor<256x1024xf32> to tensor<1x960xf32>
    %extracted_slice_963 = tensor.extract_slice %0[73, 960] [1, 64] [1, 1] : tensor<256x1024xf32> to tensor<1x64xf32>
    %inserted_slice_964 = tensor.insert_slice %extracted_slice_962 into %4[0, 64] [1, 960] [1, 1] : tensor<1x960xf32> into tensor<1x1024xf32>
    %inserted_slice_965 = tensor.insert_slice %extracted_slice_963 into %inserted_slice_964[0, 0] [1, 64] [1, 1] : tensor<1x64xf32> into tensor<1x1024xf32>
    %extracted_slice_966 = tensor.extract_slice %0[74, 0] [1, 960] [1, 1] : tensor<256x1024xf32> to tensor<1x960xf32>
    %extracted_slice_967 = tensor.extract_slice %0[74, 960] [1, 64] [1, 1] : tensor<256x1024xf32> to tensor<1x64xf32>
    %inserted_slice_968 = tensor.insert_slice %extracted_slice_966 into %4[0, 64] [1, 960] [1, 1] : tensor<1x960xf32> into tensor<1x1024xf32>
    %inserted_slice_969 = tensor.insert_slice %extracted_slice_967 into %inserted_slice_968[0, 0] [1, 64] [1, 1] : tensor<1x64xf32> into tensor<1x1024xf32>
    %extracted_slice_970 = tensor.extract_slice %0[75, 0] [1, 960] [1, 1] : tensor<256x1024xf32> to tensor<1x960xf32>
    %extracted_slice_971 = tensor.extract_slice %0[75, 960] [1, 64] [1, 1] : tensor<256x1024xf32> to tensor<1x64xf32>
    %inserted_slice_972 = tensor.insert_slice %extracted_slice_970 into %4[0, 64] [1, 960] [1, 1] : tensor<1x960xf32> into tensor<1x1024xf32>
    %inserted_slice_973 = tensor.insert_slice %extracted_slice_971 into %inserted_slice_972[0, 0] [1, 64] [1, 1] : tensor<1x64xf32> into tensor<1x1024xf32>
    %extracted_slice_974 = tensor.extract_slice %0[76, 0] [1, 960] [1, 1] : tensor<256x1024xf32> to tensor<1x960xf32>
    %extracted_slice_975 = tensor.extract_slice %0[76, 960] [1, 64] [1, 1] : tensor<256x1024xf32> to tensor<1x64xf32>
    %inserted_slice_976 = tensor.insert_slice %extracted_slice_974 into %4[0, 64] [1, 960] [1, 1] : tensor<1x960xf32> into tensor<1x1024xf32>
    %inserted_slice_977 = tensor.insert_slice %extracted_slice_975 into %inserted_slice_976[0, 0] [1, 64] [1, 1] : tensor<1x64xf32> into tensor<1x1024xf32>
    %extracted_slice_978 = tensor.extract_slice %0[77, 0] [1, 960] [1, 1] : tensor<256x1024xf32> to tensor<1x960xf32>
    %extracted_slice_979 = tensor.extract_slice %0[77, 960] [1, 64] [1, 1] : tensor<256x1024xf32> to tensor<1x64xf32>
    %inserted_slice_980 = tensor.insert_slice %extracted_slice_978 into %4[0, 64] [1, 960] [1, 1] : tensor<1x960xf32> into tensor<1x1024xf32>
    %inserted_slice_981 = tensor.insert_slice %extracted_slice_979 into %inserted_slice_980[0, 0] [1, 64] [1, 1] : tensor<1x64xf32> into tensor<1x1024xf32>
    %extracted_slice_982 = tensor.extract_slice %0[78, 0] [1, 960] [1, 1] : tensor<256x1024xf32> to tensor<1x960xf32>
    %extracted_slice_983 = tensor.extract_slice %0[78, 960] [1, 64] [1, 1] : tensor<256x1024xf32> to tensor<1x64xf32>
    %inserted_slice_984 = tensor.insert_slice %extracted_slice_982 into %4[0, 64] [1, 960] [1, 1] : tensor<1x960xf32> into tensor<1x1024xf32>
    %inserted_slice_985 = tensor.insert_slice %extracted_slice_983 into %inserted_slice_984[0, 0] [1, 64] [1, 1] : tensor<1x64xf32> into tensor<1x1024xf32>
    %extracted_slice_986 = tensor.extract_slice %0[79, 0] [1, 960] [1, 1] : tensor<256x1024xf32> to tensor<1x960xf32>
    %extracted_slice_987 = tensor.extract_slice %0[79, 960] [1, 64] [1, 1] : tensor<256x1024xf32> to tensor<1x64xf32>
    %inserted_slice_988 = tensor.insert_slice %extracted_slice_986 into %4[0, 64] [1, 960] [1, 1] : tensor<1x960xf32> into tensor<1x1024xf32>
    %inserted_slice_989 = tensor.insert_slice %extracted_slice_987 into %inserted_slice_988[0, 0] [1, 64] [1, 1] : tensor<1x64xf32> into tensor<1x1024xf32>
    %extracted_slice_990 = tensor.extract_slice %0[80, 0] [1, 944] [1, 1] : tensor<256x1024xf32> to tensor<1x944xf32>
    %extracted_slice_991 = tensor.extract_slice %0[80, 944] [1, 80] [1, 1] : tensor<256x1024xf32> to tensor<1x80xf32>
    %inserted_slice_992 = tensor.insert_slice %extracted_slice_990 into %4[0, 80] [1, 944] [1, 1] : tensor<1x944xf32> into tensor<1x1024xf32>
    %inserted_slice_993 = tensor.insert_slice %extracted_slice_991 into %inserted_slice_992[0, 0] [1, 80] [1, 1] : tensor<1x80xf32> into tensor<1x1024xf32>
    %extracted_slice_994 = tensor.extract_slice %0[81, 0] [1, 944] [1, 1] : tensor<256x1024xf32> to tensor<1x944xf32>
    %extracted_slice_995 = tensor.extract_slice %0[81, 944] [1, 80] [1, 1] : tensor<256x1024xf32> to tensor<1x80xf32>
    %inserted_slice_996 = tensor.insert_slice %extracted_slice_994 into %4[0, 80] [1, 944] [1, 1] : tensor<1x944xf32> into tensor<1x1024xf32>
    %inserted_slice_997 = tensor.insert_slice %extracted_slice_995 into %inserted_slice_996[0, 0] [1, 80] [1, 1] : tensor<1x80xf32> into tensor<1x1024xf32>
    %extracted_slice_998 = tensor.extract_slice %0[82, 0] [1, 944] [1, 1] : tensor<256x1024xf32> to tensor<1x944xf32>
    %extracted_slice_999 = tensor.extract_slice %0[82, 944] [1, 80] [1, 1] : tensor<256x1024xf32> to tensor<1x80xf32>
    %inserted_slice_1000 = tensor.insert_slice %extracted_slice_998 into %4[0, 80] [1, 944] [1, 1] : tensor<1x944xf32> into tensor<1x1024xf32>
    %inserted_slice_1001 = tensor.insert_slice %extracted_slice_999 into %inserted_slice_1000[0, 0] [1, 80] [1, 1] : tensor<1x80xf32> into tensor<1x1024xf32>
    %extracted_slice_1002 = tensor.extract_slice %0[83, 0] [1, 944] [1, 1] : tensor<256x1024xf32> to tensor<1x944xf32>
    %extracted_slice_1003 = tensor.extract_slice %0[83, 944] [1, 80] [1, 1] : tensor<256x1024xf32> to tensor<1x80xf32>
    %inserted_slice_1004 = tensor.insert_slice %extracted_slice_1002 into %4[0, 80] [1, 944] [1, 1] : tensor<1x944xf32> into tensor<1x1024xf32>
    %inserted_slice_1005 = tensor.insert_slice %extracted_slice_1003 into %inserted_slice_1004[0, 0] [1, 80] [1, 1] : tensor<1x80xf32> into tensor<1x1024xf32>
    %extracted_slice_1006 = tensor.extract_slice %0[84, 0] [1, 944] [1, 1] : tensor<256x1024xf32> to tensor<1x944xf32>
    %extracted_slice_1007 = tensor.extract_slice %0[84, 944] [1, 80] [1, 1] : tensor<256x1024xf32> to tensor<1x80xf32>
    %inserted_slice_1008 = tensor.insert_slice %extracted_slice_1006 into %4[0, 80] [1, 944] [1, 1] : tensor<1x944xf32> into tensor<1x1024xf32>
    %inserted_slice_1009 = tensor.insert_slice %extracted_slice_1007 into %inserted_slice_1008[0, 0] [1, 80] [1, 1] : tensor<1x80xf32> into tensor<1x1024xf32>
    %extracted_slice_1010 = tensor.extract_slice %0[85, 0] [1, 944] [1, 1] : tensor<256x1024xf32> to tensor<1x944xf32>
    %extracted_slice_1011 = tensor.extract_slice %0[85, 944] [1, 80] [1, 1] : tensor<256x1024xf32> to tensor<1x80xf32>
    %inserted_slice_1012 = tensor.insert_slice %extracted_slice_1010 into %4[0, 80] [1, 944] [1, 1] : tensor<1x944xf32> into tensor<1x1024xf32>
    %inserted_slice_1013 = tensor.insert_slice %extracted_slice_1011 into %inserted_slice_1012[0, 0] [1, 80] [1, 1] : tensor<1x80xf32> into tensor<1x1024xf32>
    %extracted_slice_1014 = tensor.extract_slice %0[86, 0] [1, 944] [1, 1] : tensor<256x1024xf32> to tensor<1x944xf32>
    %extracted_slice_1015 = tensor.extract_slice %0[86, 944] [1, 80] [1, 1] : tensor<256x1024xf32> to tensor<1x80xf32>
    %inserted_slice_1016 = tensor.insert_slice %extracted_slice_1014 into %4[0, 80] [1, 944] [1, 1] : tensor<1x944xf32> into tensor<1x1024xf32>
    %inserted_slice_1017 = tensor.insert_slice %extracted_slice_1015 into %inserted_slice_1016[0, 0] [1, 80] [1, 1] : tensor<1x80xf32> into tensor<1x1024xf32>
    %extracted_slice_1018 = tensor.extract_slice %0[87, 0] [1, 944] [1, 1] : tensor<256x1024xf32> to tensor<1x944xf32>
    %extracted_slice_1019 = tensor.extract_slice %0[87, 944] [1, 80] [1, 1] : tensor<256x1024xf32> to tensor<1x80xf32>
    %inserted_slice_1020 = tensor.insert_slice %extracted_slice_1018 into %4[0, 80] [1, 944] [1, 1] : tensor<1x944xf32> into tensor<1x1024xf32>
    %inserted_slice_1021 = tensor.insert_slice %extracted_slice_1019 into %inserted_slice_1020[0, 0] [1, 80] [1, 1] : tensor<1x80xf32> into tensor<1x1024xf32>
    %extracted_slice_1022 = tensor.extract_slice %0[88, 0] [1, 944] [1, 1] : tensor<256x1024xf32> to tensor<1x944xf32>
    %extracted_slice_1023 = tensor.extract_slice %0[88, 944] [1, 80] [1, 1] : tensor<256x1024xf32> to tensor<1x80xf32>
    %inserted_slice_1024 = tensor.insert_slice %extracted_slice_1022 into %4[0, 80] [1, 944] [1, 1] : tensor<1x944xf32> into tensor<1x1024xf32>
    %inserted_slice_1025 = tensor.insert_slice %extracted_slice_1023 into %inserted_slice_1024[0, 0] [1, 80] [1, 1] : tensor<1x80xf32> into tensor<1x1024xf32>
    %extracted_slice_1026 = tensor.extract_slice %0[89, 0] [1, 944] [1, 1] : tensor<256x1024xf32> to tensor<1x944xf32>
    %extracted_slice_1027 = tensor.extract_slice %0[89, 944] [1, 80] [1, 1] : tensor<256x1024xf32> to tensor<1x80xf32>
    %inserted_slice_1028 = tensor.insert_slice %extracted_slice_1026 into %4[0, 80] [1, 944] [1, 1] : tensor<1x944xf32> into tensor<1x1024xf32>
    %inserted_slice_1029 = tensor.insert_slice %extracted_slice_1027 into %inserted_slice_1028[0, 0] [1, 80] [1, 1] : tensor<1x80xf32> into tensor<1x1024xf32>
    %extracted_slice_1030 = tensor.extract_slice %0[90, 0] [1, 944] [1, 1] : tensor<256x1024xf32> to tensor<1x944xf32>
    %extracted_slice_1031 = tensor.extract_slice %0[90, 944] [1, 80] [1, 1] : tensor<256x1024xf32> to tensor<1x80xf32>
    %inserted_slice_1032 = tensor.insert_slice %extracted_slice_1030 into %4[0, 80] [1, 944] [1, 1] : tensor<1x944xf32> into tensor<1x1024xf32>
    %inserted_slice_1033 = tensor.insert_slice %extracted_slice_1031 into %inserted_slice_1032[0, 0] [1, 80] [1, 1] : tensor<1x80xf32> into tensor<1x1024xf32>
    %extracted_slice_1034 = tensor.extract_slice %0[91, 0] [1, 944] [1, 1] : tensor<256x1024xf32> to tensor<1x944xf32>
    %extracted_slice_1035 = tensor.extract_slice %0[91, 944] [1, 80] [1, 1] : tensor<256x1024xf32> to tensor<1x80xf32>
    %inserted_slice_1036 = tensor.insert_slice %extracted_slice_1034 into %4[0, 80] [1, 944] [1, 1] : tensor<1x944xf32> into tensor<1x1024xf32>
    %inserted_slice_1037 = tensor.insert_slice %extracted_slice_1035 into %inserted_slice_1036[0, 0] [1, 80] [1, 1] : tensor<1x80xf32> into tensor<1x1024xf32>
    %extracted_slice_1038 = tensor.extract_slice %0[92, 0] [1, 944] [1, 1] : tensor<256x1024xf32> to tensor<1x944xf32>
    %extracted_slice_1039 = tensor.extract_slice %0[92, 944] [1, 80] [1, 1] : tensor<256x1024xf32> to tensor<1x80xf32>
    %inserted_slice_1040 = tensor.insert_slice %extracted_slice_1038 into %4[0, 80] [1, 944] [1, 1] : tensor<1x944xf32> into tensor<1x1024xf32>
    %inserted_slice_1041 = tensor.insert_slice %extracted_slice_1039 into %inserted_slice_1040[0, 0] [1, 80] [1, 1] : tensor<1x80xf32> into tensor<1x1024xf32>
    %extracted_slice_1042 = tensor.extract_slice %0[93, 0] [1, 944] [1, 1] : tensor<256x1024xf32> to tensor<1x944xf32>
…
    %ct_3282 = cheddar.add %ctx, %ct_3248, %ct_3251 : (!ctx, !ct, !ct) -> !ct
    %ct_3283 = cheddar.add %ctx, %ct_3282, %ct_3254 : (!ctx, !ct, !ct) -> !ct
    %ct_3284 = cheddar.add %ctx, %ct_3257, %ct_3260 : (!ctx, !ct, !ct) -> !ct
    %ct_3285 = cheddar.add %ctx, %ct_3284, %ct_3263 : (!ctx, !ct, !ct) -> !ct
    %ct_3286 = cheddar.add %ctx, %ct_3283, %ct_3285 : (!ctx, !ct, !ct) -> !ct
    %ct_3287 = cheddar.add %ctx, %ct_3266, %ct_3269 : (!ctx, !ct, !ct) -> !ct
    %ct_3288 = cheddar.add %ctx, %ct_3287, %ct_3272 : (!ctx, !ct, !ct) -> !ct
    %ct_3289 = cheddar.add %ctx, %ct_3275, %ct_3278 : (!ctx, !ct, !ct) -> !ct
    %ct_3290 = cheddar.add %ctx, %ct_3289, %ct_3281 : (!ctx, !ct, !ct) -> !ct
    %ct_3291 = cheddar.add %ctx, %ct_3288, %ct_3290 : (!ctx, !ct, !ct) -> !ct
    %ct_3292 = cheddar.add %ctx, %ct_3286, %ct_3291 : (!ctx, !ct, !ct) -> !ct
    %evk_3293 = cheddar.get_rot_key %ui {distance = -1 : i64} : (!ui) -> !evk
    %ct_3294 = cheddar.hrot %ctx, %ct_3292, %evk_3293, %c108 : (!ctx, !ct, !evk, index) -> !ct
    %extracted_slice_3295 = tensor.extract_slice %inserted_slice_433[0, 0] [1, 1024] [1, 1] : tensor<1x1024xf32> to tensor<1024xf32>
    %pt_3296 = cheddar.encode %encoder, %extracted_slice_3295 {level = 5 : i64, scale = 45 : i64} : (!encoder, tensor<1024xf32>) -> !pt
    %ct_3297 = cheddar.mult_plain %ctx, %ct_2784, %pt_3296 : (!ctx, !ct, !pt) -> !ct
    %extracted_slice_3298 = tensor.extract_slice %inserted_slice_437[0, 0] [1, 1024] [1, 1] : tensor<1x1024xf32> to tensor<1024xf32>
    %pt_3299 = cheddar.encode %encoder, %extracted_slice_3298 {level = 5 : i64, scale = 45 : i64} : (!encoder, tensor<1024xf32>) -> !pt
    %ct_3300 = cheddar.mult_plain %ctx, %ct_2790, %pt_3299 : (!ctx, !ct, !pt) -> !ct
    %extracted_slice_3301 = tensor.extract_slice %inserted_slice_441[0, 0] [1, 1024] [1, 1] : tensor<1x1024xf32> to tensor<1024xf32>
    %pt_3302 = cheddar.encode %encoder, %extracted_slice_3301 {level = 5 : i64, scale = 45 : i64} : (!encoder, tensor<1024xf32>) -> !pt
    %ct_3303 = cheddar.mult_plain %ctx, %ct_2796, %pt_3302 : (!ctx, !ct, !pt) -> !ct
    %extracted_slice_3304 = tensor.extract_slice %inserted_slice_445[0, 0] [1, 1024] [1, 1] : tensor<1x1024xf32> to tensor<1024xf32>
    %pt_3305 = cheddar.encode %encoder, %extracted_slice_3304 {level = 5 : i64, scale = 45 : i64} : (!encoder, tensor<1024xf32>) -> !pt
    %ct_3306 = cheddar.mult_plain %ctx, %ct_2802, %pt_3305 : (!ctx, !ct, !pt) -> !ct
    %extracted_slice_3307 = tensor.extract_slice %inserted_slice_449[0, 0] [1, 1024] [1, 1] : tensor<1x1024xf32> to tensor<1024xf32>
    %pt_3308 = cheddar.encode %encoder, %extracted_slice_3307 {level = 5 : i64, scale = 45 : i64} : (!encoder, tensor<1024xf32>) -> !pt
    %ct_3309 = cheddar.mult_plain %ctx, %ct_2808, %pt_3308 : (!ctx, !ct, !pt) -> !ct
    %extracted_slice_3310 = tensor.extract_slice %inserted_slice_453[0, 0] [1, 1024] [1, 1] : tensor<1x1024xf32> to tensor<1024xf32>
    %pt_3311 = cheddar.encode %encoder, %extracted_slice_3310 {level = 5 : i64, scale = 45 : i64} : (!encoder, tensor<1024xf32>) -> !pt
    %ct_3312 = cheddar.mult_plain %ctx, %ct_2814, %pt_3311 : (!ctx, !ct, !pt) -> !ct
    %extracted_slice_3313 = tensor.extract_slice %inserted_slice_457[0, 0] [1, 1024] [1, 1] : tensor<1x1024xf32> to tensor<1024xf32>
    %pt_3314 = cheddar.encode %encoder, %extracted_slice_3313 {level = 5 : i64, scale = 45 : i64} : (!encoder, tensor<1024xf32>) -> !pt
    %ct_3315 = cheddar.mult_plain %ctx, %ct_2820, %pt_3314 : (!ctx, !ct, !pt) -> !ct
    %extracted_slice_3316 = tensor.extract_slice %inserted_slice_461[0, 0] [1, 1024] [1, 1] : tensor<1x1024xf32> to tensor<1024xf32>
    %pt_3317 = cheddar.encode %encoder, %extracted_slice_3316 {level = 5 : i64, scale = 45 : i64} : (!encoder, tensor<1024xf32>) -> !pt
    %ct_3318 = cheddar.mult_plain %ctx, %ct_2826, %pt_3317 : (!ctx, !ct, !pt) -> !ct
    %ct_3319 = cheddar.add %ctx, %ct_3297, %ct_3300 : (!ctx, !ct, !ct) -> !ct
    %ct_3320 = cheddar.add %ctx, %ct_3303, %ct_3306 : (!ctx, !ct, !ct) -> !ct
    %ct_3321 = cheddar.add %ctx, %ct_3319, %ct_3320 : (!ctx, !ct, !ct) -> !ct
    %ct_3322 = cheddar.add %ctx, %ct_3309, %ct_3312 : (!ctx, !ct, !ct) -> !ct
    %ct_3323 = cheddar.add %ctx, %ct_3315, %ct_3318 : (!ctx, !ct, !ct) -> !ct
    %ct_3324 = cheddar.add %ctx, %ct_3322, %ct_3323 : (!ctx, !ct, !ct) -> !ct
    %ct_3325 = cheddar.add %ctx, %ct_3321, %ct_3324 : (!ctx, !ct, !ct) -> !ct
    %evk_3326 = cheddar.get_rot_key %ui {distance = -1 : i64} : (!ui) -> !evk
    %ct_3327 = cheddar.hrot %ctx, %ct_3325, %evk_3326, %c120 : (!ctx, !ct, !evk, index) -> !ct
    %ct_3328 = cheddar.add %ctx, %ct_2787, %ct_2793 : (!ctx, !ct, !ct) -> !ct
    %ct_3329 = cheddar.add %ctx, %ct_2799, %ct_2805 : (!ctx, !ct, !ct) -> !ct
    %ct_3330 = cheddar.add %ctx, %ct_3329, %ct_2811 : (!ctx, !ct, !ct) -> !ct
    %ct_3331 = cheddar.add %ctx, %ct_3328, %ct_3330 : (!ctx, !ct, !ct) -> !ct
    %ct_3332 = cheddar.add %ctx, %ct_2817, %ct_2823 : (!ctx, !ct, !ct) -> !ct
    %ct_3333 = cheddar.add %ctx, %ct_3332, %ct_2829 : (!ctx, !ct, !ct) -> !ct
    %ct_3334 = cheddar.add %ctx, %ct_2835, %ct_2841 : (!ctx, !ct, !ct) -> !ct
    %ct_3335 = cheddar.add %ctx, %ct_3334, %ct_2847 : (!ctx, !ct, !ct) -> !ct
    %ct_3336 = cheddar.add %ctx, %ct_3333, %ct_3335 : (!ctx, !ct, !ct) -> !ct
    %ct_3337 = cheddar.add %ctx, %ct_3331, %ct_3336 : (!ctx, !ct, !ct) -> !ct
    %ct_3338 = cheddar.add %ctx, %ct_2853, %ct_2902 : (!ctx, !ct, !ct) -> !ct
    %ct_3339 = cheddar.add %ctx, %ct_2951, %ct_3000 : (!ctx, !ct, !ct) -> !ct
    %ct_3340 = cheddar.add %ctx, %ct_3339, %ct_3049 : (!ctx, !ct, !ct) -> !ct
    %ct_3341 = cheddar.add %ctx, %ct_3338, %ct_3340 : (!ctx, !ct, !ct) -> !ct
    %ct_3342 = cheddar.add %ctx, %ct_3098, %ct_3147 : (!ctx, !ct, !ct) -> !ct
    %ct_3343 = cheddar.add %ctx, %ct_3342, %ct_3196 : (!ctx, !ct, !ct) -> !ct
    %ct_3344 = cheddar.add %ctx, %ct_3245, %ct_3294 : (!ctx, !ct, !ct) -> !ct
    %ct_3345 = cheddar.add %ctx, %ct_3344, %ct_3327 : (!ctx, !ct, !ct) -> !ct
    %ct_3346 = cheddar.add %ctx, %ct_3343, %ct_3345 : (!ctx, !ct, !ct) -> !ct
    %ct_3347 = cheddar.add %ctx, %ct_3341, %ct_3346 : (!ctx, !ct, !ct) -> !ct
    %ct_3348 = cheddar.add %ctx, %ct_3337, %ct_3347 : (!ctx, !ct, !ct) -> !ct
    %evk_3349 = cheddar.get_rot_key %ui {distance = -1 : i64} : (!ui) -> !evk
    %ct_3350 = cheddar.hrot %ctx, %ct_3348, %evk_3349, %c128 : (!ctx, !ct, !evk, index) -> !ct
    %ct_3351 = cheddar.add %ctx, %ct_3348, %ct_3350 : (!ctx, !ct, !ct) -> !ct
    %ct_3352 = cheddar.rescale %ctx, %ct_3351 : (!ctx, !ct) -> !ct
    %ct_3353 = cheddar.mult %ctx, %ct_3352, %ct_3352 : (!ctx, !ct, !ct) -> !ct
    %evk_3354 = cheddar.get_mult_key %ui : (!ui) -> !evk
    %ct_3355 = cheddar.relinearize %ctx, %ct_3353, %evk_3354 : (!ctx, !ct, !evk) -> !ct
    %ct_3356 = cheddar.rescale %ctx, %ct_3355 : (!ctx, !ct) -> !ct
    %extracted_slice_3357 = tensor.extract_slice %2[0, 0] [1, 1024] [1, 1] : tensor<64x1024xf32> to tensor<1024xf32>
    %pt_3358 = cheddar.encode %encoder, %extracted_slice_3357 {level = 3 : i64, scale = 45 : i64} : (!encoder, tensor<1024xf32>) -> !pt
    %ct_3359 = cheddar.mult_plain %ctx, %ct_3356, %pt_3358 : (!ctx, !ct, !pt) -> !ct
    %evk_3360 = cheddar.get_rot_key %ui {distance = -1 : i64} : (!ui) -> !evk
    %ct_3361 = cheddar.hrot %ctx, %ct_3355, %evk_3360, %c1 : (!ctx, !ct, !evk, index) -> !ct
    %ct_3362 = cheddar.rescale %ctx, %ct_3361 : (!ctx, !ct) -> !ct
    %extracted_slice_3363 = tensor.extract_slice %2[1, 0] [1, 1024] [1, 1] : tensor<64x1024xf32> to tensor<1024xf32>
    %pt_3364 = cheddar.encode %encoder, %extracted_slice_3363 {level = 3 : i64, scale = 45 : i64} : (!encoder, tensor<1024xf32>) -> !pt
    %ct_3365 = cheddar.mult_plain %ctx, %ct_3362, %pt_3364 : (!ctx, !ct, !pt) -> !ct
    %evk_3366 = cheddar.get_rot_key %ui {distance = -1 : i64} : (!ui) -> !evk
    %ct_3367 = cheddar.hrot %ctx, %ct_3355, %evk_3366, %c2 : (!ctx, !ct, !evk, index) -> !ct
    %ct_3368 = cheddar.rescale %ctx, %ct_3367 : (!ctx, !ct) -> !ct
    %extracted_slice_3369 = tensor.extract_slice %2[2, 0] [1, 1024] [1, 1] : tensor<64x1024xf32> to tensor<1024xf32>
    %pt_3370 = cheddar.encode %encoder, %extracted_slice_3369 {level = 3 : i64, scale = 45 : i64} : (!encoder, tensor<1024xf32>) -> !pt
    %ct_3371 = cheddar.mult_plain %ctx, %ct_3368, %pt_3370 : (!ctx, !ct, !pt) -> !ct
    %evk_3372 = cheddar.get_rot_key %ui {distance = -1 : i64} : (!ui) -> !evk
    %ct_3373 = cheddar.hrot %ctx, %ct_3355, %evk_3372, %c3 : (!ctx, !ct, !evk, index) -> !ct
    %ct_3374 = cheddar.rescale %ctx, %ct_3373 : (!ctx, !ct) -> !ct
    %extracted_slice_3375 = tensor.extract_slice %2[3, 0] [1, 1024] [1, 1] : tensor<64x1024xf32> to tensor<1024xf32>
    %pt_3376 = cheddar.encode %encoder, %extracted_slice_3375 {level = 3 : i64, scale = 45 : i64} : (!encoder, tensor<1024xf32>) -> !pt
    %ct_3377 = cheddar.mult_plain %ctx, %ct_3374, %pt_3376 : (!ctx, !ct, !pt) -> !ct
    %evk_3378 = cheddar.get_rot_key %ui {distance = -1 : i64} : (!ui) -> !evk
    %ct_3379 = cheddar.hrot %ctx, %ct_3355, %evk_3378, %c4 : (!ctx, !ct, !evk, index) -> !ct
    %ct_3380 = cheddar.rescale %ctx, %ct_3379 : (!ctx, !ct) -> !ct
    %extracted_slice_3381 = tensor.extract_slice %2[4, 0] [1, 1024] [1, 1] : tensor<64x1024xf32> to tensor<1024xf32>
    %pt_3382 = cheddar.encode %encoder, %extracted_slice_3381 {level = 3 : i64, scale = 45 : i64} : (!encoder, tensor<1024xf32>) -> !pt
    %ct_3383 = cheddar.mult_plain %ctx, %ct_3380, %pt_3382 : (!ctx, !ct, !pt) -> !ct
    %evk_3384 = cheddar.get_rot_key %ui {distance = -1 : i64} : (!ui) -> !evk
    %ct_3385 = cheddar.hrot %ctx, %ct_3355, %evk_3384, %c5 : (!ctx, !ct, !evk, index) -> !ct
    %ct_3386 = cheddar.rescale %ctx, %ct_3385 : (!ctx, !ct) -> !ct
    %extracted_slice_3387 = tensor.extract_slice %2[5, 0] [1, 1024] [1, 1] : tensor<64x1024xf32> to tensor<1024xf32>
    %pt_3388 = cheddar.encode %encoder, %extracted_slice_3387 {level = 3 : i64, scale = 45 : i64} : (!encoder, tensor<1024xf32>) -> !pt
    %ct_3389 = cheddar.mult_plain %ctx, %ct_3386, %pt_3388 : (!ctx, !ct, !pt) -> !ct
    %evk_3390 = cheddar.get_rot_key %ui {distance = -1 : i64} : (!ui) -> !evk
    %ct_3391 = cheddar.hrot %ctx, %ct_3355, %evk_3390, %c6 : (!ctx, !ct, !evk, index) -> !ct
    %ct_3392 = cheddar.rescale %ctx, %ct_3391 : (!ctx, !ct) -> !ct
    %extracted_slice_3393 = tensor.extract_slice %2[6, 0] [1, 1024] [1, 1] : tensor<64x1024xf32> to tensor<1024xf32>
    %pt_3394 = cheddar.encode %encoder, %extracted_slice_3393 {level = 3 : i64, scale = 45 : i64} : (!encoder, tensor<1024xf32>) -> !pt
    %ct_3395 = cheddar.mult_plain %ctx, %ct_3392, %pt_3394 : (!ctx, !ct, !pt) -> !ct
    %evk_3396 = cheddar.get_rot_key %ui {distance = -1 : i64} : (!ui) -> !evk
    %ct_3397 = cheddar.hrot %ctx, %ct_3355, %evk_3396, %c7 : (!ctx, !ct, !evk, index) -> !ct
    %ct_3398 = cheddar.rescale %ctx, %ct_3397 : (!ctx, !ct) -> !ct
    %extracted_slice_3399 = tensor.extract_slice %2[7, 0] [1, 1024] [1, 1] : tensor<64x1024xf32> to tensor<1024xf32>
    %pt_3400 = cheddar.encode %encoder, %extracted_slice_3399 {level = 3 : i64, scale = 45 : i64} : (!encoder, tensor<1024xf32>) -> !pt
    %ct_3401 = cheddar.mult_plain %ctx, %ct_3398, %pt_3400 : (!ctx, !ct, !pt) -> !ct
    %extracted_slice_3402 = tensor.extract_slice %inserted_slice_465[0, 0] [1, 1024] [1, 1] : tensor<1x1024xf32> to tensor<1024xf32>
    %pt_3403 = cheddar.encode %encoder, %extracted_slice_3402 {level = 3 : i64, scale = 45 : i64} : (!encoder, tensor<1024xf32>) -> !pt
    %ct_3404 = cheddar.mult_plain %ctx, %ct_3356, %pt_3403 : (!ctx, !ct, !pt) -> !ct
    %extracted_slice_3405 = tensor.extract_slice %inserted_slice_469[0, 0] [1, 1024] [1, 1] : tensor<1x1024xf32> to tensor<1024xf32>
    %pt_3406 = cheddar.encode %encoder, %extracted_slice_3405 {level = 3 : i64, scale = 45 : i64} : (!encoder, tensor<1024xf32>) -> !pt
    %ct_3407 = cheddar.mult_plain %ctx, %ct_3362, %pt_3406 : (!ctx, !ct, !pt) -> !ct
    %extracted_slice_3408 = tensor.extract_slice %inserted_slice_473[0, 0] [1, 1024] [1, 1] : tensor<1x1024xf32> to tensor<1024xf32>
    %pt_3409 = cheddar.encode %encoder, %extracted_slice_3408 {level = 3 : i64, scale = 45 : i64} : (!encoder, tensor<1024xf32>) -> !pt
    %ct_3410 = cheddar.mult_plain %ctx, %ct_3368, %pt_3409 : (!ctx, !ct, !pt) -> !ct
    %extracted_slice_3411 = tensor.extract_slice %inserted_slice_477[0, 0] [1, 1024] [1, 1] : tensor<1x1024xf32> to tensor<1024xf32>
    %pt_3412 = cheddar.encode %encoder, %extracted_slice_3411 {level = 3 : i64, scale = 45 : i64} : (!encoder, tensor<1024xf32>) -> !pt
    %ct_3413 = cheddar.mult_plain %ctx, %ct_3374, %pt_3412 : (!ctx, !ct, !pt) -> !ct
    %extracted_slice_3414 = tensor.extract_slice %inserted_slice_481[0, 0] [1, 1024] [1, 1] : tensor<1x1024xf32> to tensor<1024xf32>
    %pt_3415 = cheddar.encode %encoder, %extracted_slice_3414 {level = 3 : i64, scale = 45 : i64} : (!encoder, tensor<1024xf32>) -> !pt
    %ct_3416 = cheddar.mult_plain %ctx, %ct_3380, %pt_3415 : (!ctx, !ct, !pt) -> !ct
    %extracted_slice_3417 = tensor.extract_slice %inserted_slice_485[0, 0] [1, 1024] [1, 1] : tensor<1x1024xf32> to tensor<1024xf32>
    %pt_3418 = cheddar.encode %encoder, %extracted_slice_3417 {level = 3 : i64, scale = 45 : i64} : (!encoder, tensor<1024xf32>) -> !pt
    %ct_3419 = cheddar.mult_plain %ctx, %ct_3386, %pt_3418 : (!ctx, !ct, !pt) -> !ct
    %extracted_slice_3420 = tensor.extract_slice %inserted_slice_489[0, 0] [1, 1024] [1, 1] : tensor<1x1024xf32> to tensor<1024xf32>
    %pt_3421 = cheddar.encode %encoder, %extracted_slice_3420 {level = 3 : i64, scale = 45 : i64} : (!encoder, tensor<1024xf32>) -> !pt
    %ct_3422 = cheddar.mult_plain %ctx, %ct_3392, %pt_3421 : (!ctx, !ct, !pt) -> !ct
    %extracted_slice_3423 = tensor.extract_slice %inserted_slice_493[0, 0] [1, 1024] [1, 1] : tensor<1x1024xf32> to tensor<1024xf32>
    %pt_3424 = cheddar.encode %encoder, %extracted_slice_3423 {level = 3 : i64, scale = 45 : i64} : (!encoder, tensor<1024xf32>) -> !pt
    %ct_3425 = cheddar.mult_plain %ctx, %ct_3398, %pt_3424 : (!ctx, !ct, !pt) -> !ct
    %ct_3426 = cheddar.add %ctx, %ct_3404, %ct_3407 : (!ctx, !ct, !ct) -> !ct
    %ct_3427 = cheddar.add %ctx, %ct_3410, %ct_3413 : (!ctx, !ct, !ct) -> !ct
    %ct_3428 = cheddar.add %ctx, %ct_3426, %ct_3427 : (!ctx, !ct, !ct) -> !ct
    %ct_3429 = cheddar.add %ctx, %ct_3416, %ct_3419 : (!ctx, !ct, !ct) -> !ct
    %ct_3430 = cheddar.add %ctx, %ct_3422, %ct_3425 : (!ctx, !ct, !ct) -> !ct
    %ct_3431 = cheddar.add %ctx, %ct_3429, %ct_3430 : (!ctx, !ct, !ct) -> !ct
    %ct_3432 = cheddar.add %ctx, %ct_3428, %ct_3431 : (!ctx, !ct, !ct) -> !ct
    %evk_3433 = cheddar.get_rot_key %ui {distance = -1 : i64} : (!ui) -> !evk
    %ct_3434 = cheddar.hrot %ctx, %ct_3432, %evk_3433, %c8 : (!ctx, !ct, !evk, index) -> !ct
    %extracted_slice_3435 = tensor.extract_slice %inserted_slice_497[0, 0] [1, 1024] [1, 1] : tensor<1x1024xf32> to tensor<1024xf32>
    %pt_3436 = cheddar.encode %encoder, %extracted_slice_3435 {level = 3 : i64, scale = 45 : i64} : (!encoder, tensor<1024xf32>) -> !pt
    %ct_3437 = cheddar.mult_plain %ctx, %ct_3356, %pt_3436 : (!ctx, !ct, !pt) -> !ct
    %extracted_slice_3438 = tensor.extract_slice %inserted_slice_501[0, 0] [1, 1024] [1, 1] : tensor<1x1024xf32> to tensor<1024xf32>
    %pt_3439 = cheddar.encode %encoder, %extracted_slice_3438 {level = 3 : i64, scale = 45 : i64} : (!encoder, tensor<1024xf32>) -> !pt
    %ct_3440 = cheddar.mult_plain %ctx, %ct_3362, %pt_3439 : (!ctx, !ct, !pt) -> !ct
    %extracted_slice_3441 = tensor.extract_slice %inserted_slice_505[0, 0] [1, 1024] [1, 1] : tensor<1x1024xf32> to tensor<1024xf32>
    %pt_3442 = cheddar.encode %encoder, %extracted_slice_3441 {level = 3 : i64, scale = 45 : i64} : (!encoder, tensor<1024xf32>) -> !pt
    %ct_3443 = cheddar.mult_plain %ctx, %ct_3368, %pt_3442 : (!ctx, !ct, !pt) -> !ct
    %extracted_slice_3444 = tensor.extract_slice %inserted_slice_509[0, 0] [1, 1024] [1, 1] : tensor<1x1024xf32> to tensor<1024xf32>
    %pt_3445 = cheddar.encode %encoder, %extracted_slice_3444 {level = 3 : i64, scale = 45 : i64} : (!encoder, tensor<1024xf32>) -> !pt
    %ct_3446 = cheddar.mult_plain %ctx, %ct_3374, %pt_3445 : (!ctx, !ct, !pt) -> !ct
    %extracted_slice_3447 = tensor.extract_slice %inserted_slice_513[0, 0] [1, 1024] [1, 1] : tensor<1x1024xf32> to tensor<1024xf32>
    %pt_3448 = cheddar.encode %encoder, %extracted_slice_3447 {level = 3 : i64, scale = 45 : i64} : (!encoder, tensor<1024xf32>) -> !pt
    %ct_3449 = cheddar.mult_plain %ctx, %ct_3380, %pt_3448 : (!ctx, !ct, !pt) -> !ct
    %extracted_slice_3450 = tensor.extract_slice %inserted_slice_517[0, 0] [1, 1024] [1, 1] : tensor<1x1024xf32> to tensor<1024xf32>
    %pt_3451 = cheddar.encode %encoder, %extracted_slice_3450 {level = 3 : i64, scale = 45 : i64} : (!encoder, tensor<1024xf32>) -> !pt
    %ct_3452 = cheddar.mult_plain %ctx, %ct_3386, %pt_3451 : (!ctx, !ct, !pt) -> !ct
    %extracted_slice_3453 = tensor.extract_slice %inserted_slice_521[0, 0] [1, 1024] [1, 1] : tensor<1x1024xf32> to tensor<1024xf32>
    %pt_3454 = cheddar.encode %encoder, %extracted_slice_3453 {level = 3 : i64, scale = 45 : i64} : (!encoder, tensor<1024xf32>) -> !pt
    %ct_3455 = cheddar.mult_plain %ctx, %ct_3392, %pt_3454 : (!ctx, !ct, !pt) -> !ct
    %extracted_slice_3456 = tensor.extract_slice %inserted_slice_525[0, 0] [1, 1024] [1, 1] : tensor<1x1024xf32> to tensor<1024xf32>
    %pt_3457 = cheddar.encode %encoder, %extracted_slice_3456 {level = 3 : i64, scale = 45 : i64} : (!encoder, tensor<1024xf32>) -> !pt
    %ct_3458 = cheddar.mult_plain %ctx, %ct_3398, %pt_3457 : (!ctx, !ct, !pt) -> !ct
    %ct_3459 = cheddar.add %ctx, %ct_3437, %ct_3440 : (!ctx, !ct, !ct) -> !ct
    %ct_3460 = cheddar.add %ctx, %ct_3443, %ct_3446 : (!ctx, !ct, !ct) -> !ct
    %ct_3461 = cheddar.add %ctx, %ct_3459, %ct_3460 : (!ctx, !ct, !ct) -> !ct
    %ct_3462 = cheddar.add %ctx, %ct_3449, %ct_3452 : (!ctx, !ct, !ct) -> !ct
    %ct_3463 = cheddar.add %ctx, %ct_3455, %ct_3458 : (!ctx, !ct, !ct) -> !ct
    %ct_3464 = cheddar.add %ctx, %ct_3462, %ct_3463 : (!ctx, !ct, !ct) -> !ct
    %ct_3465 = cheddar.add %ctx, %ct_3461, %ct_3464 : (!ctx, !ct, !ct) -> !ct
    %evk_3466 = cheddar.get_rot_key %ui {distance = -1 : i64} : (!ui) -> !evk
    %ct_3467 = cheddar.hrot %ctx, %ct_3465, %evk_3466, %c16 : (!ctx, !ct, !evk, index) -> !ct
    %extracted_slice_3468 = tensor.extract_slice %inserted_slice_529[0, 0] [1, 1024] [1, 1] : tensor<1x1024xf32> to tensor<1024xf32>
    %pt_3469 = cheddar.encode %encoder, %extracted_slice_3468 {level = 3 : i64, scale = 45 : i64} : (!encoder, tensor<1024xf32>) -> !pt
    %ct_3470 = cheddar.mult_plain %ctx, %ct_3356, %pt_3469 : (!ctx, !ct, !pt) -> !ct
    %extracted_slice_3471 = tensor.extract_slice %inserted_slice_533[0, 0] [1, 1024] [1, 1] : tensor<1x1024xf32> to tensor<1024xf32>
    %pt_3472 = cheddar.encode %encoder, %extracted_slice_3471 {level = 3 : i64, scale = 45 : i64} : (!encoder, tensor<1024xf32>) -> !pt
    %ct_3473 = cheddar.mult_plain %ctx, %ct_3362, %pt_3472 : (!ctx, !ct, !pt) -> !ct
    %extracted_slice_3474 = tensor.extract_slice %inserted_slice_537[0, 0] [1, 1024] [1, 1] : tensor<1x1024xf32> to tensor<1024xf32>
    %pt_3475 = cheddar.encode %encoder, %extracted_slice_3474 {level = 3 : i64, scale = 45 : i64} : (!encoder, tensor<1024xf32>) -> !pt
    %ct_3476 = cheddar.mult_plain %ctx, %ct_3368, %pt_3475 : (!ctx, !ct, !pt) -> !ct
    %extracted_slice_3477 = tensor.extract_slice %inserted_slice_541[0, 0] [1, 1024] [1, 1] : tensor<1x1024xf32> to tensor<1024xf32>
    %pt_3478 = cheddar.encode %encoder, %extracted_slice_3477 {level = 3 : i64, scale = 45 : i64} : (!encoder, tensor<1024xf32>) -> !pt
    %ct_3479 = cheddar.mult_plain %ctx, %ct_3374, %pt_3478 : (!ctx, !ct, !pt) -> !ct
    %extracted_slice_3480 = tensor.extract_slice %inserted_slice_545[0, 0] [1, 1024] [1, 1] : tensor<1x1024xf32> to tensor<1024xf32>
    %pt_3481 = cheddar.encode %encoder, %extracted_slice_3480 {level = 3 : i64, scale = 45 : i64} : (!encoder, tensor<1024xf32>) -> !pt
    %ct_3482 = cheddar.mult_plain %ctx, %ct_3380, %pt_3481 : (!ctx, !ct, !pt) -> !ct
    %extracted_slice_3483 = tensor.extract_slice %inserted_slice_549[0, 0] [1, 1024] [1, 1] : tensor<1x1024xf32> to tensor<1024xf32>
    %pt_3484 = cheddar.encode %encoder, %extracted_slice_3483 {level = 3 : i64, scale = 45 : i64} : (!encoder, tensor<1024xf32>) -> !pt
    %ct_3485 = cheddar.mult_plain %ctx, %ct_3386, %pt_3484 : (!ctx, !ct, !pt) -> !ct
    %extracted_slice_3486 = tensor.extract_slice %inserted_slice_553[0, 0] [1, 1024] [1, 1] : tensor<1x1024xf32> to tensor<1024xf32>
    %pt_3487 = cheddar.encode %encoder, %extracted_slice_3486 {level = 3 : i64, scale = 45 : i64} : (!encoder, tensor<1024xf32>) -> !pt
    %ct_3488 = cheddar.mult_plain %ctx, %ct_3392, %pt_3487 : (!ctx, !ct, !pt) -> !ct
    %extracted_slice_3489 = tensor.extract_slice %inserted_slice_557[0, 0] [1, 1024] [1, 1] : tensor<1x1024xf32> to tensor<1024xf32>
    %pt_3490 = cheddar.encode %encoder, %extracted_slice_3489 {level = 3 : i64, scale = 45 : i64} : (!encoder, tensor<1024xf32>) -> !pt
    %ct_3491 = cheddar.mult_plain %ctx, %ct_3398, %pt_3490 : (!ctx, !ct, !pt) -> !ct
    %ct_3492 = cheddar.add %ctx, %ct_3470, %ct_3473 : (!ctx, !ct, !ct) -> !ct
    %ct_3493 = cheddar.add %ctx, %ct_3476, %ct_3479 : (!ctx, !ct, !ct) -> !ct
    %ct_3494 = cheddar.add %ctx, %ct_3492, %ct_3493 : (!ctx, !ct, !ct) -> !ct
    %ct_3495 = cheddar.add %ctx, %ct_3482, %ct_3485 : (!ctx, !ct, !ct) -> !ct
    %ct_3496 = cheddar.add %ctx, %ct_3488, %ct_3491 : (!ctx, !ct, !ct) -> !ct
    %ct_3497 = cheddar.add %ctx, %ct_3495, %ct_3496 : (!ctx, !ct, !ct) -> !ct
    %ct_3498 = cheddar.add %ctx, %ct_3494, %ct_3497 : (!ctx, !ct, !ct) -> !ct
    %evk_3499 = cheddar.get_rot_key %ui {distance = -1 : i64} : (!ui) -> !evk
    %ct_3500 = cheddar.hrot %ctx, %ct_3498, %evk_3499, %c24 : (!ctx, !ct, !evk, index) -> !ct
    %extracted_slice_3501 = tensor.extract_slice %inserted_slice_561[0, 0] [1, 1024] [1, 1] : tensor<1x1024xf32> to tensor<1024xf32>
    %pt_3502 = cheddar.encode %encoder, %extracted_slice_3501 {level = 3 : i64, scale = 45 : i64} : (!encoder, tensor<1024xf32>) -> !pt
    %ct_3503 = cheddar.mult_plain %ctx, %ct_3356, %pt_3502 : (!ctx, !ct, !pt) -> !ct
    %extracted_slice_3504 = tensor.extract_slice %inserted_slice_565[0, 0] [1, 1024] [1, 1] : tensor<1x1024xf32> to tensor<1024xf32>
    %pt_3505 = cheddar.encode %encoder, %extracted_slice_3504 {level = 3 : i64, scale = 45 : i64} : (!encoder, tensor<1024xf32>) -> !pt
    %ct_3506 = cheddar.mult_plain %ctx, %ct_3362, %pt_3505 : (!ctx, !ct, !pt) -> !ct
    %extracted_slice_3507 = tensor.extract_slice %inserted_slice_569[0, 0] [1, 1024] [1, 1] : tensor<1x1024xf32> to tensor<1024xf32>
    %pt_3508 = cheddar.encode %encoder, %extracted_slice_3507 {level = 3 : i64, scale = 45 : i64} : (!encoder, tensor<1024xf32>) -> !pt
    %ct_3509 = cheddar.mult_plain %ctx, %ct_3368, %pt_3508 : (!ctx, !ct, !pt) -> !ct
    %extracted_slice_3510 = tensor.extract_slice %inserted_slice_573[0, 0] [1, 1024] [1, 1] : tensor<1x1024xf32> to tensor<1024xf32>
    %pt_3511 = cheddar.encode %encoder, %extracted_slice_3510 {level = 3 : i64, scale = 45 : i64} : (!encoder, tensor<1024xf32>) -> !pt
    %ct_3512 = cheddar.mult_plain %ctx, %ct_3374, %pt_3511 : (!ctx, !ct, !pt) -> !ct
    %extracted_slice_3513 = tensor.extract_slice %inserted_slice_577[0, 0] [1, 1024] [1, 1] : tensor<1x1024xf32> to tensor<1024xf32>
    %pt_3514 = cheddar.encode %encoder, %extracted_slice_3513 {level = 3 : i64, scale = 45 : i64} : (!encoder, tensor<1024xf32>) -> !pt
    %ct_3515 = cheddar.mult_plain %ctx, %ct_3380, %pt_3514 : (!ctx, !ct, !pt) -> !ct
    %extracted_slice_3516 = tensor.extract_slice %inserted_slice_581[0, 0] [1, 1024] [1, 1] : tensor<1x1024xf32> to tensor<1024xf32>
    %pt_3517 = cheddar.encode %encoder, %extracted_slice_3516 {level = 3 : i64, scale = 45 : i64} : (!encoder, tensor<1024xf32>) -> !pt
    %ct_3518 = cheddar.mult_plain %ctx, %ct_3386, %pt_3517 : (!ctx, !ct, !pt) -> !ct
    %extracted_slice_3519 = tensor.extract_slice %inserted_slice_585[0, 0] [1, 1024] [1, 1] : tensor<1x1024xf32> to tensor<1024xf32>
    %pt_3520 = cheddar.encode %encoder, %extracted_slice_3519 {level = 3 : i64, scale = 45 : i64} : (!encoder, tensor<1024xf32>) -> !pt
    %ct_3521 = cheddar.mult_plain %ctx, %ct_3392, %pt_3520 : (!ctx, !ct, !pt) -> !ct
    %extracted_slice_3522 = tensor.extract_slice %inserted_slice_589[0, 0] [1, 1024] [1, 1] : tensor<1x1024xf32> to tensor<1024xf32>
    %pt_3523 = cheddar.encode %encoder, %extracted_slice_3522 {level = 3 : i64, scale = 45 : i64} : (!encoder, tensor<1024xf32>) -> !pt
    %ct_3524 = cheddar.mult_plain %ctx, %ct_3398, %pt_3523 : (!ctx, !ct, !pt) -> !ct
    %ct_3525 = cheddar.add %ctx, %ct_3503, %ct_3506 : (!ctx, !ct, !ct) -> !ct
    %ct_3526 = cheddar.add %ctx, %ct_3509, %ct_3512 : (!ctx, !ct, !ct) -> !ct
    %ct_3527 = cheddar.add %ctx, %ct_3525, %ct_3526 : (!ctx, !ct, !ct) -> !ct
    %ct_3528 = cheddar.add %ctx, %ct_3515, %ct_3518 : (!ctx, !ct, !ct) -> !ct
    %ct_3529 = cheddar.add %ctx, %ct_3521, %ct_3524 : (!ctx, !ct, !ct) -> !ct
    %ct_3530 = cheddar.add %ctx, %ct_3528, %ct_3529 : (!ctx, !ct, !ct) -> !ct
    %ct_3531 = cheddar.add %ctx, %ct_3527, %ct_3530 : (!ctx, !ct, !ct) -> !ct
    %evk_3532 = cheddar.get_rot_key %ui {distance = -1 : i64} : (!ui) -> !evk
    %ct_3533 = cheddar.hrot %ctx, %ct_3531, %evk_3532, %c32 : (!ctx, !ct, !evk, index) -> !ct
    %extracted_slice_3534 = tensor.extract_slice %inserted_slice_593[0, 0] [1, 1024] [1, 1] : tensor<1x1024xf32> to tensor<1024xf32>
    %pt_3535 = cheddar.encode %encoder, %extracted_slice_3534 {level = 3 : i64, scale = 45 : i64} : (!encoder, tensor<1024xf32>) -> !pt
    %ct_3536 = cheddar.mult_plain %ctx, %ct_3356, %pt_3535 : (!ctx, !ct, !pt) -> !ct
    %extracted_slice_3537 = tensor.extract_slice %inserted_slice_597[0, 0] [1, 1024] [1, 1] : tensor<1x1024xf32> to tensor<1024xf32>
    %pt_3538 = cheddar.encode %encoder, %extracted_slice_3537 {level = 3 : i64, scale = 45 : i64} : (!encoder, tensor<1024xf32>) -> !pt
    %ct_3539 = cheddar.mult_plain %ctx, %ct_3362, %pt_3538 : (!ctx, !ct, !pt) -> !ct
    %extracted_slice_3540 = tensor.extract_slice %inserted_slice_601[0, 0] [1, 1024] [1, 1] : tensor<1x1024xf32> to tensor<1024xf32>
    %pt_3541 = cheddar.encode %encoder, %extracted_slice_3540 {level = 3 : i64, scale = 45 : i64} : (!encoder, tensor<1024xf32>) -> !pt
    %ct_3542 = cheddar.mult_plain %ctx, %ct_3368, %pt_3541 : (!ctx, !ct, !pt) -> !ct
    %extracted_slice_3543 = tensor.extract_slice %inserted_slice_605[0, 0] [1, 1024] [1, 1] : tensor<1x1024xf32> to tensor<1024xf32>
    %pt_3544 = cheddar.encode %encoder, %extracted_slice_3543 {level = 3 : i64, scale = 45 : i64} : (!encoder, tensor<1024xf32>) -> !pt
    %ct_3545 = cheddar.mult_plain %ctx, %ct_3374, %pt_3544 : (!ctx, !ct, !pt) -> !ct
    %extracted_slice_3546 = tensor.extract_slice %inserted_slice_609[0, 0] [1, 1024] [1, 1] : tensor<1x1024xf32> to tensor<1024xf32>
    %pt_3547 = cheddar.encode %encoder, %extracted_slice_3546 {level = 3 : i64, scale = 45 : i64} : (!encoder, tensor<1024xf32>) -> !pt
    %ct_3548 = cheddar.mult_plain %ctx, %ct_3380, %pt_3547 : (!ctx, !ct, !pt) -> !ct
    %extracted_slice_3549 = tensor.extract_slice %inserted_slice_613[0, 0] [1, 1024] [1, 1] : tensor<1x1024xf32> to tensor<1024xf32>
    %pt_3550 = cheddar.encode %encoder, %extracted_slice_3549 {level = 3 : i64, scale = 45 : i64} : (!encoder, tensor<1024xf32>) -> !pt
    %ct_3551 = cheddar.mult_plain %ctx, %ct_3386, %pt_3550 : (!ctx, !ct, !pt) -> !ct
    %extracted_slice_3552 = tensor.extract_slice %inserted_slice_617[0, 0] [1, 1024] [1, 1] : tensor<1x1024xf32> to tensor<1024xf32>
    %pt_3553 = cheddar.encode %encoder, %extracted_slice_3552 {level = 3 : i64, scale = 45 : i64} : (!encoder, tensor<1024xf32>) -> !pt
    %ct_3554 = cheddar.mult_plain %ctx, %ct_3392, %pt_3553 : (!ctx, !ct, !pt) -> !ct
    %extracted_slice_3555 = tensor.extract_slice %inserted_slice_621[0, 0] [1, 1024] [1, 1] : tensor<1x1024xf32> to tensor<1024xf32>
    %pt_3556 = cheddar.encode %encoder, %extracted_slice_3555 {level = 3 : i64, scale = 45 : i64} : (!encoder, tensor<1024xf32>) -> !pt
    %ct_3557 = cheddar.mult_plain %ctx, %ct_3398, %pt_3556 : (!ctx, !ct, !pt) -> !ct
    %ct_3558 = cheddar.add %ctx, %ct_3536, %ct_3539 : (!ctx, !ct, !ct) -> !ct
    %ct_3559 = cheddar.add %ctx, %ct_3542, %ct_3545 : (!ctx, !ct, !ct) -> !ct
    %ct_3560 = cheddar.add %ctx, %ct_3558, %ct_3559 : (!ctx, !ct, !ct) -> !ct
    %ct_3561 = cheddar.add %ctx, %ct_3548, %ct_3551 : (!ctx, !ct, !ct) -> !ct
    %ct_3562 = cheddar.add %ctx, %ct_3554, %ct_3557 : (!ctx, !ct, !ct) -> !ct
    %ct_3563 = cheddar.add %ctx, %ct_3561, %ct_3562 : (!ctx, !ct, !ct) -> !ct
    %ct_3564 = cheddar.add %ctx, %ct_3560, %ct_3563 : (!ctx, !ct, !ct) -> !ct
    %evk_3565 = cheddar.get_rot_key %ui {distance = -1 : i64} : (!ui) -> !evk
    %ct_3566 = cheddar.hrot %ctx, %ct_3564, %evk_3565, %c40 : (!ctx, !ct, !evk, index) -> !ct
    %extracted_slice_3567 = tensor.extract_slice %inserted_slice_625[0, 0] [1, 1024] [1, 1] : tensor<1x1024xf32> to tensor<1024xf32>
    %pt_3568 = cheddar.encode %encoder, %extracted_slice_3567 {level = 3 : i64, scale = 45 : i64} : (!encoder, tensor<1024xf32>) -> !pt
    %ct_3569 = cheddar.mult_plain %ctx, %ct_3356, %pt_3568 : (!ctx, !ct, !pt) -> !ct
    %extracted_slice_3570 = tensor.extract_slice %inserted_slice_629[0, 0] [1, 1024] [1, 1] : tensor<1x1024xf32> to tensor<1024xf32>
    %pt_3571 = cheddar.encode %encoder, %extracted_slice_3570 {level = 3 : i64, scale = 45 : i64} : (!encoder, tensor<1024xf32>) -> !pt
    %ct_3572 = cheddar.mult_plain %ctx, %ct_3362, %pt_3571 : (!ctx, !ct, !pt) -> !ct
    %extracted_slice_3573 = tensor.extract_slice %inserted_slice_633[0, 0] [1, 1024] [1, 1] : tensor<1x1024xf32> to tensor<1024xf32>
    %pt_3574 = cheddar.encode %encoder, %extracted_slice_3573 {level = 3 : i64, scale = 45 : i64} : (!encoder, tensor<1024xf32>) -> !pt
    %ct_3575 = cheddar.mult_plain %ctx, %ct_3368, %pt_3574 : (!ctx, !ct, !pt) -> !ct
    %extracted_slice_3576 = tensor.extract_slice %inserted_slice_637[0, 0] [1, 1024] [1, 1] : tensor<1x1024xf32> to tensor<1024xf32>
    %pt_3577 = cheddar.encode %encoder, %extracted_slice_3576 {level = 3 : i64, scale = 45 : i64} : (!encoder, tensor<1024xf32>) -> !pt
    %ct_3578 = cheddar.mult_plain %ctx, %ct_3374, %pt_3577 : (!ctx, !ct, !pt) -> !ct
    %extracted_slice_3579 = tensor.extract_slice %inserted_slice_641[0, 0] [1, 1024] [1, 1] : tensor<1x1024xf32> to tensor<1024xf32>
    %pt_3580 = cheddar.encode %encoder, %extracted_slice_3579 {level = 3 : i64, scale = 45 : i64} : (!encoder, tensor<1024xf32>) -> !pt
    %ct_3581 = cheddar.mult_plain %ctx, %ct_3380, %pt_3580 : (!ctx, !ct, !pt) -> !ct
    %extracted_slice_3582 = tensor.extract_slice %inserted_slice_645[0, 0] [1, 1024] [1, 1] : tensor<1x1024xf32> to tensor<1024xf32>
    %pt_3583 = cheddar.encode %encoder, %extracted_slice_3582 {level = 3 : i64, scale = 45 : i64} : (!encoder, tensor<1024xf32>) -> !pt
    %ct_3584 = cheddar.mult_plain %ctx, %ct_3386, %pt_3583 : (!ctx, !ct, !pt) -> !ct
    %extracted_slice_3585 = tensor.extract_slice %inserted_slice_649[0, 0] [1, 1024] [1, 1] : tensor<1x1024xf32> to tensor<1024xf32>
    %pt_3586 = cheddar.encode %encoder, %extracted_slice_3585 {level = 3 : i64, scale = 45 : i64} : (!encoder, tensor<1024xf32>) -> !pt
    %ct_3587 = cheddar.mult_plain %ctx, %ct_3392, %pt_3586 : (!ctx, !ct, !pt) -> !ct
    %extracted_slice_3588 = tensor.extract_slice %inserted_slice_653[0, 0] [1, 1024] [1, 1] : tensor<1x1024xf32> to tensor<1024xf32>
    %pt_3589 = cheddar.encode %encoder, %extracted_slice_3588 {level = 3 : i64, scale = 45 : i64} : (!encoder, tensor<1024xf32>) -> !pt
    %ct_3590 = cheddar.mult_plain %ctx, %ct_3398, %pt_3589 : (!ctx, !ct, !pt) -> !ct
    %ct_3591 = cheddar.add %ctx, %ct_3569, %ct_3572 : (!ctx, !ct, !ct) -> !ct
    %ct_3592 = cheddar.add %ctx, %ct_3575, %ct_3578 : (!ctx, !ct, !ct) -> !ct
    %ct_3593 = cheddar.add %ctx, %ct_3591, %ct_3592 : (!ctx, !ct, !ct) -> !ct
    %ct_3594 = cheddar.add %ctx, %ct_3581, %ct_3584 : (!ctx, !ct, !ct) -> !ct
    %ct_3595 = cheddar.add %ctx, %ct_3587, %ct_3590 : (!ctx, !ct, !ct) -> !ct
    %ct_3596 = cheddar.add %ctx, %ct_3594, %ct_3595 : (!ctx, !ct, !ct) -> !ct
    %ct_3597 = cheddar.add %ctx, %ct_3593, %ct_3596 : (!ctx, !ct, !ct) -> !ct
    %evk_3598 = cheddar.get_rot_key %ui {distance = -1 : i64} : (!ui) -> !evk
    %ct_3599 = cheddar.hrot %ctx, %ct_3597, %evk_3598, %c48 : (!ctx, !ct, !evk, index) -> !ct
    %extracted_slice_3600 = tensor.extract_slice %inserted_slice_657[0, 0] [1, 1024] [1, 1] : tensor<1x1024xf32> to tensor<1024xf32>
    %pt_3601 = cheddar.encode %encoder, %extracted_slice_3600 {level = 3 : i64, scale = 45 : i64} : (!encoder, tensor<1024xf32>) -> !pt
    %ct_3602 = cheddar.mult_plain %ctx, %ct_3356, %pt_3601 : (!ctx, !ct, !pt) -> !ct
    %extracted_slice_3603 = tensor.extract_slice %inserted_slice_661[0, 0] [1, 1024] [1, 1] : tensor<1x1024xf32> to tensor<1024xf32>
    %pt_3604 = cheddar.encode %encoder, %extracted_slice_3603 {level = 3 : i64, scale = 45 : i64} : (!encoder, tensor<1024xf32>) -> !pt
    %ct_3605 = cheddar.mult_plain %ctx, %ct_3362, %pt_3604 : (!ctx, !ct, !pt) -> !ct
    %extracted_slice_3606 = tensor.extract_slice %inserted_slice_665[0, 0] [1, 1024] [1, 1] : tensor<1x1024xf32> to tensor<1024xf32>
    %pt_3607 = cheddar.encode %encoder, %extracted_slice_3606 {level = 3 : i64, scale = 45 : i64} : (!encoder, tensor<1024xf32>) -> !pt
    %ct_3608 = cheddar.mult_plain %ctx, %ct_3368, %pt_3607 : (!ctx, !ct, !pt) -> !ct
    %extracted_slice_3609 = tensor.extract_slice %inserted_slice_669[0, 0] [1, 1024] [1, 1] : tensor<1x1024xf32> to tensor<1024xf32>
    %pt_3610 = cheddar.encode %encoder, %extracted_slice_3609 {level = 3 : i64, scale = 45 : i64} : (!encoder, tensor<1024xf32>) -> !pt
    %ct_3611 = cheddar.mult_plain %ctx, %ct_3374, %pt_3610 : (!ctx, !ct, !pt) -> !ct
    %extracted_slice_3612 = tensor.extract_slice %inserted_slice_673[0, 0] [1, 1024] [1, 1] : tensor<1x1024xf32> to tensor<1024xf32>
    %pt_3613 = cheddar.encode %encoder, %extracted_slice_3612 {level = 3 : i64, scale = 45 : i64} : (!encoder, tensor<1024xf32>) -> !pt
    %ct_3614 = cheddar.mult_plain %ctx, %ct_3380, %pt_3613 : (!ctx, !ct, !pt) -> !ct
    %extracted_slice_3615 = tensor.extract_slice %inserted_slice_677[0, 0] [1, 1024] [1, 1] : tensor<1x1024xf32> to tensor<1024xf32>
    %pt_3616 = cheddar.encode %encoder, %extracted_slice_3615 {level = 3 : i64, scale = 45 : i64} : (!encoder, tensor<1024xf32>) -> !pt
    %ct_3617 = cheddar.mult_plain %ctx, %ct_3386, %pt_3616 : (!ctx, !ct, !pt) -> !ct
    %extracted_slice_3618 = tensor.extract_slice %inserted_slice_681[0, 0] [1, 1024] [1, 1] : tensor<1x1024xf32> to tensor<1024xf32>
    %pt_3619 = cheddar.encode %encoder, %extracted_slice_3618 {level = 3 : i64, scale = 45 : i64} : (!encoder, tensor<1024xf32>) -> !pt
    %ct_3620 = cheddar.mult_plain %ctx, %ct_3392, %pt_3619 : (!ctx, !ct, !pt) -> !ct
    %extracted_slice_3621 = tensor.extract_slice %inserted_slice_685[0, 0] [1, 1024] [1, 1] : tensor<1x1024xf32> to tensor<1024xf32>
    %pt_3622 = cheddar.encode %encoder, %extracted_slice_3621 {level = 3 : i64, scale = 45 : i64} : (!encoder, tensor<1024xf32>) -> !pt
    %ct_3623 = cheddar.mult_plain %ctx, %ct_3398, %pt_3622 : (!ctx, !ct, !pt) -> !ct
    %ct_3624 = cheddar.add %ctx, %ct_3602, %ct_3605 : (!ctx, !ct, !ct) -> !ct
    %ct_3625 = cheddar.add %ctx, %ct_3608, %ct_3611 : (!ctx, !ct, !ct) -> !ct
    %ct_3626 = cheddar.add %ctx, %ct_3624, %ct_3625 : (!ctx, !ct, !ct) -> !ct
    %ct_3627 = cheddar.add %ctx, %ct_3614, %ct_3617 : (!ctx, !ct, !ct) -> !ct
    %ct_3628 = cheddar.add %ctx, %ct_3620, %ct_3623 : (!ctx, !ct, !ct) -> !ct
    %ct_3629 = cheddar.add %ctx, %ct_3627, %ct_3628 : (!ctx, !ct, !ct) -> !ct
    %ct_3630 = cheddar.add %ctx, %ct_3626, %ct_3629 : (!ctx, !ct, !ct) -> !ct
    %evk_3631 = cheddar.get_rot_key %ui {distance = -1 : i64} : (!ui) -> !evk
    %ct_3632 = cheddar.hrot %ctx, %ct_3630, %evk_3631, %c56 : (!ctx, !ct, !evk, index) -> !ct
    %ct_3633 = cheddar.add %ctx, %ct_3359, %ct_3365 : (!ctx, !ct, !ct) -> !ct
    %ct_3634 = cheddar.add %ctx, %ct_3633, %ct_3371 : (!ctx, !ct, !ct) -> !ct
    %ct_3635 = cheddar.add %ctx, %ct_3377, %ct_3383 : (!ctx, !ct, !ct) -> !ct
    %ct_3636 = cheddar.add %ctx, %ct_3389, %ct_3395 : (!ctx, !ct, !ct) -> !ct
    %ct_3637 = cheddar.add %ctx, %ct_3635, %ct_3636 : (!ctx, !ct, !ct) -> !ct
    %ct_3638 = cheddar.add %ctx, %ct_3634, %ct_3637 : (!ctx, !ct, !ct) -> !ct
    %ct_3639 = cheddar.add %ctx, %ct_3401, %ct_3434 : (!ctx, !ct, !ct) -> !ct
    %ct_3640 = cheddar.add %ctx, %ct_3467, %ct_3500 : (!ctx, !ct, !ct) -> !ct
    %ct_3641 = cheddar.add %ctx, %ct_3639, %ct_3640 : (!ctx, !ct, !ct) -> !ct
    %ct_3642 = cheddar.add %ctx, %ct_3533, %ct_3566 : (!ctx, !ct, !ct) -> !ct
    %ct_3643 = cheddar.add %ctx, %ct_3599, %ct_3632 : (!ctx, !ct, !ct) -> !ct
    %ct_3644 = cheddar.add %ctx, %ct_3642, %ct_3643 : (!ctx, !ct, !ct) -> !ct
    %ct_3645 = cheddar.add %ctx, %ct_3641, %ct_3644 : (!ctx, !ct, !ct) -> !ct
    %ct_3646 = cheddar.add %ctx, %ct_3638, %ct_3645 : (!ctx, !ct, !ct) -> !ct
    %evk_3647 = cheddar.get_rot_key %ui {distance = -1 : i64} : (!ui) -> !evk
    %ct_3648 = cheddar.hrot %ctx, %ct_3646, %evk_3647, %c64 : (!ctx, !ct, !evk, index) -> !ct
    %ct_3649 = cheddar.add %ctx, %ct_3646, %ct_3648 : (!ctx, !ct, !ct) -> !ct
    %ct_3650 = cheddar.rescale %ctx, %ct_3649 : (!ctx, !ct) -> !ct
    %ct_3651 = cheddar.mult %ctx, %ct_3650, %ct_3650 : (!ctx, !ct, !ct) -> !ct
    %evk_3652 = cheddar.get_mult_key %ui : (!ui) -> !evk
    %ct_3653 = cheddar.relinearize %ctx, %ct_3651, %evk_3652 : (!ctx, !ct, !evk) -> !ct
    %ct_3654 = cheddar.rescale %ctx, %ct_3653 : (!ctx, !ct) -> !ct
    %extracted_slice_3655 = tensor.extract_slice %3[0, 0] [1, 1024] [1, 1] : tensor<16x1024xf32> to tensor<1024xf32>
    %pt_3656 = cheddar.encode %encoder, %extracted_slice_3655 {level = 1 : i64, scale = 45 : i64} : (!encoder, tensor<1024xf32>) -> !pt
    %ct_3657 = cheddar.mult_plain %ctx, %ct_3654, %pt_3656 : (!ctx, !ct, !pt) -> !ct
    %evk_3658 = cheddar.get_rot_key %ui {distance = -1 : i64} : (!ui) -> !evk
    %ct_3659 = cheddar.hrot %ctx, %ct_3653, %evk_3658, %c1 : (!ctx, !ct, !evk, index) -> !ct
    %ct_3660 = cheddar.rescale %ctx, %ct_3659 : (!ctx, !ct) -> !ct
    %extracted_slice_3661 = tensor.extract_slice %3[1, 0] [1, 1024] [1, 1] : tensor<16x1024xf32> to tensor<1024xf32>
    %pt_3662 = cheddar.encode %encoder, %extracted_slice_3661 {level = 1 : i64, scale = 45 : i64} : (!encoder, tensor<1024xf32>) -> !pt
    %ct_3663 = cheddar.mult_plain %ctx, %ct_3660, %pt_3662 : (!ctx, !ct, !pt) -> !ct
    %evk_3664 = cheddar.get_rot_key %ui {distance = -1 : i64} : (!ui) -> !evk
    %ct_3665 = cheddar.hrot %ctx, %ct_3653, %evk_3664, %c2 : (!ctx, !ct, !evk, index) -> !ct
    %ct_3666 = cheddar.rescale %ctx, %ct_3665 : (!ctx, !ct) -> !ct
    %extracted_slice_3667 = tensor.extract_slice %3[2, 0] [1, 1024] [1, 1] : tensor<16x1024xf32> to tensor<1024xf32>
    %pt_3668 = cheddar.encode %encoder, %extracted_slice_3667 {level = 1 : i64, scale = 45 : i64} : (!encoder, tensor<1024xf32>) -> !pt
    %ct_3669 = cheddar.mult_plain %ctx, %ct_3666, %pt_3668 : (!ctx, !ct, !pt) -> !ct
    %evk_3670 = cheddar.get_rot_key %ui {distance = -1 : i64} : (!ui) -> !evk
    %ct_3671 = cheddar.hrot %ctx, %ct_3653, %evk_3670, %c3 : (!ctx, !ct, !evk, index) -> !ct
    %ct_3672 = cheddar.rescale %ctx, %ct_3671 : (!ctx, !ct) -> !ct
    %extracted_slice_3673 = tensor.extract_slice %3[3, 0] [1, 1024] [1, 1] : tensor<16x1024xf32> to tensor<1024xf32>
    %pt_3674 = cheddar.encode %encoder, %extracted_slice_3673 {level = 1 : i64, scale = 45 : i64} : (!encoder, tensor<1024xf32>) -> !pt
    %ct_3675 = cheddar.mult_plain %ctx, %ct_3672, %pt_3674 : (!ctx, !ct, !pt) -> !ct
    %extracted_slice_3676 = tensor.extract_slice %inserted_slice_689[0, 0] [1, 1024] [1, 1] : tensor<1x1024xf32> to tensor<1024xf32>
    %pt_3677 = cheddar.encode %encoder, %extracted_slice_3676 {level = 1 : i64, scale = 45 : i64} : (!encoder, tensor<1024xf32>) -> !pt
    %ct_3678 = cheddar.mult_plain %ctx, %ct_3654, %pt_3677 : (!ctx, !ct, !pt) -> !ct
    %extracted_slice_3679 = tensor.extract_slice %inserted_slice_693[0, 0] [1, 1024] [1, 1] : tensor<1x1024xf32> to tensor<1024xf32>
    %pt_3680 = cheddar.encode %encoder, %extracted_slice_3679 {level = 1 : i64, scale = 45 : i64} : (!encoder, tensor<1024xf32>) -> !pt
    %ct_3681 = cheddar.mult_plain %ctx, %ct_3660, %pt_3680 : (!ctx, !ct, !pt) -> !ct
    %extracted_slice_3682 = tensor.extract_slice %inserted_slice_697[0, 0] [1, 1024] [1, 1] : tensor<1x1024xf32> to tensor<1024xf32>
    %pt_3683 = cheddar.encode %encoder, %extracted_slice_3682 {level = 1 : i64, scale = 45 : i64} : (!encoder, tensor<1024xf32>) -> !pt
    %ct_3684 = cheddar.mult_plain %ctx, %ct_3666, %pt_3683 : (!ctx, !ct, !pt) -> !ct
    %extracted_slice_3685 = tensor.extract_slice %inserted_slice_701[0, 0] [1, 1024] [1, 1] : tensor<1x1024xf32> to tensor<1024xf32>
    %pt_3686 = cheddar.encode %encoder, %extracted_slice_3685 {level = 1 : i64, scale = 45 : i64} : (!encoder, tensor<1024xf32>) -> !pt
    %ct_3687 = cheddar.mult_plain %ctx, %ct_3672, %pt_3686 : (!ctx, !ct, !pt) -> !ct
    %ct_3688 = cheddar.add %ctx, %ct_3678, %ct_3681 : (!ctx, !ct, !ct) -> !ct
    %ct_3689 = cheddar.add %ctx, %ct_3684, %ct_3687 : (!ctx, !ct, !ct) -> !ct
    %ct_3690 = cheddar.add %ctx, %ct_3688, %ct_3689 : (!ctx, !ct, !ct) -> !ct
    %evk_3691 = cheddar.get_rot_key %ui {distance = -1 : i64} : (!ui) -> !evk
    %ct_3692 = cheddar.hrot %ctx, %ct_3690, %evk_3691, %c4 : (!ctx, !ct, !evk, index) -> !ct
    %extracted_slice_3693 = tensor.extract_slice %inserted_slice_705[0, 0] [1, 1024] [1, 1] : tensor<1x1024xf32> to tensor<1024xf32>
    %pt_3694 = cheddar.encode %encoder, %extracted_slice_3693 {level = 1 : i64, scale = 45 : i64} : (!encoder, tensor<1024xf32>) -> !pt
    %ct_3695 = cheddar.mult_plain %ctx, %ct_3654, %pt_3694 : (!ctx, !ct, !pt) -> !ct
    %extracted_slice_3696 = tensor.extract_slice %inserted_slice_709[0, 0] [1, 1024] [1, 1] : tensor<1x1024xf32> to tensor<1024xf32>
    %pt_3697 = cheddar.encode %encoder, %extracted_slice_3696 {level = 1 : i64, scale = 45 : i64} : (!encoder, tensor<1024xf32>) -> !pt
    %ct_3698 = cheddar.mult_plain %ctx, %ct_3660, %pt_3697 : (!ctx, !ct, !pt) -> !ct
    %extracted_slice_3699 = tensor.extract_slice %inserted_slice_713[0, 0] [1, 1024] [1, 1] : tensor<1x1024xf32> to tensor<1024xf32>
    %pt_3700 = cheddar.encode %encoder, %extracted_slice_3699 {level = 1 : i64, scale = 45 : i64} : (!encoder, tensor<1024xf32>) -> !pt
    %ct_3701 = cheddar.mult_plain %ctx, %ct_3666, %pt_3700 : (!ctx, !ct, !pt) -> !ct
    %extracted_slice_3702 = tensor.extract_slice %inserted_slice_717[0, 0] [1, 1024] [1, 1] : tensor<1x1024xf32> to tensor<1024xf32>
    %pt_3703 = cheddar.encode %encoder, %extracted_slice_3702 {level = 1 : i64, scale = 45 : i64} : (!encoder, tensor<1024xf32>) -> !pt
    %ct_3704 = cheddar.mult_plain %ctx, %ct_3672, %pt_3703 : (!ctx, !ct, !pt) -> !ct
    %ct_3705 = cheddar.add %ctx, %ct_3695, %ct_3698 : (!ctx, !ct, !ct) -> !ct
    %ct_3706 = cheddar.add %ctx, %ct_3701, %ct_3704 : (!ctx, !ct, !ct) -> !ct
    %ct_3707 = cheddar.add %ctx, %ct_3705, %ct_3706 : (!ctx, !ct, !ct) -> !ct
    %evk_3708 = cheddar.get_rot_key %ui {distance = -1 : i64} : (!ui) -> !evk
    %ct_3709 = cheddar.hrot %ctx, %ct_3707, %evk_3708, %c8 : (!ctx, !ct, !evk, index) -> !ct
    %extracted_slice_3710 = tensor.extract_slice %inserted_slice_721[0, 0] [1, 1024] [1, 1] : tensor<1x1024xf32> to tensor<1024xf32>
    %pt_3711 = cheddar.encode %encoder, %extracted_slice_3710 {level = 1 : i64, scale = 45 : i64} : (!encoder, tensor<1024xf32>) -> !pt
    %ct_3712 = cheddar.mult_plain %ctx, %ct_3654, %pt_3711 : (!ctx, !ct, !pt) -> !ct
    %extracted_slice_3713 = tensor.extract_slice %inserted_slice_725[0, 0] [1, 1024] [1, 1] : tensor<1x1024xf32> to tensor<1024xf32>
    %pt_3714 = cheddar.encode %encoder, %extracted_slice_3713 {level = 1 : i64, scale = 45 : i64} : (!encoder, tensor<1024xf32>) -> !pt
    %ct_3715 = cheddar.mult_plain %ctx, %ct_3660, %pt_3714 : (!ctx, !ct, !pt) -> !ct
    %extracted_slice_3716 = tensor.extract_slice %inserted_slice_729[0, 0] [1, 1024] [1, 1] : tensor<1x1024xf32> to tensor<1024xf32>
    %pt_3717 = cheddar.encode %encoder, %extracted_slice_3716 {level = 1 : i64, scale = 45 : i64} : (!encoder, tensor<1024xf32>) -> !pt
    %ct_3718 = cheddar.mult_plain %ctx, %ct_3666, %pt_3717 : (!ctx, !ct, !pt) -> !ct
    %extracted_slice_3719 = tensor.extract_slice %inserted_slice_733[0, 0] [1, 1024] [1, 1] : tensor<1x1024xf32> to tensor<1024xf32>
    %pt_3720 = cheddar.encode %encoder, %extracted_slice_3719 {level = 1 : i64, scale = 45 : i64} : (!encoder, tensor<1024xf32>) -> !pt
    %ct_3721 = cheddar.mult_plain %ctx, %ct_3672, %pt_3720 : (!ctx, !ct, !pt) -> !ct
    %ct_3722 = cheddar.add %ctx, %ct_3712, %ct_3715 : (!ctx, !ct, !ct) -> !ct
    %ct_3723 = cheddar.add %ctx, %ct_3718, %ct_3721 : (!ctx, !ct, !ct) -> !ct
    %ct_3724 = cheddar.add %ctx, %ct_3722, %ct_3723 : (!ctx, !ct, !ct) -> !ct
    %evk_3725 = cheddar.get_rot_key %ui {distance = -1 : i64} : (!ui) -> !evk
    %ct_3726 = cheddar.hrot %ctx, %ct_3724, %evk_3725, %c12 : (!ctx, !ct, !evk, index) -> !ct
    %ct_3727 = cheddar.add %ctx, %ct_3657, %ct_3663 : (!ctx, !ct, !ct) -> !ct
    %ct_3728 = cheddar.add %ctx, %ct_3727, %ct_3669 : (!ctx, !ct, !ct) -> !ct
    %ct_3729 = cheddar.add %ctx, %ct_3675, %ct_3692 : (!ctx, !ct, !ct) -> !ct
    %ct_3730 = cheddar.add %ctx, %ct_3709, %ct_3726 : (!ctx, !ct, !ct) -> !ct
    %ct_3731 = cheddar.add %ctx, %ct_3729, %ct_3730 : (!ctx, !ct, !ct) -> !ct
    %ct_3732 = cheddar.add %ctx, %ct_3728, %ct_3731 : (!ctx, !ct, !ct) -> !ct
    %evk_3733 = cheddar.get_rot_key %ui {distance = -1 : i64} : (!ui) -> !evk
    %ct_3734 = cheddar.hrot %ctx, %ct_3732, %evk_3733, %c32 : (!ctx, !ct, !evk, index) -> !ct
    %ct_3735 = cheddar.add %ctx, %ct_3732, %ct_3734 : (!ctx, !ct, !ct) -> !ct
    %evk_3736 = cheddar.get_rot_key %ui {distance = -1 : i64} : (!ui) -> !evk
    %ct_3737 = cheddar.hrot %ctx, %ct_3735, %evk_3736, %c16 : (!ctx, !ct, !evk, index) -> !ct
    %ct_3738 = cheddar.add %ctx, %ct_3735, %ct_3737 : (!ctx, !ct, !ct) -> !ct
    %5 = tensor.empty() : tensor<1x!ct>
    %ct_3739 = cheddar.rescale %ctx, %ct_3738 : (!ctx, !ct) -> !ct
    %inserted = tensor.insert %ct_3739 into %5[%c0] : tensor<1x!ct>
    return %inserted : tensor<1x!ct>
  }
  func.func @alexnet_tiny__encrypt__arg0(%ctx: !ctx, %encoder: !encoder, %ui: !ui, %arg0: tensor<1x3x16x16xf32>, %ui_0: !ui) -> tensor<1x!ct> attributes {client.enc_func = {func_name = "alexnet_tiny", index = 0 : i64}} {
    %c0 = arith.constant 0 : index
    %c16_i32 = arith.constant 16 : i32
    %c15_i32 = arith.constant 15 : i32
    %c-15_i32 = arith.constant -15 : i32
    %c256_i32 = arith.constant 256 : i32
    %c255_i32 = arith.constant 255 : i32
    %cst = arith.constant dense<0.000000e+00> : tensor<1x1024xf32>
    %c0_i32 = arith.constant 0 : i32
    %c1_i32 = arith.constant 1 : i32
    %c768_i32 = arith.constant 768 : i32
    %0 = scf.for %arg1 = %c0_i32 to %c768_i32 step %c1_i32 iter_args(%arg2 = %cst) -> (tensor<1x1024xf32>)  : i32 {
      %1 = arith.muli %arg1, %c255_i32 : i32
      %2 = arith.addi %1, %c255_i32 : i32
      %3 = arith.divsi %2, %c256_i32 : i32
      %4 = arith.subi %arg1, %3 : i32
      %5 = arith.muli %arg1, %c-15_i32 : i32
      %6 = arith.muli %arg1, %c15_i32 : i32
      %7 = arith.addi %6, %c15_i32 : i32
      %8 = arith.divsi %7, %c16_i32 : i32
      %9 = arith.subi %5, %8 : i32
      %10 = arith.muli %3, %c16_i32 : i32
      %11 = arith.addi %9, %10 : i32
      %12 = arith.remsi %arg1, %c16_i32 : i32
      %13 = arith.index_cast %4 : i32 to index
      %14 = arith.index_cast %11 : i32 to index
      %15 = arith.index_cast %12 : i32 to index
      %extracted = tensor.extract %arg0[%c0, %13, %14, %15] : tensor<1x3x16x16xf32>
      %16 = arith.index_cast %arg1 : i32 to index
      %inserted = tensor.insert %extracted into %arg2[%c0, %16] : tensor<1x1024xf32>
      scf.yield %inserted : tensor<1x1024xf32>
    }
    %extracted_slice = tensor.extract_slice %0[0, 0] [1, 1024] [1, 1] : tensor<1x1024xf32> to tensor<1024xf32>
    %pt = cheddar.encode %encoder, %extracted_slice {level = 7 : i64, scale = 45 : i64} : (!encoder, tensor<1024xf32>) -> !pt
    %ct = cheddar.encrypt %ui, %pt : (!ui, !pt) -> !ct
    %from_elements = tensor.from_elements %ct : tensor<1x!ct>
    return %from_elements : tensor<1x!ct>
  }
  func.func @alexnet_tiny__decrypt__result0(%ctx: !ctx, %encoder: !encoder, %ui: !ui, %arg0: tensor<1x!ct>, %ui_0: !ui) -> tensor<10xf32> attributes {client.dec_func = {func_name = "alexnet_tiny", index = 0 : i64}} {
    %c0 = arith.constant 0 : index
    %c1024_i32 = arith.constant 1024 : i32
    %c16_i32 = arith.constant 16 : i32
    %c6_i32 = arith.constant 6 : i32
    %c1_i32 = arith.constant 1 : i32
    %c0_i32 = arith.constant 0 : i32
    %cst = arith.constant dense<0.000000e+00> : tensor<10xf32>
    %extracted = tensor.extract %arg0[%c0] : tensor<1x!ct>
    %pt = cheddar.decrypt %ui, %extracted : (!ui, !ct) -> !pt
    %0 = cheddar.decode %encoder, %pt : (!encoder, !pt) -> tensor<1x1024xf32>
    %1 = scf.for %arg1 = %c0_i32 to %c1024_i32 step %c1_i32 iter_args(%arg2 = %cst) -> (tensor<10xf32>)  : i32 {
      %2 = arith.addi %arg1, %c6_i32 : i32
      %3 = arith.remsi %2, %c16_i32 : i32
      %4 = arith.cmpi sge, %3, %c6_i32 : i32
      %5 = scf.if %4 -> (tensor<10xf32>) {
        %6 = arith.remsi %arg1, %c16_i32 : i32
        %7 = arith.index_cast %arg1 : i32 to index
        %extracted_1 = tensor.extract %0[%c0, %7] : tensor<1x1024xf32>
        %8 = arith.index_cast %6 : i32 to index
        %inserted = tensor.insert %extracted_1 into %arg2[%8] : tensor<10xf32>
        scf.yield %inserted : tensor<10xf32>
      } else {
        scf.yield %arg2 : tensor<10xf32>
      }
      scf.yield %5 : tensor<10xf32>
    }
    return %1 : tensor<10xf32>
  }
}

