!ct = !cheddar.ciphertext
!ctx = !cheddar.context
!encoder = !cheddar.encoder
!evk = !cheddar.eval_key
!pt = !cheddar.plaintext
!ui = !cheddar.user_interface
#layout = #tensor_ext.layout<"{ [i0] -> [ct, slot] : ct = 0 and (-i0 + slot) mod 16 = 0 and 0 <= i0 <= 15 and 0 <= slot <= 1023 }">
#original_type = #tensor_ext.original_type<originalType = tensor<16xf32>, layout = #layout>
module attributes {cheddar.P = array<i64: 1152921504606994433>, cheddar.Q = array<i64: 36028797018652673, 35184372121601>, cheddar.logDefaultScale = 45 : i64, cheddar.logN = 13 : i64, scheme.actual_slot_count = 4096 : i64, scheme.requested_slot_count = 1024 : i64} {
  func.func private @_assign_layout_16910372757803757633() -> tensor<1x1024xf32> attributes {client.pack_func = {func_name = "matvec"}} {
    %c0 = arith.constant 0 : index
    %c16_i32 = arith.constant 16 : i32
    %cst = arith.constant dense<0.000000e+00> : tensor<1x1024xf32>
    %c0_i32 = arith.constant 0 : i32
    %c1_i32 = arith.constant 1 : i32
    %c1024_i32 = arith.constant 1024 : i32
    %cst_0 = arith.constant dense<[… > : tensor<16xf32>
    %0 = scf.for %arg0 = %c0_i32 to %c1024_i32 step %c1_i32 iter_args(%arg1 = %cst) -> (tensor<1x1024xf32>)  : i32 {
      %1 = arith.remsi %arg0, %c16_i32 : i32
      %2 = arith.index_cast %1 : i32 to index
      %extracted = tensor.extract %cst_0[%2] : tensor<16xf32>
      %3 = arith.index_cast %arg0 : i32 to index
      %inserted = tensor.insert %extracted into %arg1[%c0, %3] : tensor<1x1024xf32>
      scf.yield %inserted : tensor<1x1024xf32>
    }
    return %0 : tensor<1x1024xf32>
  }
  func.func private @_assign_layout_1535064765322952764() -> tensor<16x1024xf32> attributes {client.pack_func = {func_name = "matvec"}} {
    %c1024_i32 = arith.constant 1024 : i32
    %c16_i32 = arith.constant 16 : i32
    %cst = arith.constant dense<0.000000e+00> : tensor<16x1024xf32>
    %c0_i32 = arith.constant 0 : i32
    %c1_i32 = arith.constant 1 : i32
    %cst_0 = arith.constant dense<"…"> : tensor<16x16xf32>
    %0 = scf.for %arg0 = %c0_i32 to %c16_i32 step %c1_i32 iter_args(%arg1 = %cst) -> (tensor<16x1024xf32>)  : i32 {
      %1 = scf.for %arg2 = %c0_i32 to %c1024_i32 step %c1_i32 iter_args(%arg3 = %arg1) -> (tensor<16x1024xf32>)  : i32 {
        %2 = arith.remsi %arg2, %c16_i32 : i32
        %3 = arith.addi %arg0, %arg2 : i32
        %4 = arith.remsi %3, %c16_i32 : i32
        %5 = arith.index_cast %2 : i32 to index
        %6 = arith.index_cast %4 : i32 to index
        %extracted = tensor.extract %cst_0[%5, %6] : tensor<16x16xf32>
        %7 = arith.index_cast %arg0 : i32 to index
        %8 = arith.index_cast %arg2 : i32 to index
        %inserted = tensor.insert %extracted into %arg3[%7, %8] : tensor<16x1024xf32>
        scf.yield %inserted : tensor<16x1024xf32>
      }
      scf.yield %1 : tensor<16x1024xf32>
    }
    return %0 : tensor<16x1024xf32>
  }
  func.func @matvec(%ctx: !ctx, %encoder: !encoder, %ui: !ui, %arg0: tensor<1x!ct> {tensor_ext.original_type = #original_type}) -> (tensor<1x!ct> {tensor_ext.original_type = #original_type}) {
    %c12 = arith.constant 12 : index
    %c8 = arith.constant 8 : index
    %c4 = arith.constant 4 : index
    %c3 = arith.constant 3 : index
    %c2 = arith.constant 2 : index
    %c1 = arith.constant 1 : index
    %c0 = arith.constant 0 : index
    %0 = call @_assign_layout_1535064765322952764() : () -> tensor<16x1024xf32>
    %1 = call @_assign_layout_16910372757803757633() : () -> tensor<1x1024xf32>
    %extracted_slice = tensor.extract_slice %0[4, 0] [1, 1020] [1, 1] : tensor<16x1024xf32> to tensor<1x1020xf32>
    %extracted_slice_0 = tensor.extract_slice %0[4, 1020] [1, 4] [1, 1] : tensor<16x1024xf32> to tensor<1x4xf32>
    %2 = tensor.empty() : tensor<1x1024xf32>
    %inserted_slice = tensor.insert_slice %extracted_slice into %2[0, 4] [1, 1020] [1, 1] : tensor<1x1020xf32> into tensor<1x1024xf32>
    %inserted_slice_1 = tensor.insert_slice %extracted_slice_0 into %inserted_slice[0, 0] [1, 4] [1, 1] : tensor<1x4xf32> into tensor<1x1024xf32>
    %extracted_slice_2 = tensor.extract_slice %0[5, 0] [1, 1020] [1, 1] : tensor<16x1024xf32> to tensor<1x1020xf32>
    %extracted_slice_3 = tensor.extract_slice %0[5, 1020] [1, 4] [1, 1] : tensor<16x1024xf32> to tensor<1x4xf32>
    %inserted_slice_4 = tensor.insert_slice %extracted_slice_2 into %2[0, 4] [1, 1020] [1, 1] : tensor<1x1020xf32> into tensor<1x1024xf32>
    %inserted_slice_5 = tensor.insert_slice %extracted_slice_3 into %inserted_slice_4[0, 0] [1, 4] [1, 1] : tensor<1x4xf32> into tensor<1x1024xf32>
    %extracted_slice_6 = tensor.extract_slice %0[6, 0] [1, 1020] [1, 1] : tensor<16x1024xf32> to tensor<1x1020xf32>
    %extracted_slice_7 = tensor.extract_slice %0[6, 1020] [1, 4] [1, 1] : tensor<16x1024xf32> to tensor<1x4xf32>
    %inserted_slice_8 = tensor.insert_slice %extracted_slice_6 into %2[0, 4] [1, 1020] [1, 1] : tensor<1x1020xf32> into tensor<1x1024xf32>
    %inserted_slice_9 = tensor.insert_slice %extracted_slice_7 into %inserted_slice_8[0, 0] [1, 4] [1, 1] : tensor<1x4xf32> into tensor<1x1024xf32>
    %extracted_slice_10 = tensor.extract_slice %0[7, 0] [1, 1020] [1, 1] : tensor<16x1024xf32> to tensor<1x1020xf32>
    %extracted_slice_11 = tensor.extract_slice %0[7, 1020] [1, 4] [1, 1] : tensor<16x1024xf32> to tensor<1x4xf32>
    %inserted_slice_12 = tensor.insert_slice %extracted_slice_10 into %2[0, 4] [1, 1020] [1, 1] : tensor<1x1020xf32> into tensor<1x1024xf32>
    %inserted_slice_13 = tensor.insert_slice %extracted_slice_11 into %inserted_slice_12[0, 0] [1, 4] [1, 1] : tensor<1x4xf32> into tensor<1x1024xf32>
    %extracted_slice_14 = tensor.extract_slice %0[8, 0] [1, 1016] [1, 1] : tensor<16x1024xf32> to tensor<1x1016xf32>
    %extracted_slice_15 = tensor.extract_slice %0[8, 1016] [1, 8] [1, 1] : tensor<16x1024xf32> to tensor<1x8xf32>
    %inserted_slice_16 = tensor.insert_slice %extracted_slice_14 into %2[0, 8] [1, 1016] [1, 1] : tensor<1x1016xf32> into tensor<1x1024xf32>
    %inserted_slice_17 = tensor.insert_slice %extracted_slice_15 into %inserted_slice_16[0, 0] [1, 8] [1, 1] : tensor<1x8xf32> into tensor<1x1024xf32>
    %extracted_slice_18 = tensor.extract_slice %0[9, 0] [1, 1016] [1, 1] : tensor<16x1024xf32> to tensor<1x1016xf32>
    %extracted_slice_19 = tensor.extract_slice %0[9, 1016] [1, 8] [1, 1] : tensor<16x1024xf32> to tensor<1x8xf32>
    %inserted_slice_20 = tensor.insert_slice %extracted_slice_18 into %2[0, 8] [1, 1016] [1, 1] : tensor<1x1016xf32> into tensor<1x1024xf32>
    %inserted_slice_21 = tensor.insert_slice %extracted_slice_19 into %inserted_slice_20[0, 0] [1, 8] [1, 1] : tensor<1x8xf32> into tensor<1x1024xf32>
    %extracted_slice_22 = tensor.extract_slice %0[10, 0] [1, 1016] [1, 1] : tensor<16x1024xf32> to tensor<1x1016xf32>
    %extracted_slice_23 = tensor.extract_slice %0[10, 1016] [1, 8] [1, 1] : tensor<16x1024xf32> to tensor<1x8xf32>
    %inserted_slice_24 = tensor.insert_slice %extracted_slice_22 into %2[0, 8] [1, 1016] [1, 1] : tensor<1x1016xf32> into tensor<1x1024xf32>
    %inserted_slice_25 = tensor.insert_slice %extracted_slice_23 into %inserted_slice_24[0, 0] [1, 8] [1, 1] : tensor<1x8xf32> into tensor<1x1024xf32>
    %extracted_slice_26 = tensor.extract_slice %0[11, 0] [1, 1016] [1, 1] : tensor<16x1024xf32> to tensor<1x1016xf32>
    %extracted_slice_27 = tensor.extract_slice %0[11, 1016] [1, 8] [1, 1] : tensor<16x1024xf32> to tensor<1x8xf32>
    %inserted_slice_28 = tensor.insert_slice %extracted_slice_26 into %2[0, 8] [1, 1016] [1, 1] : tensor<1x1016xf32> into tensor<1x1024xf32>
    %inserted_slice_29 = tensor.insert_slice %extracted_slice_27 into %inserted_slice_28[0, 0] [1, 8] [1, 1] : tensor<1x8xf32> into tensor<1x1024xf32>
    %extracted_slice_30 = tensor.extract_slice %0[12, 0] [1, 1012] [1, 1] : tensor<16x1024xf32> to tensor<1x1012xf32>
    %extracted_slice_31 = tensor.extract_slice %0[12, 1012] [1, 12] [1, 1] : tensor<16x1024xf32> to tensor<1x12xf32>
    %inserted_slice_32 = tensor.insert_slice %extracted_slice_30 into %2[0, 12] [1, 1012] [1, 1] : tensor<1x1012xf32> into tensor<1x1024xf32>
    %inserted_slice_33 = tensor.insert_slice %extracted_slice_31 into %inserted_slice_32[0, 0] [1, 12] [1, 1] : tensor<1x12xf32> into tensor<1x1024xf32>
    %extracted_slice_34 = tensor.extract_slice %0[13, 0] [1, 1012] [1, 1] : tensor<16x1024xf32> to tensor<1x1012xf32>
    %extracted_slice_35 = tensor.extract_slice %0[13, 1012] [1, 12] [1, 1] : tensor<16x1024xf32> to tensor<1x12xf32>
    %inserted_slice_36 = tensor.insert_slice %extracted_slice_34 into %2[0, 12] [1, 1012] [1, 1] : tensor<1x1012xf32> into tensor<1x1024xf32>
    %inserted_slice_37 = tensor.insert_slice %extracted_slice_35 into %inserted_slice_36[0, 0] [1, 12] [1, 1] : tensor<1x12xf32> into tensor<1x1024xf32>
    %extracted_slice_38 = tensor.extract_slice %0[14, 0] [1, 1012] [1, 1] : tensor<16x1024xf32> to tensor<1x1012xf32>
    %extracted_slice_39 = tensor.extract_slice %0[14, 1012] [1, 12] [1, 1] : tensor<16x1024xf32> to tensor<1x12xf32>
    %inserted_slice_40 = tensor.insert_slice %extracted_slice_38 into %2[0, 12] [1, 1012] [1, 1] : tensor<1x1012xf32> into tensor<1x1024xf32>
    %inserted_slice_41 = tensor.insert_slice %extracted_slice_39 into %inserted_slice_40[0, 0] [1, 12] [1, 1] : tensor<1x12xf32> into tensor<1x1024xf32>
    %extracted_slice_42 = tensor.extract_slice %0[15, 0] [1, 1012] [1, 1] : tensor<16x1024xf32> to tensor<1x1012xf32>
    %extracted_slice_43 = tensor.extract_slice %0[15, 1012] [1, 12] [1, 1] : tensor<16x1024xf32> to tensor<1x12xf32>
    %inserted_slice_44 = tensor.insert_slice %extracted_slice_42 into %2[0, 12] [1, 1012] [1, 1] : tensor<1x1012xf32> into tensor<1x1024xf32>
    %inserted_slice_45 = tensor.insert_slice %extracted_slice_43 into %inserted_slice_44[0, 0] [1, 12] [1, 1] : tensor<1x12xf32> into tensor<1x1024xf32>
    %extracted_slice_46 = tensor.extract_slice %0[0, 0] [1, 1024] [1, 1] : tensor<16x1024xf32> to tensor<1024xf32>
    %pt = cheddar.encode %encoder, %extracted_slice_46 {level = 0 : i64, scale = 45 : i64} : (!encoder, tensor<1024xf32>) -> !pt
    %extracted = tensor.extract %arg0[%c0] : tensor<1x!ct>
    %ct = cheddar.mult_plain %ctx, %extracted, %pt : (!ctx, !ct, !pt) -> !ct
    %evk = cheddar.get_rot_key %ui {distance = -1 : i64} : (!ui) -> !evk
    %ct_47 = cheddar.hrot %ctx, %extracted, %evk, %c1 : (!ctx, !ct, !evk, index) -> !ct
    %extracted_slice_48 = tensor.extract_slice %0[1, 0] [1, 1024] [1, 1] : tensor<16x1024xf32> to tensor<1024xf32>
    %pt_49 = cheddar.encode %encoder, %extracted_slice_48 {level = 0 : i64, scale = 45 : i64} : (!encoder, tensor<1024xf32>) -> !pt
    %ct_50 = cheddar.mult_plain %ctx, %ct_47, %pt_49 : (!ctx, !ct, !pt) -> !ct
    %evk_51 = cheddar.get_rot_key %ui {distance = -1 : i64} : (!ui) -> !evk
    %ct_52 = cheddar.hrot %ctx, %extracted, %evk_51, %c2 : (!ctx, !ct, !evk, index) -> !ct
    %extracted_slice_53 = tensor.extract_slice %0[2, 0] [1, 1024] [1, 1] : tensor<16x1024xf32> to tensor<1024xf32>
    %pt_54 = cheddar.encode %encoder, %extracted_slice_53 {level = 0 : i64, scale = 45 : i64} : (!encoder, tensor<1024xf32>) -> !pt
    %ct_55 = cheddar.mult_plain %ctx, %ct_52, %pt_54 : (!ctx, !ct, !pt) -> !ct
    %evk_56 = cheddar.get_rot_key %ui {distance = -1 : i64} : (!ui) -> !evk
    %ct_57 = cheddar.hrot %ctx, %extracted, %evk_56, %c3 : (!ctx, !ct, !evk, index) -> !ct
    %extracted_slice_58 = tensor.extract_slice %0[3, 0] [1, 1024] [1, 1] : tensor<16x1024xf32> to tensor<1024xf32>
    %pt_59 = cheddar.encode %encoder, %extracted_slice_58 {level = 0 : i64, scale = 45 : i64} : (!encoder, tensor<1024xf32>) -> !pt
    %ct_60 = cheddar.mult_plain %ctx, %ct_57, %pt_59 : (!ctx, !ct, !pt) -> !ct
    %extracted_slice_61 = tensor.extract_slice %inserted_slice_1[0, 0] [1, 1024] [1, 1] : tensor<1x1024xf32> to tensor<1024xf32>
    %pt_62 = cheddar.encode %encoder, %extracted_slice_61 {level = 0 : i64, scale = 45 : i64} : (!encoder, tensor<1024xf32>) -> !pt
    %ct_63 = cheddar.mult_plain %ctx, %extracted, %pt_62 : (!ctx, !ct, !pt) -> !ct
    %extracted_slice_64 = tensor.extract_slice %inserted_slice_5[0, 0] [1, 1024] [1, 1] : tensor<1x1024xf32> to tensor<1024xf32>
    %pt_65 = cheddar.encode %encoder, %extracted_slice_64 {level = 0 : i64, scale = 45 : i64} : (!encoder, tensor<1024xf32>) -> !pt
    %ct_66 = cheddar.mult_plain %ctx, %ct_47, %pt_65 : (!ctx, !ct, !pt) -> !ct
    %extracted_slice_67 = tensor.extract_slice %inserted_slice_9[0, 0] [1, 1024] [1, 1] : tensor<1x1024xf32> to tensor<1024xf32>
    %pt_68 = cheddar.encode %encoder, %extracted_slice_67 {level = 0 : i64, scale = 45 : i64} : (!encoder, tensor<1024xf32>) -> !pt
    %ct_69 = cheddar.mult_plain %ctx, %ct_52, %pt_68 : (!ctx, !ct, !pt) -> !ct
    %extracted_slice_70 = tensor.extract_slice %inserted_slice_13[0, 0] [1, 1024] [1, 1] : tensor<1x1024xf32> to tensor<1024xf32>
    %pt_71 = cheddar.encode %encoder, %extracted_slice_70 {level = 0 : i64, scale = 45 : i64} : (!encoder, tensor<1024xf32>) -> !pt
    %ct_72 = cheddar.mult_plain %ctx, %ct_57, %pt_71 : (!ctx, !ct, !pt) -> !ct
    %ct_73 = cheddar.add %ctx, %ct_63, %ct_66 : (!ctx, !ct, !ct) -> !ct
    %ct_74 = cheddar.add %ctx, %ct_69, %ct_72 : (!ctx, !ct, !ct) -> !ct
    %ct_75 = cheddar.add %ctx, %ct_73, %ct_74 : (!ctx, !ct, !ct) -> !ct
    %evk_76 = cheddar.get_rot_key %ui {distance = -1 : i64} : (!ui) -> !evk
    %ct_77 = cheddar.hrot %ctx, %ct_75, %evk_76, %c4 : (!ctx, !ct, !evk, index) -> !ct
    %extracted_slice_78 = tensor.extract_slice %inserted_slice_17[0, 0] [1, 1024] [1, 1] : tensor<1x1024xf32> to tensor<1024xf32>
    %pt_79 = cheddar.encode %encoder, %extracted_slice_78 {level = 0 : i64, scale = 45 : i64} : (!encoder, tensor<1024xf32>) -> !pt
    %ct_80 = cheddar.mult_plain %ctx, %extracted, %pt_79 : (!ctx, !ct, !pt) -> !ct
    %extracted_slice_81 = tensor.extract_slice %inserted_slice_21[0, 0] [1, 1024] [1, 1] : tensor<1x1024xf32> to tensor<1024xf32>
    %pt_82 = cheddar.encode %encoder, %extracted_slice_81 {level = 0 : i64, scale = 45 : i64} : (!encoder, tensor<1024xf32>) -> !pt
    %ct_83 = cheddar.mult_plain %ctx, %ct_47, %pt_82 : (!ctx, !ct, !pt) -> !ct
    %extracted_slice_84 = tensor.extract_slice %inserted_slice_25[0, 0] [1, 1024] [1, 1] : tensor<1x1024xf32> to tensor<1024xf32>
    %pt_85 = cheddar.encode %encoder, %extracted_slice_84 {level = 0 : i64, scale = 45 : i64} : (!encoder, tensor<1024xf32>) -> !pt
    %ct_86 = cheddar.mult_plain %ctx, %ct_52, %pt_85 : (!ctx, !ct, !pt) -> !ct
    %extracted_slice_87 = tensor.extract_slice %inserted_slice_29[0, 0] [1, 1024] [1, 1] : tensor<1x1024xf32> to tensor<1024xf32>
    %pt_88 = cheddar.encode %encoder, %extracted_slice_87 {level = 0 : i64, scale = 45 : i64} : (!encoder, tensor<1024xf32>) -> !pt
    %ct_89 = cheddar.mult_plain %ctx, %ct_57, %pt_88 : (!ctx, !ct, !pt) -> !ct
    %ct_90 = cheddar.add %ctx, %ct_80, %ct_83 : (!ctx, !ct, !ct) -> !ct
    %ct_91 = cheddar.add %ctx, %ct_86, %ct_89 : (!ctx, !ct, !ct) -> !ct
    %ct_92 = cheddar.add %ctx, %ct_90, %ct_91 : (!ctx, !ct, !ct) -> !ct
    %evk_93 = cheddar.get_rot_key %ui {distance = -1 : i64} : (!ui) -> !evk
    %ct_94 = cheddar.hrot %ctx, %ct_92, %evk_93, %c8 : (!ctx, !ct, !evk, index) -> !ct
    %extracted_slice_95 = tensor.extract_slice %inserted_slice_33[0, 0] [1, 1024] [1, 1] : tensor<1x1024xf32> to tensor<1024xf32>
    %pt_96 = cheddar.encode %encoder, %extracted_slice_95 {level = 0 : i64, scale = 45 : i64} : (!encoder, tensor<1024xf32>) -> !pt
    %ct_97 = cheddar.mult_plain %ctx, %extracted, %pt_96 : (!ctx, !ct, !pt) -> !ct
    %extracted_slice_98 = tensor.extract_slice %inserted_slice_37[0, 0] [1, 1024] [1, 1] : tensor<1x1024xf32> to tensor<1024xf32>
    %pt_99 = cheddar.encode %encoder, %extracted_slice_98 {level = 0 : i64, scale = 45 : i64} : (!encoder, tensor<1024xf32>) -> !pt
    %ct_100 = cheddar.mult_plain %ctx, %ct_47, %pt_99 : (!ctx, !ct, !pt) -> !ct
    %extracted_slice_101 = tensor.extract_slice %inserted_slice_41[0, 0] [1, 1024] [1, 1] : tensor<1x1024xf32> to tensor<1024xf32>
    %pt_102 = cheddar.encode %encoder, %extracted_slice_101 {level = 0 : i64, scale = 45 : i64} : (!encoder, tensor<1024xf32>) -> !pt
    %ct_103 = cheddar.mult_plain %ctx, %ct_52, %pt_102 : (!ctx, !ct, !pt) -> !ct
    %extracted_slice_104 = tensor.extract_slice %inserted_slice_45[0, 0] [1, 1024] [1, 1] : tensor<1x1024xf32> to tensor<1024xf32>
    %pt_105 = cheddar.encode %encoder, %extracted_slice_104 {level = 0 : i64, scale = 45 : i64} : (!encoder, tensor<1024xf32>) -> !pt
    %ct_106 = cheddar.mult_plain %ctx, %ct_57, %pt_105 : (!ctx, !ct, !pt) -> !ct
    %ct_107 = cheddar.add %ctx, %ct_97, %ct_100 : (!ctx, !ct, !ct) -> !ct
    %ct_108 = cheddar.add %ctx, %ct_103, %ct_106 : (!ctx, !ct, !ct) -> !ct
    %ct_109 = cheddar.add %ctx, %ct_107, %ct_108 : (!ctx, !ct, !ct) -> !ct
    %evk_110 = cheddar.get_rot_key %ui {distance = -1 : i64} : (!ui) -> !evk
    %ct_111 = cheddar.hrot %ctx, %ct_109, %evk_110, %c12 : (!ctx, !ct, !evk, index) -> !ct
    %ct_112 = cheddar.add %ctx, %ct, %ct_50 : (!ctx, !ct, !ct) -> !ct
    %ct_113 = cheddar.add %ctx, %ct_55, %ct_60 : (!ctx, !ct, !ct) -> !ct
    %ct_114 = cheddar.add %ctx, %ct_112, %ct_113 : (!ctx, !ct, !ct) -> !ct
    %ct_115 = cheddar.add %ctx, %ct_77, %ct_94 : (!ctx, !ct, !ct) -> !ct
    %extracted_slice_116 = tensor.extract_slice %1[0, 0] [1, 1024] [1, 1] : tensor<1x1024xf32> to tensor<1024xf32>
    %pt_117 = cheddar.encode %encoder, %extracted_slice_116 {level = 0 : i64, scale = 90 : i64} : (!encoder, tensor<1024xf32>) -> !pt
    %ct_118 = cheddar.add_plain %ctx, %ct_111, %pt_117 : (!ctx, !ct, !pt) -> !ct
    %ct_119 = cheddar.add %ctx, %ct_115, %ct_118 : (!ctx, !ct, !ct) -> !ct
    %ct_120 = cheddar.add %ctx, %ct_114, %ct_119 : (!ctx, !ct, !ct) -> !ct
    %3 = tensor.empty() : tensor<1x!ct>
    %ct_121 = cheddar.rescale %ctx, %ct_120 : (!ctx, !ct) -> !ct
    %inserted = tensor.insert %ct_121 into %3[%c0] : tensor<1x!ct>
    return %inserted : tensor<1x!ct>
  }
  func.func @matvec__encrypt__arg0(%ctx: !ctx, %encoder: !encoder, %ui: !ui, %arg0: tensor<16xf32>, %ui_0: !ui) -> tensor<1x!ct> attributes {client.enc_func = {func_name = "matvec", index = 0 : i64}} {
    %c0 = arith.constant 0 : index
    %c16_i32 = arith.constant 16 : i32
    %cst = arith.constant dense<0.000000e+00> : tensor<1x1024xf32>
    %c0_i32 = arith.constant 0 : i32
    %c1_i32 = arith.constant 1 : i32
    %c1024_i32 = arith.constant 1024 : i32
    %0 = scf.for %arg1 = %c0_i32 to %c1024_i32 step %c1_i32 iter_args(%arg2 = %cst) -> (tensor<1x1024xf32>)  : i32 {
      %1 = arith.remsi %arg1, %c16_i32 : i32
      %2 = arith.index_cast %1 : i32 to index
      %extracted = tensor.extract %arg0[%2] : tensor<16xf32>
      %3 = arith.index_cast %arg1 : i32 to index
      %inserted = tensor.insert %extracted into %arg2[%c0, %3] : tensor<1x1024xf32>
      scf.yield %inserted : tensor<1x1024xf32>
    }
    %extracted_slice = tensor.extract_slice %0[0, 0] [1, 1024] [1, 1] : tensor<1x1024xf32> to tensor<1024xf32>
    %pt = cheddar.encode %encoder, %extracted_slice {level = 0 : i64, scale = 45 : i64} : (!encoder, tensor<1024xf32>) -> !pt
    %ct = cheddar.encrypt %ui, %pt : (!ui, !pt) -> !ct
    %from_elements = tensor.from_elements %ct : tensor<1x!ct>
    return %from_elements : tensor<1x!ct>
  }
  func.func @matvec__decrypt__result0(%ctx: !ctx, %encoder: !encoder, %ui: !ui, %arg0: tensor<1x!ct>, %ui_0: !ui) -> tensor<16xf32> attributes {client.dec_func = {func_name = "matvec", index = 0 : i64}} {
    %c0 = arith.constant 0 : index
    %c1024_i32 = arith.constant 1024 : i32
    %c16_i32 = arith.constant 16 : i32
    %c1_i32 = arith.constant 1 : i32
    %c0_i32 = arith.constant 0 : i32
    %cst = arith.constant dense<0.000000e+00> : tensor<16xf32>
    %extracted = tensor.extract %arg0[%c0] : tensor<1x!ct>
    %pt = cheddar.decrypt %ui, %extracted : (!ui, !ct) -> !pt
    %0 = cheddar.decode %encoder, %pt : (!encoder, !pt) -> tensor<1x1024xf32>
    %1 = scf.for %arg1 = %c0_i32 to %c1024_i32 step %c1_i32 iter_args(%arg2 = %cst) -> (tensor<16xf32>)  : i32 {
      %2 = arith.remsi %arg1, %c16_i32 : i32
      %3 = arith.index_cast %arg1 : i32 to index
      %extracted_1 = tensor.extract %0[%c0, %3] : tensor<1x1024xf32>
      %4 = arith.index_cast %2 : i32 to index
      %inserted = tensor.insert %extracted_1 into %arg2[%4] : tensor<16xf32>
      scf.yield %inserted : tensor<16xf32>
    }
    return %1 : tensor<16xf32>
  }
}

