!ct = !cheddar.ciphertext
!ctx = !cheddar.context
!encoder = !cheddar.encoder
!evk = !cheddar.eval_key
!pt = !cheddar.plaintext
!ui = !cheddar.user_interface
#layout = #tensor_ext.layout<"{ [] -> [ct, slot] : ct = 0 and slot = 0 }">
#original_type = #tensor_ext.original_type<originalType = f32, layout = #layout>
module attributes {cheddar.P = array<i64: 1152921504607338497, 1152921504608747521>, cheddar.Q = array<i64: 36028797017456641, 35184373006337, 35184370941953, 35184372744193, 35184371138561, 35184372121601>, cheddar.logDefaultScale = 45 : i64, cheddar.logN = 14 : i64, scheme.actual_slot_count = 8192 : i64, scheme.requested_slot_count = 1024 : i64} {
  func.func @simple_sum(%ctx: !ctx, %encoder: !encoder, %ui: !ui, %arg0: tensor<1x!ct> {tensor_ext.original_type = #tensor_ext.original_type<originalType = tensor<32xf32>, layout = #tensor_ext.layout<"{ [i0] -> [ct, slot] : ct = 0 and (-i0 + slot) mod 32 = 0 and 0 <= i0 <= 31 and 0 <= slot <= 1023 }">>}) -> (tensor<1x!ct> {tensor_ext.original_type = #original_type}) {
    %c15 = arith.constant 15 : index
    %c1 = arith.constant 1 : index
    %c2 = arith.constant 2 : index
    %c4 = arith.constant 4 : index
    %c8 = arith.constant 8 : index
    %c16 = arith.constant 16 : index
    %c0 = arith.constant 0 : index
    %cst = arith.constant dense<"…"> : tensor<1024xf32>
    %cst_0 = arith.constant dense<"…"> : tensor<1024xf32>
    %cst_1 = arith.constant dense<"…"> : tensor<1024xf32>
    %extracted = tensor.extract %arg0[%c0] : tensor<1x!ct>
    %evk = cheddar.get_rot_key %ui {distance = -1 : i64} : (!ui) -> !evk
    %ct = cheddar.hrot %ctx, %extracted, %evk, %c16 : (!ctx, !ct, !evk, index) -> !ct
    %ct_2 = cheddar.add %ctx, %extracted, %ct : (!ctx, !ct, !ct) -> !ct
    %evk_3 = cheddar.get_rot_key %ui {distance = -1 : i64} : (!ui) -> !evk
    %ct_4 = cheddar.hrot %ctx, %ct_2, %evk_3, %c8 : (!ctx, !ct, !evk, index) -> !ct
    %ct_5 = cheddar.add %ctx, %ct_2, %ct_4 : (!ctx, !ct, !ct) -> !ct
    %evk_6 = cheddar.get_rot_key %ui {distance = -1 : i64} : (!ui) -> !evk
    %ct_7 = cheddar.hrot %ctx, %ct_5, %evk_6, %c4 : (!ctx, !ct, !evk, index) -> !ct
    %ct_8 = cheddar.add %ctx, %ct_5, %ct_7 : (!ctx, !ct, !ct) -> !ct
    %evk_9 = cheddar.get_rot_key %ui {distance = -1 : i64} : (!ui) -> !evk
    %ct_10 = cheddar.hrot %ctx, %ct_8, %evk_9, %c2 : (!ctx, !ct, !evk, index) -> !ct
    %ct_11 = cheddar.add %ctx, %ct_8, %ct_10 : (!ctx, !ct, !ct) -> !ct
    %evk_12 = cheddar.get_rot_key %ui {distance = -1 : i64} : (!ui) -> !evk
    %ct_13 = cheddar.hrot %ctx, %ct_11, %evk_12, %c1 : (!ctx, !ct, !evk, index) -> !ct
    %ct_14 = cheddar.add %ctx, %ct_11, %ct_13 : (!ctx, !ct, !ct) -> !ct
    %pt = cheddar.encode %encoder, %cst {level = 0 : i64, scale = 45 : i64} : (!encoder, tensor<1024xf32>) -> !pt
    %ct_15 = cheddar.mult_plain %ctx, %ct_14, %pt : (!ctx, !ct, !pt) -> !ct
    %ct_16 = cheddar.rescale %ctx, %ct_15 : (!ctx, !ct) -> !ct
    %ct_17 = cheddar.mult_plain %ctx, %ct_16, %pt : (!ctx, !ct, !pt) -> !ct
    %evk_18 = cheddar.get_rot_key %ui {distance = -1 : i64} : (!ui) -> !evk
    %ct_19 = cheddar.hrot %ctx, %ct_17, %evk_18, %c15 : (!ctx, !ct, !evk, index) -> !ct
    %ct_20 = cheddar.rescale %ctx, %ct_19 : (!ctx, !ct) -> !ct
    %pt_21 = cheddar.encode %encoder, %cst_0 {level = 0 : i64, scale = 45 : i64} : (!encoder, tensor<1024xf32>) -> !pt
    %ct_22 = cheddar.mult_plain %ctx, %ct_20, %pt_21 : (!ctx, !ct, !pt) -> !ct
    %ct_23 = cheddar.rescale %ctx, %ct_22 : (!ctx, !ct) -> !ct
    %ct_24 = cheddar.mult_plain %ctx, %ct_23, %pt_21 : (!ctx, !ct, !pt) -> !ct
    %evk_25 = cheddar.get_rot_key %ui {distance = -1 : i64} : (!ui) -> !evk
    %ct_26 = cheddar.hrot %ctx, %ct_24, %evk_25, %c16 : (!ctx, !ct, !evk, index) -> !ct
    %ct_27 = cheddar.rescale %ctx, %ct_26 : (!ctx, !ct) -> !ct
    %pt_28 = cheddar.encode %encoder, %cst_1 {level = 0 : i64, scale = 45 : i64} : (!encoder, tensor<1024xf32>) -> !pt
    %ct_29 = cheddar.mult_plain %ctx, %ct_27, %pt_28 : (!ctx, !ct, !pt) -> !ct
    %0 = tensor.empty() : tensor<1x!ct>
    %ct_30 = cheddar.rescale %ctx, %ct_29 : (!ctx, !ct) -> !ct
    %inserted = tensor.insert %ct_30 into %0[%c0] : tensor<1x!ct>
    return %inserted : tensor<1x!ct>
  }
  func.func @simple_sum__encrypt__arg0(%ctx: !ctx, %encoder: !encoder, %ui: !ui, %arg0: tensor<32xf32>, %ui_0: !ui) -> tensor<1x!ct> attributes {client.enc_func = {func_name = "simple_sum", index = 0 : i64}} {
    %c0 = arith.constant 0 : index
    %c32_i32 = arith.constant 32 : i32
    %cst = arith.constant dense<0.000000e+00> : tensor<1x1024xf32>
    %c0_i32 = arith.constant 0 : i32
    %c1_i32 = arith.constant 1 : i32
    %c1024_i32 = arith.constant 1024 : i32
    %0 = scf.for %arg1 = %c0_i32 to %c1024_i32 step %c1_i32 iter_args(%arg2 = %cst) -> (tensor<1x1024xf32>)  : i32 {
      %1 = arith.remsi %arg1, %c32_i32 : i32
      %2 = arith.index_cast %1 : i32 to index
      %extracted = tensor.extract %arg0[%2] : tensor<32xf32>
      %3 = arith.index_cast %arg1 : i32 to index
      %inserted = tensor.insert %extracted into %arg2[%c0, %3] : tensor<1x1024xf32>
      scf.yield %inserted : tensor<1x1024xf32>
    }
    %extracted_slice = tensor.extract_slice %0[0, 0] [1, 1024] [1, 1] : tensor<1x1024xf32> to tensor<1024xf32>
    %pt = cheddar.encode %encoder, %extracted_slice {level = 0 : i64, scale = 45 : i64} : (!encoder, tensor<1024xf32>) -> !pt
    %ct = cheddar.encrypt %ui, %pt : (!ui, !pt) -> !ct
    %from_elements = tensor.from_elements %ct : tensor<1x!ct>
    return %from_elements : tensor<1x!ct>
  }
  func.func @simple_sum__decrypt__result0(%ctx: !ctx, %encoder: !encoder, %ui: !ui, %arg0: tensor<1x!ct>, %ui_0: !ui) -> f32 attributes {client.dec_func = {func_name = "simple_sum", index = 0 : i64}} {
    %c0 = arith.constant 0 : index
    %extracted = tensor.extract %arg0[%c0] : tensor<1x!ct>
    %pt = cheddar.decrypt %ui, %extracted : (!ui, !ct) -> !pt
    %0 = cheddar.decode %encoder, %pt : (!encoder, !pt) -> tensor<1x1024xf32>
    %extracted_1 = tensor.extract %0[%c0, %c0] : tensor<1x1024xf32>
    return %extracted_1 : f32
  }
}

